works/letter-from-c/weights/B1_conv2d-bias.npy (npy, 1152 bytes, 1 tensors)

array f4 [256]
00000000: b8fb c33e d79f 43bf aac7 8c3e cbfe 32be
00000010: e49b e1be d994 663d 44e4 ff3e 0f78 c33e
00000020: 9423 4ebe 63c1 213b 5b1d c13e 0320 203f
00000030: 4d04 dcbd 8f7a 9dbe cbc7 1dbf f63b a1bd
00000040: 10fb 1d3e cc39 bd3e bf79 c63e 27b2 a23e
00000050: 156c 80be b2a1 e43d 4ddf fc3d c5cc f4be
00000060: 5724 67be 4aa8 db3d b11d b2be 5b42 ae3e
00000070: d011 83be 0fd4 91bd 0840 e1be b389 8fbc
00000080: 93ab 96be 7adb f9be 8823 193f 0227 4bbd
00000090: 2ed2 c2bd 232d 0e3f 9e0b 6b3e 47d0 0f3f
000000a0: 625d c1be 228b 483e 2983 893e 0654 babd
000000b0: cb54 96be a935 35be 0cbe 773e dd3d da3e
000000c0: d8b6 41be 4b9f acbd e459 d4be ddfc 983e
000000d0: 74b1 a9be a0eb d63c 395f 28bd bfc8 c9be
000000e0: f078 bc3e fe26 a93b 3a1c 42be 4207 6cbe
000000f0: e495 013f 5bdb 39be 9d40 5e3e 87bd 4ebe
00000100: 4c33 2abf db98 efbc dfc7 583f dd09 183e
00000110: 09ae bf3d 00e7 e6be 49f8 a83d f077 a3be
00000120: 1904 ed3c 8da9 483e 0afe 21be ff27 95be
00000130: bdef ae3d 2cfa f1be 8a3c fc3e ff25 77be
00000140: bc1e 8b3e d393 b5be be98 163f e9c3 74be
00000150: 3b61 a83e 704e dbbe 1c55 53be 97cb 9e3e
00000160: bebf 02bf 159e bd3d bfc1 eebd 5444 e8be
00000170: ebc6 3bbf 88dd 31be d8ec 033f 2fb8 a93e
00000180: 6155 fcbd 1891 c03e bfeb e7be cb81 57bd
00000190: 7979 db3d 28f6 05be fb52 f23d 050a afbe
000001a0: 1f36 ffbc c9ec 343d 2850 48bf 3ad5 483d
000001b0: c0fc 973d 9d5d 58bd 5cb7 dfbe 1620 683e
000001c0: 201b 13be 286d 0d3f c73e edbd 4237 ee3d
000001d0: bba1 91be 76fb aa3c d7d4 ecbd bc4f f4be
000001e0: 0253 39bd b4b5 ebbe 63cc 55be 5af1 5fbe
000001f0: 29f3 38be e9fb 99bc ec81 e73e 3416 3f39
00000200: a91e 17be 2994 d0be 5572 d0be 1342 ab3d
00000210: 4e87 77bd aa7a a8be 5f68 523e caec 8f3d
00000220: e5e9 a6be e5e3 76be 41da 4cbd 05b3 52bd
00000230: 014d 0dbd 5dd6 88bd cc9d af3d 3d0a e8be
00000240: f76c d0bd 5ce5 033f 4970 a03e 5363 04be
00000250: 8be3 1dbd 02af a0be 626e e03e b142 ddbe
00000260: 7709 6f3d afaf e9bd b002 243e d883 9bbd
00000270: 9870 a6be 29a7 1fbd 4dfa 0b3f 3f4c a9be
00000280: c468 b4bd a14a 4dbe dcb2 193f bfab d63e
00000290: 3a5d 1b3e 80b1 843d ac91 fe3e f565 25bf
000002a0: 9d05 12be e4a6 e0be 93b6 cabc 8574 7cbe
000002b0: 9e90 953e ab65 fd3d 9514 1d3f 4e78 71bb
000002c0: 711c ac3e 7095 7abe 1d09 0abc 31d8 b2be
000002d0: d3e2 12bd 3968 25bd ca67 3dbe fde4 9abe
000002e0: ba83 45be 6a38 233e 2ca4 a73d 6711 cebd
000002f0: d236 863d d65e 36bf 6623 023f 8616 a5be
00000300: e4f1 b73e 31ba bd3e 9acb c13d 28e0 8a3c
00000310: 4b25 32bf 6f81 a63d 11ab 9ebd c069 a63d
00000320: b514 febe 3588 873e 2aae 51be dce6 113e
00000330: 6ae5 83bd 282c b83d cacb f23e 005f 123d
00000340: c17f abbe 33f7 27be 1686 e7be 1910 4c3d
00000350: b90e dabe 4384 0c3e 69b6 713d 8b4d 443f
00000360: b884 e8bd 96a0 adbd 6dbf 73be f42d 8d3e
00000370: 2e44 01bf 6bb8 18be 2172 fb3e 5e24 0c3e
00000380: 1d06 b23e 70f7 383e 3250 f9be 0c5e b23e
00000390: d278 f73e ecc7 ba3e 5c57 ae3e d4ed 443d
000003a0: 6d9e 743e 636b 423f 739b af3e 34a0 ecbe
000003b0: 0021 923d efcf 6f3e 4fe0 f63e 8bc4 29be
000003c0: 4ddf 473f 3066 7d3e 55f7 af3e 71fa e43d
000003d0: cf3f de3e 58b8 203e 3eac f33e 3e02 eabe
000003e0: 966e 06be 4074 debd 9f7e 30bd 53f7 81be
000003f0: 7bc5 cdbe f96f 9e3e 0d96 cd3e 80cc 083f
0.38277984 -0.7641577 0.27496082 -0.17480008 -0.44064248 0.056294296 0.4997884 0.38177535
-0.2013076 0.0024681918 0.3771771 0.62548846 -0.10743008 -0.30757567 -0.61632985 -0.07872765
0.15427804 0.36958158 0.3876476 0.31776544 -0.2508246 0.111636534 0.12347279 -0.47812477
-0.22572456 0.10725458 -0.34788278 0.34035 -0.25599527 -0.07120525 -0.43994164 -0.017521715
-0.29427776 -0.4880026 0.5981984 -0.049597748 -0.09512745 0.55537623 0.2295365 0.5617718
-0.37766558 0.19584325 0.2685788 -0.090980574 -0.29361567 -0.17696251 0.24193591 0.42625323
-0.18917406 -0.0842882 -0.4147483 0.2988042 -0.33143198 0.026235402 -0.041106436 -0.3941097
0.36811018 0.005162119 -0.1895608 -0.23049644 0.5061934 -0.18150084 0.21704336 -0.20189486
-0.6648452 -0.029247692 0.8467998 0.14847513 0.093593664 -0.45098114 0.08250482 -0.31927443
0.028932618 0.19595928 -0.15819564 -0.29132077 0.0854182 -0.47261178 0.49264938 -0.24135588
0.27171886 -0.35464343 0.58826816 -0.23902859 0.3288668 -0.4283328 -0.20637935 0.31014702
-0.51073825 0.092586674 -0.11658048 -0.4536463 -0.733504 -0.17369664 0.5153327 0.33148333
-0.12320972 0.37610698 -0.45297047 -0.052614015 0.107165284 -0.13082182 0.118322335 -0.34187332
-0.031153737 0.04417113 -0.7824731 0.049031474 0.07421255 -0.05282365 -0.4369458 0.2266849
-0.14365816 0.55244684 -0.115842395 0.11631633 -0.28443703 0.020871859 -0.115640335 -0.47717083
-0.045245178 -0.46037066 -0.20878749 -0.21869412 -0.18061508 -0.018796878 0.4521631 0.00018223451
-0.1475779 -0.40738037 -0.40712228 0.08362212 -0.06043177 -0.32906085 0.20547627 0.07027586
-0.32600322 -0.24110372 -0.05001283 -0.051440258 -0.034497265 -0.066815116 0.08575019 -0.4532031
-0.101770334 0.5152185 0.31335667 -0.12928514 -0.03854708 -0.3138352 0.43834215 -0.43214944
0.058358636 -0.11410462 0.1601665 -0.075935066 -0.32507777 -0.038977776 0.54678804 -0.33065984
-0.08809045 -0.20048 0.6003854 0.41927907 0.15172282 0.06479168 0.49720514 -0.646087
-0.14259954 -0.43877327 -0.024745261 -0.24653824 0.29211897 0.12372907 0.6135953 -0.0036845389
0.3361545 -0.24471068 -0.008425024 -0.34930566 -0.035860848 -0.040382598 -0.18496624 -0.3025283
-0.19288531 0.15939489 0.0818561 -0.10061913 0.06553425 -0.7123846 0.50835264 -0.32243747
0.35926735 0.37056115 0.09462662 0.01695259 -0.69588155 0.08130156 -0.07747472 0.08125639
-0.49625173 0.26471105 -0.20476595 0.14248222 -0.06440242 0.08992797 0.47421104 0.03573513
-0.33495906 -0.16402893 -0.45219487 0.04982004 -0.42589357 0.13722329 0.05901185 0.7668082
-0.11353439 -0.08477895 -0.23803492 0.27574122 -0.5049466 -0.149141 0.4911051 0.13685748
0.3477029 0.1806314 -0.48693997 0.34837377 0.48334366 0.36480653 0.34051025 0.048078373
0.2388856 0.7594511 0.34298286 -0.46215975 0.071352005 0.23419164 0.4821801 -0.16578881
0.78075105 0.24746013 0.34368387 0.111805804 0.43408057 0.15695322 0.47592348 -0.45704836
-0.13128123 -0.10862017 -0.043089505 -0.25384006 -0.40189728 0.30944803 0.40153542 0.5343704
