works/letter-from-c/weights/B2_conv2dTranspose_1-bias.npy (npy, 640 bytes, 1 tensors)

array f4 [128]
0	0x3e12a75a	0.14321652
1	0x3e3f334d	0.18671913
2	0xbdd8328d	-0.10556517
3	0xbd6e8551	-0.05823261
4	0xbe4a8f0b	-0.19781129
5	0xbced0b72	-0.028936122
6	0x3e128f1f	0.14312409
7	0x3e9ffc51	0.3124719
8	0x3d996672	0.07490243
9	0xbd415a03	-0.047204982
10	0xbcaa02ba	-0.020753253
11	0x3e88eec0	0.26744652
12	0xbd38a414	-0.045078352
13	0x3db1efdf	0.0868833
14	0xbcf84c09	-0.030309694
15	0xbd7ff2bd	-0.062487353
16	0xbc07d2ce	-0.008290006
17	0x3d920df1	0.07131565
18	0x3dced860	0.10099864
19	0x3da091f1	0.07840336
20	0x3ddab511	0.10679067
21	0xbe64bec4	-0.22338396
22	0x3df80802	0.12110902
23	0xbb609977	-0.003427116
24	0xbd2d9daa	-0.04238669
25	0xbe0ad810	-0.13558984
26	0x3d930589	0.0717879
27	0xbdc23ced	-0.09484277
28	0x3dfe650d	0.12421618
29	0x3b2a01d1	0.0025941024
30	0x3b081a14	0.0020767497
31	0x3e7cd96c	0.24692315
32	0x3d7b1401	0.061298374
33	0xbcacfc67	-0.021116449
34	0x3d00d81b	0.031456094
35	0xbe0e5bcb	-0.13902204
36	0x3cc0434c	0.02346959
37	0x3cda8122	0.026672903
38	0x3ad0f1ba	0.0015941181
39	0xbe81aacc	-0.2532562
40	0xbd4935b6	-0.04912349
41	0xbd2460c2	-0.040131338
42	0x3e50b7ef	0.20382665
43	0xbdb582ff	-0.08862876
44	0x3cb1c300	0.021699429
45	0xbe0de4f1	-0.13856865
46	0x3dbb0c39	0.09133191
47	0x3d426975	0.047463853
48	0x3d34a4a3	0.044102322
49	0xbdd97072	-0.1061715
50	0x3e0d543c	0.13801664
51	0xbcb0a167	-0.021561338
52	0x3d5a94c4	0.05336453
53	0xbe27e0c9	-0.16394342
54	0xbc675b83	-0.014120939
55	0x3da7e732	0.08198394
56	0xbc3cd4f5	-0.011525382
57	0x3cf03e62	0.029326621
58	0x3ac0b2b2	0.0014701693
59	0xbd58ca79	-0.052927468
60	0xbd8f3fa5	-0.06994561
61	0xbd2c86d0	-0.042120755
62	0x3dbe60ce	0.09295808
63	0x3c3cca0f	0.011522784
64	0xbd8a11b9	-0.067416616
65	0xbcda8cea	-0.026678521
66	0xbd2ea05c	-0.0426334
67	0x3de30bcb	0.11086234
68	0xbc3c9b77	-0.011511675
69	0xbd9d5881	-0.076828964
70	0x3dd1c8ee	0.102434024
71	0xbcdce010	-0.02696231
72	0x3d8db4e9	0.069192715
73	0xbe24dff9	-0.16101064
74	0x3dafcc54	0.08583894
75	0xbc1fc8d7	-0.009752474
76	0x3e74b276	0.23896202
77	0xbd05a94d	-0.03263216
78	0xbdc5096c	-0.09620938
79	0xbd32c7d2	-0.043647595
80	0x3e4aece6	0.19816932
81	0x3d17c47d	0.03705262
82	0x3e2647f2	0.16238382
83	0x3e02667a	0.12734404
84	0x3e6d0575	0.23146613
85	0xbd5fdc2e	-0.05465334
86	0xbe235a1c	-0.15952343
87	0xbe9832f4	-0.29726374
88	0x3de0eaa1	0.10982252
89	0x3c911a6c	0.017712794
90	0x3d397903	0.04528142
91	0xbd512035	-0.051056106
92	0x3d19ed90	0.037580073
93	0xbd1f8a1a	-0.038950063
94	0xbe81e1b6	-0.25367516
95	0xbd9c831a	-0.07642193
96	0xbe39ac50	-0.18132138
97	0xbd8b35a8	-0.067973435
98	0xbd6075c0	-0.054799795
99	0xbe3becf1	-0.18352105
100	0x3cf835cb	0.030299088
101	0x3a8e08f2	0.0010836406
102	0x3dde13b6	0.10843603
103	0x3d5d4cd2	0.05402834
104	0xbde26107	-0.11053663
105	0x3d09f8bb	0.033684473
106	0x3d85ee1e	0.06539558
107	0xbd60388f	-0.05474144
108	0x3ddfbc83	0.10924628
109	0x3d8f8fea	0.07009871
110	0x3c08f967	0.008360243
111	0x3e67ac78	0.22624385
112	0xbc3944d6	-0.011307916
113	0x3d57e2cd	0.05270653
114	0x3dabb51c	0.08384153
115	0x3e2dc6f9	0.16970433
116	0x3d5f4cf8	0.054516762
117	0xbaf73494	-0.0018860274
118	0xbca3a2ef	-0.019975154
119	0xbd14bac1	-0.036310915
120	0x3d2d24e6	0.042271517
121	0xbb02c2ef	-0.0019952615
122	0x3e62c85e	0.22146747
123	0x3dd554ca	0.10416563
124	0xbe3a5020	-0.18194628
125	0x3e557318	0.20844686
126	0xbdbdc68e	-0.09266387
127	0x3db79613	0.08964171
