works/letter-from-c/weights/B2_conv2d-bias.npy (npy, 640 bytes, 1 tensors)

array f4 [128]
-0.16672184 0.63133574 -0.21825488 0.6113864 0.3837498 0.76227176 -0.22362605 0.8423851
-0.40990153 -0.95844114 1.3578681 -0.035968702 0.7255081 0.14197113 0.36715645 -0.19889706
-0.30887815 0.5013678 0.10603063 -0.3161489 -0.7981386 0.24475312 0.52306324 -0.497553
0.35248804 -0.019269556 0.13020504 0.048264377 0.044455066 0.0886282 0.39852104 0.1698203
-0.008038102 0.79676276 -1.18217 0.3776871 -0.38180307 0.14152244 -0.79055256 0.21338725
-0.55614126 0.32730442 -0.5347154 -0.041821036 0.28474468 0.39317527 -0.14413159 0.5236208
0.13672906 -0.2708457 -0.30189916 0.32219276 1.0579625 -0.008837322 0.7900559 -0.7646535
-0.007944951 -0.3303568 -0.2529708 -0.1735404 -0.06522504 -0.7818435 0.19152504 -0.1284525
-0.27230176 -0.2981793 -0.71181726 -0.2873565 0.094136186 0.18283476 0.4152795 -0.25054926
-0.63224167 -0.41160926 -0.5090982 -0.4698643 0.29909346 0.07242106 -1.4243383 -0.16921422
0.07259971 0.81933993 0.6582859 0.15032147 0.39140123 0.17158283 -0.5940905 0.1713369
0.31746745 -0.1938954 -0.36690417 0.13761719 -0.72249365 0.04019403 0.13833557 -0.42452878
1.320421 0.88106805 -0.8024863 -0.6703428 -0.2457057 1.1674768 0.98016715 0.5110103
-0.07691627 -0.13571586 0.002143622 0.2248795 0.7112452 0.5832422 -0.40192255 0.36332813
-0.2745644 -0.37126642 -0.13383104 -0.22394261 0.11822583 -0.78591645 -0.2064899 0.066555135
-0.42683887 -0.5000084 0.0067766625 -0.97257376 0.118246794 1.0527458 0.53963953 -0.46193963
00000000: 21b9 2abe 389f 213f 357e 5fbe d283 1c3f
00000010: db7a c43e 3e24 433f 3afe 64be 8da6 573f
00000020: 9dde d1be 665c 75bf 9fce ad3f eb53 13bd
00000030: e6ba 393f e160 113e eefb bb3e acab 4bbe
00000040: 4725 9ebe a459 003f 9626 d93d 45de a1be
00000050: d052 4cbf 90a0 7a3e 79e7 053f 44bf febe
00000060: 5079 b43e 30db 9dbc 7854 053e deb0 453d
00000070: 8416 363d b482 b53d f30a cc3e 5fe5 2d3e
00000080: 3eb2 03bc a5f8 4b3f 5951 97bf 3460 c13e
00000090: b17b c3be 42eb 103e a761 4abf 3082 5a3e
000000a0: 465f 0ebf 7294 a73e 1ce3 08bf 894c 2bbd
000000b0: 0eca 913e 454e c93e 3b97 13be 030c 063f
000000c0: b402 0c3e 4aac 8abe 8792 9abe 73f6 a43e
000000d0: 516b 873f 6aca 10bc 1a41 4a3f 55c0 43bf
000000e0: 8a2b 02bc 8724 a9be 6485 81be 93b4 31be
000000f0: b594 85bd e526 48bf 241f 443e 0d89 03be
00000100: 236b 8bbe f5aa 98be a839 36bf 6420 93be
00000110: 79ca c03d 0939 3b3e 849f d43e fe47 80be
00000120: 97da 21bf 73be d2be 4254 02bf 0e92 f0be
00000130: c722 993e 7e51 943d b850 b6bf 7e46 2dbe
00000140: 28af 943d 43c0 513f 6d85 283f dfed 193e
00000150: be65 c83e 69b3 2f3e 5116 18bf f172 2f3e
00000160: 188b a23e 848c 46be ddda bbbe 85eb 0c3e
00000170: 58f5 38bf 7fa2 243d d7a7 0d3e d65b d9be
00000180: 8e03 a93f ad8d 613f be6f 4dbf 969b 2bbf
00000190: 469a 7bbe e16f 953f 3cec 7a3f 92d1 023f
000001a0: 4786 9dbd 19f9 0abe 027c 0c3b d046 663e
000001b0: 2a14 363f 5c4f 153f cbc8 cdbe 2506 ba3e
000001c0: b493 8cbe a216 bebe 010b 09be 3651 65be
000001d0: 6220 f23d d231 49bf 1772 53be 0f4e 883d
000001e0: a08a dabe 8d00 00bf c40e de3b 98fa 78bf
000001f0: 602b f23d 60c0 863f d125 0a3f 5a83 ecbe
