works/letter-from-c/weights/B3_conv2dTranspose_2-kernel.npy (npy, 32896 bytes, 1 tensors)

array f4 [1, 1, 64, 128]
-0.23982726 -0.018283874 -0.059456483 0.004914044 0.047705077 -0.042322867 -0.25040278 0.32595313
0.10646485 0.08721647 -0.05298404 -0.12044505 0.35885772 0.014972855 0.13011375 0.16134045
-0.12473494 -0.034188386 0.17914526 0.07317533 -0.10380802 -0.0071122297 0.13809106 0.009198612
0.1480428 0.095020965 0.26542184 0.015690733 -0.070687056 -0.05730321 -0.15231079 0.0050197826
-0.0699569 0.1254763 0.14511949 0.05602134 0.00679269 -0.1016481 0.06645679 0.3203534
-0.15136881 0.063224755 -0.047307357 0.02895539 -0.05029158 0.117510855 0.17824416 -0.011807585
0.13583955 0.0080339955 -0.02383327 0.1305413 -0.098705284 -0.0075427555 0.023779143 0.02249913
-0.17910536 -0.03061188 -0.14227214 0.26615122 -0.23466222 -0.118533105 -0.17081271 -0.0808129
-0.07093132 -0.13877988 0.07343553 -0.019453878 0.04925947 0.2409563 0.07443631 0.1767624
-0.061646067 -0.04310852 -0.077171974 -0.13110213 0.2891424 0.033055883 -0.18559746 -0.12323749
0.0026728786 0.24211377 0.044196595 -0.03974537 -0.08453405 -0.04617471 -0.119842924 0.0494076
0.0517498 -0.015403389 -0.14784285 0.00095108093 0.0359406 -0.060114674 -0.16953968 -0.055750903
0.14457424 0.07891897 -0.12963572 -0.12835786 0.06994533 0.07559252 0.17278537 0.09092887
0.1940921 0.059444103 0.055161927 0.10422705 -0.120046146 0.37037152 0.21026877 0.120284446
0.021620246 -0.0955247 -0.08986012 -0.049638834 0.0111278 0.21053137 -0.07571837 -0.043079466
-0.08082955 -0.09632792 -0.09575903 0.03108237 -0.13681538 0.0198765 -0.022298543 0.054603703
0.09406228 0.0016220084 -0.009474873 0.07299977 -0.12333831 -0.079009004 -0.11555636 0.17693982
-0.029947026 0.022797806 -0.03420258 0.05938276 0.048714813 -0.008817016 0.16929473 -0.14127305
-0.015878983 0.17527111 -0.05046339 -0.039062954 -0.098177746 -0.006653421 0.08399788 -0.027286941
-0.19403984 0.038472243 -0.22293176 0.097194694 -0.0063867443 -0.012316889 0.018802552 -0.056024585
0.059967224 -0.042500526 0.046634376 -0.062843226 -0.0038786037 -0.15956406 0.07655446 0.050704554
-0.04800709 -0.015968554 0.05592191 -0.08522051 -0.09945724 0.020121383 0.11926689 -0.089359015
-0.042022504 0.06506872 -0.0477952 -0.038741063 -0.13017562 -0.038111288 -0.09510269 -0.051045295
-0.021100987 -0.009358079 -0.14810513 -0.018348016 0.22401878 -0.016839024 -0.050421346 0.03319638
0.07153647 0.014068378 -0.2471281 -0.12944743 -0.044976976 0.031792812 -0.015043097 -0.07915772
0.022031443 -0.1308777 -0.097572476 0.038925674 -0.021344684 0.014528012 0.035109803 0.028457105
-0.06673948 -0.04121028 -0.063255675 -0.019663578 0.08537014 0.07374482 -0.053699613 -0.090995274
-0.05760088 -0.11873775 -0.04133496 -0.117699586 -0.04991618 0.04386431 -0.0019523851 0.09821204
-0.12296123 0.059051648 -0.08759459 0.21067101 0.023999015 -0.030411161 0.094688974 0.09746222
-0.017163042 0.09789316 -0.05267937 0.060876243 -0.027993746 0.09480211 -0.096616656 0.11133578
-0.120757475 0.10733384 0.04188722 0.05544602 0.04541749 0.0966021 0.14258444 0.05609755
0.013514226 -0.07453488 -0.05113198 -0.09775379 -0.06953313 0.060984366 0.047644693 -0.015877878
00000000: 4795 75be 10c8 95bc a488 73bd fd05 a13b
00000010: 6666 433d be5a 2dbd cb34 80be 54e3 a63e
00000020: 3e0a da3d 8c9e b23d cb05 59bd e5ab f6bd
00000030: 33bc b73e b550 753c 8a3c 053e 6e36 253e
00000040: 0875 ffbd 1f09 0cbd db71 373e f3dc 953d
00000050: 4d99 d4bd b50d e9bb be67 0d3e c6b5 163c
00000060: 8898 173e 5a9a c23d 5fe5 873e da89 803c
00000070: 60c4 90bd c5b6 6abd 5cf7 1bbe fd7c a43b
00000080: 9045 8fbd dc7c 003e 349a 143e a276 653d
00000090: 3795 de3b e12c d0bd 7f1a 883d 5c05 a43e
000000a0: 6d00 1bbe fb7b 813d 5cc5 41bd db33 ed3c
000000b0: 8bfe 4dbd 88a9 f03d a385 363e 9a74 41bc
000000c0: 8619 0b3e 05a1 033c fd3d c3bc 9eac 053e
000000d0: ff25 cabd 3829 f7bb 7acc c23c 1850 b83c
000000e0: 6567 37be c4c5 fabc caaf 11be f944 883e
000000f0: 4b4b 70be 7cc1 f2bd 87e9 2ebe 3c81 a5bd
00000100: 7144 91bd 501c 0ebe 5e65 963d bd5d 9fbc
00000110: 4cc4 493d 40bd 763e 1072 983d 3401 353e
00000120: 9680 7cbd 8f92 30bd 570c 9ebd a33f 06be
00000130: 790a 943e 9b65 073d 430d 3ebe f063 fcbd
00000140: 762b 2f3b acec 773e 7d07 353d 0bcc 22bd
00000150: 3020 adbd b121 3dbd 3570 f5bd a05f 4a3d
00000160: 99f7 533d 7f5e 7cbc 1e64 17be f651 793a
00000170: 7336 133d ce3a 76bd cf9b 2dbe 0f5b 64bd
00000180: 450b 143e 45a0 a13d 3abf 04be 3e70 03be
00000190: 7f3f 8f3d 40d0 9a3d a6ee 303e ea38 ba3d
000001a0: 14c0 463e a97b 733d 79f1 613d fe74 d53d
000001b0: c1da f5bd 56a1 bd3e b250 573e b157 f63d
000001c0: f11c b13c 74a2 c3bd 9508 b8bd 1752 4bbd
000001d0: 6051 363c 8995 573e 3c12 9bbd 1874 30bd
000001e0: f789 a5bd 9347 c5bd 4f1d c4bd 74a0 fe3c
000001f0: 5519 0cbe 0bd4 a23c 6fab b6bc 22a8 5f3d
00000200: baa3 c03d 9299 d43a 7f3c 1bbc e780 953d
00000210: cc98 fcbd 79cf a1bd d0a8 ecbd b62f 353e
00000220: 7753 f5bc 77c2 ba3c 0118 0cbd 563b 733d
00000230: 2f89 473d 3f75 10bc 995b 2d3e e2a9 10be
00000240: a414 82bc 457a 333e b3b2 4ebd 7a00 20bd
00000250: 6a11 c9bd f104 dabb 1507 ac3d dd88 dfbc
00000260: 61b2 46be 1295 1d3d 3948 64be 030e c73d
00000270: e547 d1bb c7cc 49bc cf07 9a3c 097a 65bd
00000280: 31a0 753d 0815 2ebd b003 3f3d f3b3 80bd
00000290: 2c30 7ebb c364 23be 96c8 9c3d 94af 4f3d
000002a0: 15a3 44bd 7cd0 82bc 5f0e 653d 1788 aebd
000002b0: 3db0 cbbd 99d5 a43c 3342 f43d dc01 b7bd
000002c0: ca1f 2cbd c042 853d e6c4 43bd f3ae 1ebd
000002d0: c24c 05be 951a 1cbd 33c5 c2bd df14 51bd
000002e0: fadb acbc a152 19bc dfa8 17be 944e 96bc
000002f0: 2e65 653e fef1 89bc 9d86 4ebd edf8 073d
00000300: b681 923d 0e7f 663c 260f 7dbe de8d 04be
00000310: c739 38bd 2e39 023d 5277 76bc 711d a2bd
00000320: 497b b43c ce04 06be 14d4 c7bd 8770 1f3d
00000330: 0cdb aebc e606 6e3c 4ccf 0f3d e01e e93c
00000340: b5ae 88bd 1ccc 28bd 318c 81bd 8315 a1bc
00000350: 8ad6 ae3d 8607 973d 20f4 5bbd bb5b babd
00000360: e6ee 6bbd c72c f3bd d94e 29bd 7b0c f1bd
00000370: e974 4cbd 10ab 333d 2ce7 ffba 6523 c93d
00000380: 19d3 fbbd 24e0 713d cb64 b3bd 24ba 573e
00000390: 9599 c43c d420 f9bc 4bec c13d 469a c73d
000003a0: 8299 8cbc 367c c83d 53c6 57bd 5e59 793d
000003b0: 2453 e5bc 9c27 c23d f4de c5bd 0304 e43d
000003c0: b24f f7bd d8d1 db3d ef91 2b3d 5e1b 633d
000003d0: b107 3a3d 52d7 c53d a801 123e 8bc6 653d
000003e0: c66a 5d3c bea5 98bd c46f 51bd 2433 c8bd
000003f0: 6367 8ebd beca 793d 1527 433d 5312 82bc
