works/letter-from-c/weights/CBN_B1_2_dense_1-kernel.npy (npy, 32896 bytes, 1 tensors)

array f4 [32, 256]
0	0x3db3a378	0.087714136
1	0xbec25526	-0.37955588
2	0xbdf4fedc	-0.11962673
3	0x3f05b6c0	0.5223198
4	0x3e5a8f8f	0.21343826
5	0xbe0361b2	-0.12830237
6	0x3e99252d	0.29911175
7	0xbe5c5a37	-0.21518789
8	0xbd666752	-0.056250878
9	0x3e8c5702	0.27410132
10	0xbe0cdd22	-0.1375623
11	0x3ea3fd3d	0.32029143
12	0x3e3ef10b	0.18646638
13	0x3eb3736d	0.35049
14	0x3e3ca070	0.18420577
15	0x3d9773a6	0.07395105
16	0x3e8dc031	0.27685693
17	0xbd8a44fe	-0.067514405
18	0xbee56511	-0.4480367
19	0x3e6e53ae	0.23274109
20	0xbdbe32cb	-0.09287032
21	0xbd2c98a2	-0.04213775
22	0xbe27c51e	-0.16383788
23	0x3e6b2366	0.22962722
24	0x3ebc8d0f	0.3682637
25	0xbd348a62	-0.044077285
26	0x3eb425b8	0.35185027
27	0x3ee4f39a	0.44717103
28	0xbaa932f2	-0.001290886
29	0x3ec08649	0.3760245
30	0x3db45e5f	0.08807062
31	0x3e88ee72	0.2674442
32	0xbcd17d48	-0.025572434
33	0xbdc0a476	-0.094063684
34	0x3e2bf011	0.16790797
35	0xbe678a50	-0.22611356
36	0xbd3e2b26	-0.04642787
37	0x3ea50d21	0.3223658
38	0xbeb265fe	-0.3484344
39	0xbdc475f9	-0.09592814
40	0xbdcfa3fd	-0.101387
41	0x3f04f283	0.51932544
42	0xbe4af566	-0.19820175
43	0x3e917ed0	0.28417063
44	0xbe9de1de	-0.30836385
45	0x3e810ef1	0.25206712
46	0x3e207712	0.15670422
47	0x3e7bccd8	0.2458986
48	0xbcbf75bc	-0.02337157
49	0xbee7cedb	-0.45275006
50	0x3ea8462d	0.3286604
51	0xbea8f2a3	-0.32997617
52	0xbe227178	-0.15863597
53	0x3d61e44c	0.05514936
54	0xbe0a7a00	-0.13523102
55	0x3daf6092	0.08563341
56	0xbef78ca4	-0.48349488
57	0x3c4b400b	0.012405406
58	0x3da57e88	0.080807745
59	0x3e98d58b	0.2985042
60	0x3dc3d379	0.095618196
61	0xbe2a5ff9	-0.16638173
62	0x3dbe630c	0.092962354
63	0x3e79fb26	0.24412212
64	0x3e835925	0.2565395
65	0x3ed500c5	0.4160215
66	0x3ed04b6f	0.4068255
67	0x3ec2f63c	0.38078487
68	0x3e228ba2	0.15873578
69	0x3eb0900a	0.34484893
70	0xbe7d357e	-0.24727437
71	0xbefe883a	-0.49713308
72	0x3e9f4f9a	0.3111542
73	0xbd3ccd70	-0.046094358
74	0x3e03c49a	0.12867966
75	0x3b13f5b6	0.0022576875
76	0x3edf1f17	0.43578407
77	0x3ed12cb4	0.40854418
78	0xbdda52d4	-0.106603295
79	0x3df60520	0.12012696
80	0x3e9025f4	0.28153956
81	0xbe8ff375	-0.2811543
82	0x3df5148a	0.11966808
83	0xbec36c35	-0.38168493
84	0x3e06ad2a	0.13151994
85	0x3e8d441b	0.27591023
86	0x3d389e7a	0.04507301
87	0x3ed80c8b	0.4219707
88	0x3f08a727	0.53380054
89	0xbeb4374c	-0.35198438
90	0xbe4cb6d6	-0.19991621
91	0xbdcbcc44	-0.0995107
92	0x3ea87935	0.32904974
93	0x3e9b3028	0.30310178
94	0x3d8d8a07	0.06911092
95	0x3cb05c66	0.021528434
96	0xbe43bb92	-0.19114521
97	0xbca517c4	-0.020152934
98	0xbe68c5c8	-0.22731698
99	0xbe7587f6	-0.23977646
100	0xbeaf8f15	-0.3428885
101	0x3db787fe	0.08961485
102	0xbdc1d0c0	-0.09463644
103	0x3e128e9b	0.14312212
104	0x3cea973d	0.02863657
105	0xbe9233ac	-0.28555048
106	0xbc988d04	-0.018621929
107	0x3eacdf50	0.33764124
108	0xbd4d2c04	-0.050090805
109	0xbc835286	-0.016030561
110	0xbe3d5378	-0.18488872
111	0xbe56d425	-0.20979364
112	0xbe39c0d6	-0.18139967
113	0xbe1d8404	-0.15382391
114	0xbe97c480	-0.29642105
115	0xbd892740	-0.066969395
116	0x3e0bb06f	0.13641523
117	0x3ddd1e8b	0.10796841
118	0xbeb084ab	-0.34476218
119	0xbed1b6f2	-0.4095989
120	0xbe9f7f6a	-0.31151897
121	0xbc863a21	-0.01638514
122	0x3e76829b	0.2407326
123	0xbe8161be	-0.25269884
124	0x3d9f050f	0.07764637
125	0x3cf43c66	0.029813956
126	0x3e4fa210	0.20276666
127	0x3d802d50	0.06258643
128	0x3ed383ab	0.41311392
129	0xbe829634	-0.2550522
130	0x3ea63896	0.32465047
131	0x3d262410	0.040561736
132	0xbee3f611	-0.4452367
133	0x3ec026de	0.37529653
134	0xbe7dc785	-0.24783142
135	0xbd885987	-0.06657701
136	0xbe7c494b	-0.24637334
137	0x3eccccd5	0.40000024
138	0x3e8fe939	0.28107622
139	0xbea43501	-0.3207169
140	0xbe375136	-0.17902073
141	0x3e9755e0	0.29557705
142	0x3ded9ccb	0.116021715
143	0xbe064229	-0.13111176
144	0x3c2058a2	0.009786757
145	0x3e0e6c2c	0.13908452
146	0xbdc7a544	-0.09748319
147	0xbde932ac	-0.11386618
148	0xbed1a49b	-0.40945897
149	0xbe2bb297	-0.16767345
150	0xbdb9e99d	-0.09077761
151	0x3ea03b5f	0.31295297
152	0x3de6b92e	0.11265789
153	0xbe80b4e0	-0.25137997
154	0x3ec03ce1	0.37546447
155	0x3cb8275b	0.022479704
156	0x3c1d2f0d	0.009593737
157	0xbdbe43b5	-0.09290258
158	0xbd8b230e	-0.067937955
159	0xbe784817	-0.2424625
160	0x3e1fce55	0.15606053
161	0x3e84421d	0.2583169
162	0x3d8c660c	0.068554014
163	0x3e854062	0.26025683
164	0xbe8b79a5	-0.27241245
165	0x3e604b80	0.21903801
166	0xbe4c32b0	-0.19941211
167	0x3e4f90cb	0.20270078
168	0x3e3db014	0.185242
169	0x3e1525ba	0.14565173
170	0x3dbdfad9	0.09276361
171	0x3ec65a31	0.38740686
172	0xbe2df453	-0.16987734
173	0xbe84d9ab	-0.25947317
174	0xbecf8777	-0.4053304
175	0x3b93c945	0.004510077
176	0xbe93d3c3	-0.288725
177	0xbc5ae433	-0.013360071
178	0xbe2e2828	-0.17007506
179	0xbed722f3	-0.42018852
180	0xbd8dea92	-0.06929506
181	0x3e57bc71	0.21067978
182	0x3e6dfdab	0.23241298
183	0xbd634656	-0.055487
184	0xbe8fb7b4	-0.28069842
185	0x3b941c5e	0.004519983
186	0xbe1b9b87	-0.15196048
187	0xbe9891c7	-0.2979872
188	0x3e64efab	0.22357051
189	0x3e82bd6b	0.2553514
190	0xbe2d57e0	-0.16928053
191	0xbe401051	-0.18756224
192	0xbe04d150	-0.12970471
193	0x3eb6d255	0.35707346
194	0x3e995fc5	0.2995588
195	0xbe384b04	-0.17997366
196	0xbe25cc02	-0.16191104
197	0xbd1c32a8	-0.038134247
198	0xbde766e8	-0.11298925
199	0xbec390a7	-0.38196298
200	0x3edb65c2	0.42851073
201	0x3eee709d	0.46570292
202	0x3e528111	0.20557047
203	0x3e84bb32	0.2592407
204	0x3e35e215	0.17762025
205	0xbe9287b9	-0.28619173
206	0xbdeb54ba	-0.1149077
207	0x3e491f3e	0.19640824
208	0x3b07dcea	0.002073104
209	0xbdb69043	-0.089142345
210	0xbc96f3a0	-0.018426716
211	0x3e997143	0.29969224
212	0xbebd211a	-0.36939317
213	0x3ee42058	0.44555926
214	0x3dab64d8	0.08368844
215	0x3e57a1c7	0.21057807
216	0xbc5e6f2a	-0.013576308
217	0x3e8b5a17	0.2721717
218	0x3ef770e0	0.48328304
219	0x3e864103	0.26221475
220	0x3e6961de	0.2279124
221	0xbce991b8	-0.028511867
222	0xbef1c800	-0.472229
223	0xbe829014	-0.25500548
224	0xbe95a325	-0.29226032
225	0xbeb0ebf8	-0.3455503
226	0x3db1f698	0.08689612
227	0x3dafcf6c	0.085844845
228	0xbeacaa93	-0.33723888
229	0x3eafe430	0.3435378
230	0x3ea1e6d0	0.31621408
231	0x3da22ba8	0.07918483
232	0xbdf7d6f2	-0.121015444
233	0x3c929ee4	0.01789803
234	0x3f004f07	0.50120586
235	0xbd0118bb	-0.031517725
236	0xbe2e7414	-0.17036468
237	0x3cc9a98b	0.024616977
238	0x3d8669e6	0.06563167
239	0x3ebdb6b8	0.37053466
240	0x3dda5715	0.10661141
241	0xbe317da6	-0.17333087
242	0x3e1404f7	0.14455019
243	0x3e12cbf4	0.14335614
244	0x3e4648f4	0.19363767
245	0x3e2a5b16	0.16636309
246	0x3e6cadeb	0.2311322
247	0x3c8a719d	0.016899878
248	0x3daa3cb1	0.08312357
249	0x3de35610	0.111003995
250	0x3e11b73b	0.14230053
251	0xbd853a61	-0.065052755
252	0x3e99c9b9	0.30036715
253	0xbe13e9e1	-0.14444686
254	0xbd7fcf6f	-0.062453683
255	0x3d85086a	0.064957455
