works/letter-from-c/weights/CBN_B2_2_batchNormalization-moving_mean.npy (npy, 640 bytes, 1 tensors)

array f4 [128]
00000000: 99c3 54bf f0c3 82be 4059 6ebe 7176 babe
00000010: 0ac9 f1be d56b 3ebf 7f1e 083d bf31 a3be
00000020: 1811 2b3f be5c fcbe ec06 4ebe 9456 f93c
00000030: 41de f83d 1a63 c93f e82c 0e3e 5407 233f
00000040: fd31 cdbf 852b 013f e43a 803e a3c1 debf
00000050: bc5c 60be eccc 223f 0366 613f 065b 81be
00000060: 56d5 f1be 6de7 90bd f922 063f 4d5b 55be
00000070: e3fc 0fbf c010 f13e 074a 5f3e faf8 cf3e
00000080: 845b 0abf 7922 b3bd 24e4 83be a454 bb3e
00000090: e96b 843e ac5c 273e 5631 0ebe b68c 6fbe
000000a0: dfb8 113e 4e15 173f 75ae da3f 18e9 d83e
000000b0: 0b61 62bd 26ab f1be 0575 88bf 0b86 6c3d
000000c0: 6d29 8a3c 3fdb 99be 7746 c6be ff93 11bf
000000d0: 9e44 15bf af97 083d 6b48 37be d015 453e
000000e0: 4805 873f f148 5b3e 5acc aa3d 56a1 28be
000000f0: 1e8e 183f 77a9 053f 8a4d 85be 478d 413e
00000100: 0592 82bd c44c f13d 564a 62be 24cb 0d3e
00000110: bde7 fb3d 2fbe 13be 9b53 953e 6798 07be
00000120: 6103 193d 6623 81be 64eb 4e3e 9f24 bd3c
00000130: 9053 e7bb c277 21bb 384d dc3d e69a 8d3f
00000140: b39d a33e e2d0 2dbd a975 2b3d 2690 9e3e
00000150: 06a9 cfbd 6fa8 a4bf 8791 afbe 3e26 05bd
00000160: 96d8 22be 6fdb 49bf 03fd a23e 3433 40bd
00000170: 5a9f c83d 6650 ac3e 07f7 5ebe ca85 283e
00000180: 3167 6e3d 8d8f 9f3e 6c78 c6be 71f9 d7be
00000190: b231 403d 503b 2dbf 7b89 3f3e 3ece 1a3e
000001a0: 1c40 04bd 89cd fdbe 126e 03bf 3c7c f6be
000001b0: 03b0 88bf 1a53 3d3d 6de1 30be 2c16 e6be
000001c0: 3f80 0dbf effd 823e 4f14 0f3f b9a2 cc3e
000001d0: 2a31 8b3e 4655 03be 5c10 d63f c6ba b43e
000001e0: a55a 03be deb9 683e 2345 8f3e a9f9 883f
000001f0: 3921 06bf f768 473f 8a3e 05bf da83 d93e
-0.8311096 -0.25540113 -0.23276234 -0.3641849 -0.47223693 -0.7438329 0.03323221 -0.3187389
0.6682296 -0.49289507 -0.20119828 0.030436791 0.121517666 1.5733368 0.13884318 0.63683057
-1.603088 0.5045703 0.2504493 -1.7402843 -0.21910375 0.63593936 0.8804628 -0.25264758
-0.47233075 -0.07075391 0.52397114 -0.2083561 -0.5624525 0.47083092 0.21805583 0.40619642
-0.5404589 -0.087468095 -0.25759995 0.36588013 0.2586358 0.16343945 -0.13886008 -0.2339352
0.14230679 0.59016883 1.708449 0.42365336 -0.05526833 -0.47200888 -1.0660712 0.05774502
0.016865456 -0.30050084 -0.38725635 -0.5686645 -0.58307827 0.03334778 -0.17898719 0.19246602
1.0548487 0.21414544 0.08339758 -0.16467795 0.59591854 0.5221171 -0.2603572 0.1890155
-0.06375507 0.1178222 -0.2209867 0.13847023 0.1230006 -0.14428018 0.29165348 -0.1324173
0.037356738 -0.2522232 0.20206982 0.023088751 -0.007059522 -0.0024638032 0.10756916 1.1062896
0.31956252 -0.042435534 0.041860256 0.30969352 -0.101396605 -1.2863902 -0.34290716 -0.032507174
-0.15902933 -0.78850454 0.31833658 -0.04692383 0.09796019 0.3365509 -0.21773921 0.16457286
0.05820388 0.31164208 -0.3876375 -0.42182496 0.046922393 -0.6766863 0.18704788 0.15117738
-0.032287702 -0.49570873 -0.5133983 -0.48141658 -1.0678715 0.04622183 -0.17273493 -0.4493879
-0.55273813 0.2558436 0.55890363 0.39967898 0.27185947 -0.12825498 1.6723742 0.35298747
-0.12827547 0.22727153 0.27982435 1.070119 -0.52394444 0.7789454 -0.5204855 0.42483407
