works/letterfromc/weights/B1_conv2dTranspose_1-bias.npy (npy, 1152 bytes, 1 tensors)

array f4 [256]
0	0x3e1e8f90	0.15484452
1	0xb9e57da8	-0.00043771905
2	0xbd692a51	-0.05692512
3	0x3e1ce492	0.15321568
4	0xbc4c2d28	-0.012461938
5	0xbd85ac85	-0.06527046
6	0x3d6b35e9	0.05742446
7	0x3d14351e	0.03618347
8	0xbdd7fec5	-0.1054664
9	0x3b63e995	0.0034776677
10	0xbdc6500f	-0.09683239
11	0x3e3fa950	0.18716931
12	0x3e5cbd74	0.21556646
13	0x3e042811	0.12905909
14	0x3d007a6c	0.03136675
15	0x3cbc7c42	0.02300847
16	0xbd2833fa	-0.041065194
17	0xbe3994a7	-0.18123113
18	0x3dfb31b8	0.122653425
19	0xbe0b3d6e	-0.13597652
20	0x3d0bed30	0.034161747
21	0x3dcb7884	0.09935096
22	0x3cfef004	0.031120308
23	0x3da38b26	0.07985525
24	0x3e11441d	0.1418614
25	0xbd7ac8cf	-0.061226662
26	0x3d8642f3	0.06555738
27	0x3d1406d7	0.036139335
28	0xbdb7a2ca	-0.089665964
29	0x3e956444	0.2917806
30	0x3c546e1b	0.012965704
31	0x3aa1a437	0.0012332265
32	0x3e09d5e7	0.13460504
33	0x3e1ed0e3	0.15509371
34	0x3c9686ba	0.01837479
35	0x3cf39ea1	0.029738726
36	0xbda97fd1	-0.08276332
37	0xbca9b88c	-0.020717882
38	0xbc0cb98e	-0.008589162
39	0xbdf38511	-0.11890615
40	0x3cb8fc26	0.022581171
41	0xbdd35b1e	-0.103201136
42	0x3e2ccad8	0.16874254
43	0x3e0dff9f	0.13867043
44	0x3cc3c819	0.023899125
45	0xbd6e6523	-0.05820192
46	0x3e9add87	0.30247137
47	0x3d347b8c	0.044063136
48	0x3e3698b9	0.17831697
49	0xbd49fc70	-0.04931301
50	0xbe3ed896	-0.18637308
51	0x3bacaef5	0.00526988
52	0xbe45e6cd	-0.19326325
53	0x3db623c4	0.088935405
54	0x3d491a50	0.04909736
55	0x3e47aaed	0.19498797
56	0x3deef62d	0.11668048
57	0x3dcc512e	0.09976421
58	0xbd81a9e1	-0.0633123
59	0xbe60d75a	-0.2195715
60	0x3d21b4b1	0.03947896
61	0xbdf6fa76	-0.120594904
62	0x3d005c40	0.031337976
63	0xbe9476d2	-0.28996903
64	0xbdb15935	-0.08659593
65	0x3cc3777e	0.02386069
66	0x3cf928a0	0.03041488
67	0x3dadabe0	0.08480048
68	0x3c12ee84	0.008967999
69	0x3deaa702	0.114576355
70	0x3d9abae6	0.07555179
71	0x3e5f29a5	0.2179323
72	0xbd5ea8a4	-0.054360047
73	0xbcd9b887	-0.026577247
74	0xbdef753e	-0.11692284
75	0x3dec353f	0.115335934
76	0x3ed05c0a	0.4069522
77	0xbcd57321	-0.026055874
78	0xbe8a566e	-0.27019066
79	0xbcc248e2	-0.023716394
80	0x3de7d3ca	0.113196924
81	0xbda17ed1	-0.078855164
82	0xbea3dc6c	-0.32004106
83	0x3daaefe7	0.08346539
84	0x3dcf855f	0.101328604
85	0x3d5682a5	0.052370686
86	0xbd363299	-0.044481847
87	0x3e15188d	0.14560147
88	0xbda27e6f	-0.079342715
89	0xbe4a70ec	-0.19769639
90	0xbd9936dd	-0.074811675
91	0x3cdc31a4	0.02687914
92	0x3c8fd74e	0.01755872
93	0x3dbc45f5	0.09193031
94	0x3cd5a22e	0.02607831
95	0xbde726eb	-0.1128672
96	0xbe4b6491	-0.19862582
97	0xbc06e832	-0.008234071
98	0xbe72ff35	-0.23730166
99	0x3d62c709	0.055365596
100	0x3d6818b4	0.056664184
101	0x3d16640e	0.036716513
102	0x3da260b6	0.079286024
103	0xbd100ee5	-0.035170455
104	0xbda103fe	-0.078620896
105	0xbd34f2a0	-0.044176698
106	0xbe2964f8	-0.16542423
107	0x3e3f4972	0.18680361
108	0xbdaac13d	-0.083376385
109	0xbe04d5b5	-0.12972148
110	0x3db4abde	0.088218436
111	0xbd516c40	-0.051128626
112	0xbdc3a6c5	-0.09553293
113	0xbe086c68	-0.13322604
114	0xbd2f824a	-0.042848863
115	0x3d7ae712	0.061255522
116	0x3d0c6e30	0.03428477
117	0x3d884cc3	0.06655266
118	0xbdd7a26d	-0.10529027
119	0x3db157ed	0.08659349
120	0xbdb78c77	-0.089623384
121	0x3dcf43d7	0.10120361
122	0x3d8578dd	0.065171935
123	0x3dcbbdf7	0.09948342
124	0x3d5e52dc	0.05427824
125	0xbdb4fec4	-0.08837655
126	0x3e127e51	0.14305998
127	0xbda19b94	-0.07891002
128	0xbdda96a0	-0.10673261
129	0xbd03a576	-0.032140218
130	0x3c33afeb	0.010967235
131	0x3e1f941e	0.15583846
132	0xbda62007	-0.081115775
133	0xbe09d40f	-0.134598
134	0xbcba14f5	-0.022715071
135	0xbe695410	-0.22785974
136	0x3de9d61a	0.1141779
137	0x3e92aeb7	0.28648922
138	0xbd859d31	-0.065241225
139	0xbc5bc96d	-0.013414723
140	0x3d99fa6b	0.075184666
141	0x3e1fc540	0.15602589
142	0xbd1a3bd3	-0.03765471
143	0x3e509aec	0.20371598
144	0x3d34970e	0.04408937
145	0x3c97d77c	0.018535368
146	0xbda7d671	-0.08195198
147	0x3d212b27	0.039347794
148	0x3bf7cfe8	0.007562626
149	0xbc24375e	-0.010022966
150	0x3e3028b1	0.17203023
151	0x3def8346	0.1169496
152	0xbbf0bd97	-0.0073468196
153	0x3cb6d6e1	0.02231926
154	0x3c64ffe8	0.013977028
155	0xbe12244a	-0.14271656
156	0x3d475876	0.048668347
157	0x3d354adc	0.044260845
158	0xbe3f1b7f	-0.18662833
159	0xbe2cf9c7	-0.16892157
160	0x3d0039b2	0.031305023
161	0xbbe2650b	-0.006909018
162	0xbd4d6713	-0.050147127
163	0x3e66ec58	0.22551095
164	0xbe1b12fd	-0.15143962
165	0xbe4c5f89	-0.19958319
166	0x3d3b0615	0.045660097
167	0xbe68de58	-0.22741067
168	0x3d46f488	0.048573047
169	0xbdf645eb	-0.120250545
170	0x3d309bfb	0.043117505
171	0xbbb02441	-0.0053754156
172	0xbda6ac0c	-0.08138284
173	0xbdddd8ca	-0.10832365
174	0xbdaef427	-0.08542662
175	0xbdbf1874	-0.09330836
176	0xbde4de9b	-0.11175271
177	0xbe072957	-0.13199364
178	0x3d7602f2	0.060061403
179	0x3d97d92f	0.07414471
180	0x3e1183ee	0.14210483
181	0xbd29039c	-0.041263208
182	0xbd9207a4	-0.071303636
183	0x3d14b7df	0.036308166
184	0x3e36b9f3	0.17844371
185	0x3dae1ec2	0.0850196
186	0x3d349f9c	0.044097528
187	0x3c973885	0.018459568
188	0x3e45fa53	0.19333772
189	0xbe1093d8	-0.14118898
190	0x3cc9333f	0.024560569
191	0xbd1088a0	-0.035286546
192	0x3cc38fbb	0.023872247
193	0x3e85f779	0.2616537
194	0xbdf401ec	-0.11914429
195	0xbd5027af	-0.050819095
196	0x3d615776	0.05501505
197	0xbd712898	-0.058876604
198	0xbd03a682	-0.032141216
199	0x3d9dc571	0.077036746
200	0xbc3cff4f	-0.01153548
201	0x3da691b3	0.08133259
202	0xbb4cb98b	-0.0031238522
203	0x3d6ff27b	0.058580857
204	0x3e372169	0.17883839
205	0xbdd7839a	-0.10523148
206	0xbd785708	-0.060629874
207	0x3e68cf99	0.22735442
208	0xbdf0ece4	-0.11763933
209	0x3d9bb8de	0.0760362
210	0xbdb3fe02	-0.087886825
211	0xbe1be44a	-0.15223804
212	0xbd90abc8	-0.07064015
213	0x3de9cde8	0.114162266
214	0x3d25617e	0.04037618
215	0x3d81aeb0	0.06332147
216	0xbc848f34	-0.016181566
217	0x3e0a10bc	0.13482946
218	0xbd45700c	-0.04820256
219	0xbd769e0e	-0.060209326
220	0xbd638b1a	-0.05555258
221	0x3e113a78	0.1418246
222	0x3d8e464d	0.069470026
223	0xbd40db62	-0.04708422
224	0xbe87ac55	-0.26498666
225	0xbc296977	-0.010340086
226	0x3d066874	0.032814458
227	0xbcfd6c51	-0.030935438
228	0xbd4b2b3d	-0.049601782
229	0x3e2c5051	0.16827513
230	0xbe3f0eb7	-0.18657957
231	0xbd119f24	-0.03555216
232	0xbe51eb71	-0.2049997
233	0xbc0fac5a	-0.008769119
234	0xbc5f79b1	-0.013639853
235	0xbd201e33	-0.0390913
236	0x3ddb6b62	0.10713841
237	0xbdc64f07	-0.09683042
238	0x3d05ec8d	0.032696296
239	0xbe42ab2e	-0.19010612
240	0x3dd96fd1	0.106170304
241	0xbe62288a	-0.22085777
242	0xbe79e6ba	-0.24404421
243	0xbddf449d	-0.10901759
244	0x3e1cc9c8	0.15311348
245	0x3d696472	0.056980558
246	0x3c8ffaf9	0.017575728
247	0xbd8bec75	-0.0683221
248	0xbb1460c2	-0.002264068
249	0x3c693e00	0.014235973
250	0xbd9ab920	-0.07554841
251	0x3dc8d619	0.09806461
252	0x3e54f81f	0.20797776
253	0xbe310b19	-0.1728939
254	0xbd9d6110	-0.07684529
255	0x3d223d52	0.03960926
