works/letterfromc/weights/B1_conv2dTranspose_2-bias.npy (npy, 1152 bytes, 1 tensors)

array f4 [256]
00000000: cefb c33e e39f 43bf 9cc7 8c3e e8fe 32be
00000010: fe9b e1be 9b94 663d 63e4 ff3e 1678 c33e
00000020: 8223 4ebe a0be 213b 541d c13e 0720 203f
00000030: 5c04 dcbd 7f7a 9dbe c8c7 1dbf 2d3c a1bd
00000040: 4dfb 1d3e e439 bd3e c779 c63e 1db2 a23e
00000050: 136c 80be a8a1 e43d 7bdf fc3d efcc f4be
00000060: 6424 67be 51a8 db3d b91d b2be 5c42 ae3e
00000070: dd11 83be fdd3 91bd ee3f e1be 6a89 8fbc
00000080: 8fab 96be 60db f9be 7a23 193f 0a27 4bbd
00000090: 15d2 c2bd 2b2d 0e3f 980b 6b3e 33d0 0f3f
000000a0: 5a5d c1be 498b 483e 2183 893e 0454 babd
000000b0: ed54 96be c235 35be 25be 773e cf3d da3e
000000c0: 07b7 41be 739f acbd da59 d4be c8fc 983e
000000d0: 83b1 a9be 0eeb d63c 285f 28bd bcc8 c9be
000000e0: fd78 bc3e b82a a93b 5f1c 42be 5a07 6cbe
000000f0: f195 013f 5cdb 39be 7e40 5e3e 7bbd 4ebe
00000100: 4733 2abf a198 efbc d1c7 583f d609 183e
00000110: 11ae bf3d 11e7 e6be 46f8 a83d 0c78 a3be
00000120: c604 ed3c 39a9 483e 0cfe 21be ec27 95be
00000130: a5ef ae3d 42fa f1be 713c fc3e 0b26 77be
00000140: a51e 8b3e c893 b5be b998 163f cbc3 74be
00000150: 2761 a83e 7e4e dbbe 1655 53be 97cb 9e3e
00000160: bdbf 02bf eb9d bd3d c6c1 eebd 5244 e8be
00000170: f5c6 3bbf abdd 31be e8ec 033f 35b8 a93e
00000180: 4655 fcbd 2291 c03e c3eb e7be d281 57bd
00000190: c479 db3d 00f6 05be 2953 f23d 180a afbe
000001a0: 6536 ffbc 1bed 343d 3250 48bf 5dd5 483d
000001b0: f9fc 973d 0f5d 58bd 66b7 dfbe f91f 683e
000001c0: 491b 13be 1c6d 0d3f c33e edbd 5437 ee3d
000001d0: a2a1 91be 35fb aa3c dad4 ecbd bd4f f4be
000001e0: 3f53 39bd c2b5 ebbe 75cc 55be 24f1 5fbe
000001f0: 35f3 38be 26ff 99bc e981 e73e 0256 3f39
00000200: a31e 17be 0b94 d0be 7972 d0be 4842 ab3d
00000210: 6686 77bd a27a a8be 7f68 523e 86ec 8f3d
00000220: 09ea a6be dfe3 76be 0eda 4cbd 33b3 52bd
00000230: 374c 0dbd 78d6 88bd bc9d af3d 2a0a e8be
00000240: d16c d0bd 74e5 033f 5c70 a03e 5963 04be
00000250: 2ee4 1dbd e5ae a0be 756e e03e b742 ddbe
00000260: 8a09 6f3d d9af e9bd a102 243e db83 9bbd
00000270: b170 a6be f3a6 1fbd 4cfa 0b3f 414c a9be
00000280: f568 b4bd aa4a 4dbe e9b2 193f 9fab d63e
00000290: 2f5d 1b3e 96b1 843d 9b91 fe3e 0f66 25bf
000002a0: cc05 12be 04a7 e0be 4ab7 cabc 9274 7cbe
000002b0: 9390 953e df65 fd3d 9114 1d3f b37e 71bb
000002c0: 5f1c ac3e 2a95 7abe 0509 0abc 08d8 b2be
000002d0: ebe2 12bd 5768 25bd e567 3dbe e9e4 9abe
000002e0: e283 45be 4d38 233e 50a4 a73d 3911 cebd
000002f0: 9436 863d c85e 36bf 5d23 023f 8516 a5be
00000300: f0f1 b73e 41ba bd3e 76cb c13d 43df 8a3c
00000310: 5225 32bf b281 a63d 6bab 9ebd e769 a63d
00000320: c914 febe 2c88 873e 11ae 51be d2e6 113e
00000330: 6de5 83bd c92b b83d c5cb f23e fc5e 123d
00000340: a57f abbe 5df7 27be 0386 e7be de0f 4c3d
00000350: cf0e dabe 2d84 0c3e d6b5 713d 7d4d 443f
00000360: b684 e8bd 7ea0 adbd 9fbf 73be 052e 8d3e
00000370: 3b44 01bf 76b8 18be 3c72 fb3e 3724 0c3e
00000380: 2806 b23e 5cf7 383e 3650 f9be 325e b23e
00000390: b478 f73e edc7 ba3e 5357 ae3e e8ed 443d
000003a0: 6e9e 743e 606b 423f 7c9b af3e 24a0 ecbe
000003b0: 1221 923d facf 6f3e 30e0 f63e 8fc4 29be
000003c0: 54df 473f 3666 7d3e 69f7 af3e 34fa e43d
000003d0: c23f de3e 62b8 203e 4aac f33e 5b02 eabe
000003e0: b36e 06be 2774 debd 117f 30bd 57f7 81be
000003f0: 7dc5 cdbe fe6f 9e3e 1096 cd3e 61cc 083f
0.3827805 -0.7641584 0.2749604 -0.17480052 -0.44064325 0.056294065 0.49978933 0.38177556
-0.20130733 0.0024680272 0.37717688 0.6254887 -0.10743019 -0.3075752 -0.61632967 -0.07872806
0.15427895 0.3695823 0.38764784 0.31776515 -0.25082454 0.11163646 0.12347313 -0.47812602
-0.22572476 0.10725463 -0.34788302 0.34035003 -0.25599566 -0.07120512 -0.43994087 -0.017521579
-0.29427764 -0.48800182 0.5981976 -0.049597777 -0.09512726 0.5553767 0.22953641 0.5617706
-0.37766534 0.19584383 0.26857856 -0.09098056 -0.29361668 -0.17696288 0.24193628 0.4262528
-0.18917476 -0.0842885 -0.414748 0.29880357 -0.33143243 0.02623513 -0.041106373 -0.3941096
0.36811057 0.005162563 -0.18956135 -0.2304968 0.5061942 -0.18150085 0.2170429 -0.20189469
-0.66484493 -0.029247584 0.84679896 0.14847502 0.093593724 -0.45098165 0.082504794 -0.31927526
0.02893294 0.19595803 -0.15819567 -0.2913202 0.08541802 -0.47261244 0.49264863 -0.24135606
0.27171817 -0.3546431 0.58826786 -0.23902814 0.3288662 -0.42833322 -0.20637926 0.31014702
-0.5107382 0.09258636 -0.11658053 -0.45364624 -0.7335046 -0.17369716 0.51533365 0.3314835
-0.12320952 0.37610728 -0.4529706 -0.05261404 0.10716584 -0.13082123 0.11832268 -0.34187388
-0.031153867 0.044171434 -0.7824737 0.049031604 0.074212976 -0.052823123 -0.4369461 0.22668447
-0.14365877 0.5524461 -0.115842365 0.11631647 -0.2844363 0.020871738 -0.11564036 -0.47717085
-0.045245405 -0.46037108 -0.20878775 -0.21869332 -0.18061526 -0.018798422 0.452163 0.0001824722
-0.1475778 -0.40737948 -0.40712336 0.083622515 -0.060430907 -0.3290606 0.20547675 0.07027535
-0.3260043 -0.24110363 -0.05001264 -0.05144043 -0.034496512 -0.06681532 0.08575007 -0.45320255
-0.10177005 0.5152199 0.31335723 -0.12928523 -0.038547687 -0.31383434 0.43834272 -0.43214962
0.058358707 -0.114104934 0.16016628 -0.07593509 -0.32507852 -0.038977575 0.546788 -0.3306599
-0.088090815 -0.20048013 0.6003862 0.41927812 0.15172265 0.06479184 0.49720463 -0.64608854
-0.14260024 -0.43877423 -0.024745602 -0.24653843 0.29211864 0.12372946 0.61359507 -0.00368492
0.33615395 -0.24470964 -0.008425002 -0.34930444 -0.035860937 -0.04038271 -0.18496664 -0.3025277
-0.1928859 0.15939446 0.08185637 -0.10061879 0.06553379 -0.71238375 0.5083521 -0.32243744
0.3592677 0.37056163 0.09462635 0.016952163 -0.69588196 0.08130206 -0.07747539 0.08125668
-0.49625233 0.26471078 -0.20476557 0.14248207 -0.06440244 0.08992726 0.4742109 0.035735115
-0.33495823 -0.16402955 -0.4521943 0.04981982 -0.42589423 0.13722296 0.059011303 0.7668074
-0.113534376 -0.08477877 -0.23803566 0.27574173 -0.50494736 -0.14914116 0.4911059 0.1368569
0.34770322 0.1806311 -0.4869401 0.3483749 0.48334277 0.36480656 0.34050998 0.048078448
0.23888561 0.7594509 0.34298313 -0.46215928 0.07135214 0.2341918 0.48217916 -0.16578887
0.78075147 0.24746022 0.34368446 0.11180535 0.43408018 0.15695336 0.47592384 -0.45704922
-0.13128166 -0.10861998 -0.04308993 -0.25384018 -0.40189734 0.30944818 0.4015355 0.5343686
