works/letterfromc/weights/B1_conv2dTranspose_2-kernel.npy (npy, 524416 bytes, 1 tensors)

array f4 [1, 1, 256, 512]
00000000: 341d d4bd b91b 06be 3e55 843d 535a 8cbc
00000010: 50e9 ab3c 61cc 8e3d 19b9 71bd 1bac 973d
00000020: 25ee f03d 572f 1fbc 6bdd 8fba 88b2 b1bc
00000030: 7fde b63c 74d5 09bd 892d 183d b114 aa3d
00000040: 2a91 09bd 7595 9f3b bd05 a03d 23fd 043d
00000050: 135d 173e ca07 1abc 557f 423d 168a 2e3b
00000060: 3e2d 86bc 98f4 ea3d f403 98bc 29e8 f6bb
00000070: c9d5 683c 3e0c d13c 5a36 853c 173e d2bd
00000080: 9b25 5a3d f65c 70bd 5766 34bd 0b0b 933d
00000090: ee23 c2bc 2bbf 91bc 631c e53b 64c6 0fbc
000000a0: 6a05 babd 1348 bf3b defd 943b 8981 c73c
000000b0: a89c 693c 2323 96bb 70e8 fb3d d37e 89bc
000000c0: d468 b53a a5a8 d6bc 1d29 c9bd a1dd 063d
000000d0: 257d e4bd d9c5 1c3b d165 adbd 6987 3f3d
000000e0: 04cd a1bd 8b5c 56bc a8e1 32bc 59b9 d03c
000000f0: e1be d7bd 8a6b abbc 7462 20bd 4007 c7bd
00000100: 081d fcbc b949 7d3c fa8d ae3c 6bee 03b9
00000110: 2fce c53d 2705 803c d71b d43d b706 2c3d
00000120: 3322 7bbd e5e0 853c 41cc e63a d4b6 463d
00000130: 6b88 5a3d c0da 11bd 4838 bbbd f91c 73bc
00000140: 489d 213d f274 e2bc 36d3 1ebd f12e 233e
00000150: f2cb eb3d 401d 093d dbfe 943d 2585 b03d
00000160: e40f bb3d 487d b2bd af98 843d f35e c8bd
00000170: 1b33 09bc 81ad ccbb de65 c1bb 13cf 2b3b
00000180: c9aa 823d d7bb b3bd 45eb 513c 74b1 793d
00000190: b4a6 923d c3a4 84bb 0204 593c 2783 6f3c
000001a0: 54d9 ce3d 918f 863c 55de 7abd 6bfe 05bb
000001b0: 2d1c e0bc 629b ba3b 1941 0fbd 6a8e 52bd
000001c0: f419 e73b 65b8 cc3b 5938 e03b 6f88 713d
000001d0: e01f fd3d d631 dbbd 24d9 a43d d630 953c
000001e0: 13a9 83bd 6ffa d83d 8d02 19be b017 a0bd
000001f0: f50e 9b3d 2cec 98bd 4f1b 7ebd 9def aebd
00000200: 9905 efbd 67e2 6cbd e7fb a0bd e4ac d53c
00000210: 7969 62bd 1812 c63d 8736 4ebd 8143 63bd
00000220: a2f7 0f3d dde6 0abd a28b 31bd 341d 2c3d
00000230: 6d62 9abc a106 07bd 6028 193d 4c3e 3cbd
00000240: 3699 113d 2300 c5bd c9d0 b33d d224 99bd
00000250: 2d5f 1b3e fc49 753d 2366 a1bc 1b5f 093e
00000260: 74bc 59bd ca38 a4bc aee3 383e 101d 24be
00000270: f69b 1cbb f5b6 cfbc dd58 d43c 7065 5bbd
00000280: 67a5 88bd 89af 1d3d ca79 a8bd 4a28 93bd
00000290: f32f 70bb e3a0 933c a0c2 003e f398 2f3e
000002a0: e768 86bd eb5f 42be aba8 46be d5ec 683d
000002b0: a9ba debd 3df6 88bd 049e 43bc c009 0fbd
000002c0: 8acf 97bd 8ca9 8dbd d27e 7d3c 9cf3 0d3d
000002d0: 1bf4 47bd c3a7 d13d 048b 32bd 4251 b3bb
000002e0: e44b 17be 6a07 e73d 6536 e5bd ff0d 1a3d
000002f0: 4a25 14bd 78a6 a9bc 29e8 cebd 2d7a e23d
00000300: c804 9b3d 1a62 853d 6fa8 5a3c b8fa 343d
00000310: b387 d13b 4245 9d3d b11d 9d3d f4f6 9dbd
00000320: 2e6d d23c 6622 883c 4099 d3bd 835a b43d
00000330: 3efb a63b 2ce2 40bd f532 ce3d b9c7 9dba
00000340: 520a 36bd cd8f c2bd 2959 773c 0e9f 0c3e
00000350: f431 3ebd db74 a13d 6565 5fbd e902 173c
00000360: 584b 003d 401a 89bc c02a 8bbb 438b e33c
00000370: 6eff a83d 2b16 74bc 2e9c aa3c d2a6 44bc
00000380: b87e 093d 1619 6a3d 3668 24bc e52b 8b3d
00000390: 4f27 0e3d 21ff 2fbe e71d 533c 6913 adbd
000003a0: c823 cfbc 616f 0bbd dec8 3dbc ac20 553d
000003b0: e36e 49bd 105e 883d 0e7d aabd eb2c 78be
000003c0: 15d4 aebd 2171 87bb bf3b 183d 6458 263d
000003d0: 4c88 a13d 7b87 a5bc b091 2d3d 229d 11bd
000003e0: add9 7a3b a50d 13bb faf2 383d 55c9 8ebd
000003f0: dcce 963d b08e 9d3c af82 97bb e319 2bbc
-0.103571326 -0.13096513 0.06461571 -0.017132914 0.020985276 0.06972576 -0.059014414 0.074058734
0.117641725 -0.009715877 -0.0010976022 -0.021691576 0.022322891 -0.03365083 0.0371528 0.08304728
-0.033585705 0.0048701116 0.078135945 0.032467972 0.14781599 -0.009401271 0.047484715 0.0026632599
-0.016378995 0.11472434 -0.018556572 -0.007535 0.014211127 0.025518533 0.016261268 -0.10265749
0.05325852 -0.058682404 -0.04404291 0.07179841 -0.023698773 -0.017791351 0.0069919094 -0.008775327
-0.09083064 0.0058374493 0.004546865 0.02435376 0.014258541 -0.0045818253 0.12300193 -0.016784107
0.0013840445 -0.026203463 -0.09822295 0.032926206 -0.11156682 0.0023921637 -0.084666856 0.046759997
-0.07900432 -0.013083587 -0.010918058 0.025479006 -0.10534454 -0.020925302 -0.039156392 -0.0971818
-0.030775562 0.015459471 0.021307934 -0.00012581951 0.09658467 0.015627457 0.103568725 0.04199859
-0.06131191 0.01634259 0.001760848 0.048514202 0.053352755 -0.035609007 -0.09141594 -0.014838451
0.039456636 -0.027643654 -0.038775645 0.15935875 0.11513509 0.03347516 0.07275172 0.08619145
0.0913389 -0.08715302 0.064744346 -0.09783735 -0.008374001 -0.006246269 -0.005902036 0.0026215955
0.06380231 -0.08776062 0.01281244 0.060960248 0.07160702 -0.0040479614 0.013245584 0.0146186715
0.10100046 0.01642588 -0.06124719 -0.0020445834 -0.027357185 0.0056947926 -0.03497419 -0.051405348
0.0070526544 0.0062475675 0.0068426547 0.058968004 0.12359595 -0.10702865 0.08049229 0.018211763
-0.06428733 0.105946414 -0.1494238 -0.07817018 0.07571212 -0.07466921 -0.062037762 -0.08541796
-0.116709895 -0.0578331 -0.078605466 0.026083417 -0.055276368 0.0967142 -0.05034497 -0.0554843
0.03514827 -0.033911575 -0.043346055 0.042020038 -0.018845761 -0.032965306 0.03739202 -0.04595785
0.035546504 -0.09619167 0.08780057 -0.07477726 0.15173025 0.05988501 -0.019702023 0.13415186
-0.05315824 -0.02004661 0.18055603 -0.16026711 -0.002389667 -0.025355795 0.02592128 -0.053563535
-0.06672173 0.03849748 -0.082263544 -0.07185419 -0.0036649674 0.018021053 0.12574244 0.17148189
-0.06562977 -0.18981902 -0.19400279 0.056866486 -0.10875446 -0.06687591 -0.011939529 -0.034921408
-0.07412632 -0.06917104 0.015472131 0.034656152 -0.04881678 0.10237076 -0.043589607 -0.005472333
-0.14775044 0.11280711 -0.111920156 0.037611004 -0.036168374 -0.020709261 -0.10102875 0.110584594
0.07569271 0.06512852 0.013345822 0.044184417 0.0063943504 0.076792255 0.07671679 -0.07713118
0.025686827 0.016617965 -0.103319645 0.08806326 0.0050958684 -0.047090694 0.10068313 -0.0012037671
-0.044443436 -0.09500084 0.015096941 0.1373255 -0.046434358 0.078836165 -0.054540057 0.009217002
0.031321853 -0.01673615 -0.0042470396 0.027776366 0.08251844 -0.014897863 0.020826425 -0.012002664
0.033568114 0.05715283 -0.010034611 0.067954816 0.034705456 -0.17187168 0.012885547 -0.08450968
-0.025285617 -0.034041766 -0.011583535 0.05203311 -0.049178015 0.06658566 -0.083246335 -0.24235885
-0.08536545 -0.004133359 0.037166353 0.04061164 0.07887325 -0.020206204 0.042375267 -0.035550244
0.0038276718 -0.0022438553 0.045153596 -0.06971995 0.07363674 0.019233078 -0.004623733 -0.010443184
