works/letterFromC/weights/B2_conv2dTranspose_2-kernel.npy (npy, 131200 bytes, 1 tensors)

array f4 [1, 1, 128, 256]
000000 5e cf a7 bd 78 f6 b7 3d a9 66 cb 3d 59 30 e6 3b
       -0.08193849 0.08982557 0.0993169 0.0070248065
000010 3b 74 10 bd b7 46 d5 3b d0 7d b9 bd 39 2d 04 3e
       -0.035267096 0.006508674 -0.090572 0.12907876
000020 77 c5 fd bc b4 bd 37 bd a9 54 3e bd a8 e7 02 bc
       -0.030977948 -0.04485865 -0.046467457 -0.0079898015
000030 89 67 84 bc bd 96 2b bd 07 9e f2 bb df 01 aa 3d
       -0.01616265 -0.041891802 -0.0074040922 0.08301138
000040 4f e3 6d 3d eb 5b 45 3c 36 98 f7 bc 88 0e 36 3c
       0.058078106 0.012045841 -0.030223947 0.011111863
000050 cd 78 c8 bc 7c 04 e0 3c 73 8c 3c bd 8a cb 98 bc
       -0.024471665 0.027345888 -0.04603238 -0.018651742
000060 34 cc 2c 3d 5a ac 41 bc 72 19 07 3d 62 ce 20 bd
       0.04218693 -0.011820877 0.03298325 -0.039259322
000070 cb 2e c3 3c 2f dc 4c bd b9 9f 53 3c b7 dd 93 bd
       0.023826024 -0.05001467 0.012916499 -0.07220023
000080 7b 11 a5 3d 7c cd d1 bc 7a 54 86 bd c6 40 53 bd
       0.08059975 -0.025610678 -0.065590814 -0.051575445
000090 a7 0b 03 3c 76 bc bc bd 81 e5 72 3d 51 d6 c6 bc
       0.007998384 -0.092156336 0.059300903 -0.024272116
0000a0 37 e7 ec 3c 5e ec 07 b9 bc 7b 8e bb d0 f9 94 3c
       0.028918846 -0.00012962657 -0.0043482464 0.018185526
0000b0 1a 3a c6 3d 73 8f d9 3c cc 96 93 3b 5f 16 b7 bc
       0.09679051 0.02655766 0.0045040604 -0.022349535
0000c0 9d 4c 0c bd 1d 3a d3 3d 79 55 6d ba 7d 47 81 bd
       -0.03425275 0.103138186 -0.0009053569 -0.063124634
0000d0 ec 90 30 3c 9b e1 1a bd 0f 16 ac 3c fc 2e 50 bd
       0.01077674 -0.03781281 0.021006612 -0.050826058
0000e0 63 a4 4a bc 5d 51 0b 3d 4b 94 4c bc 36 9d 4f 3d
       -0.012368294 0.03401314 -0.012486528 0.050687037
0000f0 c7 59 f2 3c 70 cf 2f 3b 92 91 c0 3b f1 94 ab bd
       0.029583825 0.0026826523 0.0058767283 -0.08378018
000100 1f aa 27 bc 80 e8 8b bc 56 51 3b 3d 20 6c 16 3d
       -0.010233431 -0.017078638 0.045731865 0.03672421
000110 68 89 4e bb 23 98 8c bd 04 d0 68 3b 36 f9 29 3c
       -0.0031515006 -0.06864955 0.0035524378 0.010374358
000120 d5 b5 bc 3b 39 b6 68 bc 24 f3 98 bd 52 2e bf 3c
       0.0057589808 -0.0142036015 -0.074682504 0.023337517
000130 46 7e 7d bd ad 61 75 3d 6f 1b 8f 3d 03 a3 05 3d
       -0.061888 0.059907604 0.069876544 0.032626163
000140 9c 41 39 3b 20 00 d7 bd 0a 42 32 bd d5 e4 2d bd
       0.0028267866 -0.10498071 -0.04352001 -0.04245456
000150 98 6d 52 bd 7f d7 c2 3c 7d 11 9b bd d4 66 d5 3c
       -0.051374048 0.023784397 -0.07571695 0.026050009
000160 6a 48 66 3b 12 c4 04 3d d8 06 cb 3d 8a 68 a4 3d
       0.0035138377 0.03241355 0.09913415 0.08027752
000170 64 0f cc 3b 6e 88 55 3c 14 25 38 bd 60 c3 be 3c
       0.0062274206 0.013033016 -0.044957235 0.023286521
000180 98 e4 4d 3c 42 25 45 3d e5 34 00 3e 23 30 a1 bc
       0.012566708 0.048131235 0.12520178 -0.019676274
000190 f0 bb 97 bc fa 53 5f bb f7 a2 ec 3c e2 5d 01 bc
       -0.018522233 -0.0034077154 0.028886301 -0.007895919
0001a0 0a 7f e5 3c 4f eb 2c 3d 58 d6 b0 bc db 52 01 3d
       0.028014679 0.042216595 -0.021586582 0.031573158
0001b0 4c 9c 09 be f6 46 01 bb d8 d1 88 bb f2 aa 67 3d
       -0.13438529 -0.0019726134 -0.004175406 0.05655951
0001c0 71 db 13 bd 15 41 94 bd 93 c4 39 3b 82 8a e7 bd
       -0.036097948 -0.07238976 0.0028345927 -0.11305715
0001d0 e7 df 9c bc 69 5e 44 bc df b9 a1 bd a5 b1 26 bd
       -0.019149734 -0.0119854 -0.0789678 -0.04069676
0001e0 c6 ac 83 bd 7b 6f e8 bc 25 1a ac 3c 3e e0 86 bc
       -0.06429438 -0.02837347 0.02100856 -0.016464349
0001f0 0c 37 b6 3c 80 94 15 3d 7f e5 e5 bd 95 20 77 bb
       0.022243045 0.036518574 -0.112254135 -0.003770863
000200 25 33 48 3d 3c c0 a7 3d d6 da bc 3d 6a 73 dc bc
       0.0488769 0.08190963 0.09221427 -0.026910502
000210 64 27 1a 3d 46 19 dd 3c 53 82 ee 3c cd a8 65 bc
       0.037635222 0.02698959 0.029114878 -0.014017296
000220 e6 2f 73 3c 0c 1e e0 bc fc 4c 61 3d 49 eb 86 3a
       0.014842963 -0.027358077 0.05500506 0.0010293509
000230 ad f9 8f bc d6 af b2 3c dc 60 94 bc a1 c3 9c 3c
       -0.01757511 0.02181236 -0.018112592 0.019136252
000240 45 e9 d8 3c 7b bd 67 bd e7 31 18 3d 39 11 93 bd
       0.02647842 -0.056577187 0.037156966 -0.07181019
000250 ca ed 10 bd e7 fa d3 3c 1c de 67 3d bf 88 19 bd
       -0.035383023 0.025876475 0.056608304 -0.037483927
000260 c5 da e6 bc e2 d3 7c 3d d0 1d 2b 3d 36 bd 05 3c
       -0.02818049 0.061725505 0.04177648 0.008162787
000270 dc 8f 8c bd 09 78 e9 3c b6 ba 93 bd a7 2f f7 3c
       -0.068633765 0.02849962 -0.07213347 0.03017409
000280 27 6b 53 bb e6 56 0b be bd 42 53 bd e2 8c 0d 3d
       -0.0032259913 -0.13607368 -0.05157732 0.034558184
000290 27 00 fe 3c 5b 68 b6 3d 95 ab 85 3d 8a a9 29 3b
       0.031005932 0.08906623 0.06526867 0.0025888407
0002a0 29 68 29 3d f9 d6 0b 3d 26 fe 5f 3d ff 68 0b 3d
       0.0413591 0.03414056 0.054685734 0.03403568
0002b0 df 14 10 bd 98 77 a8 3d 70 d4 e2 3c dd a9 01 3c
       -0.035176154 0.08225936 0.027689189 0.007914034
0002c0 fc b2 13 bd 76 64 4d bd cd 55 aa 3c be 5a 16 3c
       -0.036059365 -0.050144635 0.020792866 0.009176908
0002d0 f8 41 17 3d c0 1e 56 bd d4 01 8f 3d 4d 15 b3 3b
       0.036928147 -0.05227542 0.069827706 0.0054651857
0002e0 79 52 03 bc 52 3d a1 3b 48 29 8e 3c e3 7e e0 3c
       -0.0080152685 0.00492064 0.017353669 0.027404254
0002f0 32 38 a8 3d cd 0a 29 3c 88 5d 72 3c 45 d6 83 3d
       0.082138434 0.0103175165 0.014792807 0.06437353
000300 85 26 71 bc cf 42 67 bd 66 03 e2 bc 6e 91 91 3d
       -0.014718656 -0.056460198 -0.027589511 0.07107817
000310 6c 5d 98 bc 93 fe 28 3d b1 06 80 bd 2a c4 5f bc
       -0.018599235 0.041258406 -0.06251276 -0.013657609
000320 51 3d 8c 3b 1a 54 61 3d ca 2c 12 3d 28 bc e7 bc
       0.0042797704 0.055011846 0.035687245 -0.028287962
000330 94 b1 88 3d d9 8a 72 bd 21 f0 08 bd 00 63 7f bd
       0.06674495 -0.059214447 -0.03343213 -0.062350273
000340 80 2c 23 bc b6 ad fa 3c c6 ad 37 3d 00 42 4a bb
       -0.00995934 0.03060041 0.044843458 -0.0030862093
000350 b9 f0 89 3c 6c 2c b5 3d a4 d7 7f bd 0d a1 9c bc
       0.016838418 0.088463634 -0.06246151 -0.019119764
000360 65 6b 8b bd ab 63 de bd 48 b8 32 bc 35 89 50 3d
       -0.06807593 -0.10858854 -0.010908194 0.0509121
000370 4e d3 1c 3d 38 e9 37 bc a9 80 aa bd 02 fb 4f 3d
       0.038287453 -0.011225037 -0.08325321 0.05077649
000380 68 31 17 bd c3 4f b2 3a ab 89 bc 3d 3c fa 0a bc
       -0.03691235 0.0013604093 0.092059456 -0.008482512
000390 c0 02 3f 3d f2 81 76 bc ec 4a 5c 3d 48 38 8d 3b
       0.046633482 -0.01504563 0.05378239 0.0043096878
0003a0 8a 0d 36 3d 02 37 1d bc eb 4b 55 bd 15 9e be 3c
       0.044446506 -0.009595634 -0.052074354 0.023268739
0003b0 80 a9 13 bd b9 51 08 bd 74 bd 3c bd 92 02 b2 3c
       -0.03605032 -0.03328106 -0.046079114 0.021729741
0003c0 6b 64 4b bc 0f 40 35 bc cb 53 22 3d 2c 69 ed bc
       -0.012414078 -0.011062636 0.039630692 -0.028980814
0003d0 97 65 ad bc 1e 27 f1 bc aa c6 99 3c 98 4f 9c 3a
       -0.021166606 -0.029437598 0.018771488 0.0011925576
0003e0 a2 61 05 bd 57 97 19 3d ee e7 be bc d7 5e c7 bc
       -0.032563813 0.037497845 -0.023303952 -0.024337215
0003f0 d0 7a 84 bc fe 7d 49 bc a4 80 4e 3a 98 91 b3 3c
       -0.016171843 -0.012298105 0.00078774453 0.02192001
