works/LetterFromC/weights/B2_conv2dTranspose_2-bias.npy (npy, 640 bytes, 1 tensors)

array f4 [128]
-0.1667221 0.63133365 -0.21825492 0.6113866 0.3837494 0.7622703 -0.22362581 0.8423848
-0.40990114 -0.9584417 1.3578666 -0.03596912 0.7255089 0.14197153 0.3671565 -0.19889696
-0.3088783 0.5013667 0.10603016 -0.3161486 -0.7981383 0.24475323 0.5230628 -0.49755263
0.3524881 -0.019269584 0.13020438 0.04826441 0.044454947 0.08862838 0.3985218 0.16982044
-0.008037917 0.7967635 -1.1821698 0.37768662 -0.38180327 0.1415222 -0.79055274 0.21338716
-0.55614114 0.32730335 -0.53471553 -0.041820902 0.28474456 0.39317492 -0.14413148 0.5236201
0.13672908 -0.27084544 -0.30190018 0.32219282 1.0579617 -0.008837361 0.79005605 -0.7646541
-0.00794524 -0.33035743 -0.2529713 -0.1735398 -0.06522519 -0.7818437 0.19152519 -0.12845248
-0.27230093 -0.29817918 -0.7118167 -0.28735638 0.09413623 0.18283448 0.41527942 -0.25054973
-0.63224113 -0.41160926 -0.509098 -0.46986368 0.29909292 0.07242106 -1.4243371 -0.16921388
0.072600074 0.8193409 0.65828544 0.15032141 0.39140126 0.17158261 -0.59409046 0.17133741
0.31746757 -0.19389556 -0.36690447 0.13761689 -0.72249264 0.040193837 0.13833578 -0.42452905
1.3204187 0.8810688 -0.8024856 -0.67034245 -0.2457056 1.1674769 0.9801675 0.5110106
-0.07691648 -0.13571626 0.00214383 0.22487973 0.71124554 0.58324194 -0.40192297 0.3633288
-0.27456498 -0.37126642 -0.13383089 -0.22394234 0.11822604 -0.7859155 -0.20648958 0.066554725
-0.4268396 -0.500009 0.0067767906 -0.97257406 0.118247025 1.0527464 0.53964 -0.46194032
00000000: 33b9 2abe 159f 213f 387e 5fbe d583 1c3f
00000010: cd7a c43e 2524 433f 2afe 64be 88a6 573f
00000020: 90de d1be 6f5c 75bf 93ce ad3f 5b54 13bd
00000030: f4ba 393f fc60 113e f0fb bb3e a5ab 4bbe
00000040: 4c25 9ebe 9159 003f 5726 d93d 3bde a1be
00000050: cb52 4cbf 97a0 7a3e 72e7 053f 38bf febe
00000060: 5279 b43e 3fdb 9dbc 4c54 053e e7b0 453d
00000070: 6416 363d cc82 b53d 0d0b cc3e 69e5 2d3e
00000080: 78b1 03bc b1f8 4b3f 5751 97bf 2460 c13e
00000090: b87b c3be 32eb 103e aa61 4abf 2a82 5a3e
000000a0: 445f 0ebf 4e94 a73e 1ee3 08bf 654c 2bbd
000000b0: 0aca 913e 394e c93e 3497 13be f80b 063f
000000c0: b502 0c3e 41ac 8abe a992 9abe 75f6 a43e
000000d0: 4a6b 873f 94ca 10bc 1d41 4a3f 5fc0 43bf
000000e0: c02c 02bc 9c24 a9be 7485 81be 6bb4 31be
000000f0: c994 85bd e926 48bf 2e1f 443e 0c89 03be
00000100: 076b 8bbe f1aa 98be 9f39 36bf 6020 93be
00000110: 7fca c03d f638 3b3e 819f d43e 0e48 80be
00000120: 8eda 21bf 73be d2be 3f54 02bf f991 f0be
00000130: b522 993e 7e51 943d ae50 b6bf 6746 2dbe
00000140: 59af 943d 53c0 513f 6585 283f dbed 193e
00000150: bf65 c83e 5ab3 2f3e 5016 18bf 1373 2f3e
00000160: 1c8b a23e 8f8c 46be e7da bbbe 71eb 0c3e
00000170: 47f5 38bf 4ba2 243d e5a7 0d3e df5b d9be
00000180: 7b03 a93f ba8d 613f b26f 4dbf 909b 2bbf
00000190: 409a 7bbe e26f 953f 42ec 7a3f 97d1 023f
000001a0: 6386 9dbd 34f9 0abe 807f 0c3b df46 663e
000001b0: 3014 363f 584f 153f d9c8 cdbe 3c06 ba3e
000001c0: c893 8cbe a216 bebe f70a 09be 2451 65be
000001d0: 7e20 f23d c231 49bf 0172 53be d84d 883d
000001e0: b88a dabe 9700 00bf d70f de3b 9dfa 78bf
000001f0: 7f2b f23d 65c0 863f d925 0a3f 7183 ecbe
