works/LetterFromC/weights/B2_conv2d-kernel.npy (npy, 589952 bytes, 1 tensors)

array f4 [3, 3, 128, 128]
0	0x3d68118d	0.056657363
1	0x3e80bf27	0.25145838
2	0x3e859dad	0.2609686
3	0xbe02be09	-0.12767805
4	0x3d087a08	0.033319503
5	0x3e1e6166	0.15466842
6	0xbe092d52	-0.13396195
7	0x3df833d8	0.121192634
8	0x3cb7c85a	0.022434402
9	0x3d71a8c3	0.058998834
10	0xbe2ced91	-0.168875
11	0x3e4fc4a1	0.20289852
12	0x3d96d4f6	0.07364838
13	0x3de34575	0.11097232
14	0xbdf371e5	-0.11886958
15	0x3e83c4e9	0.25736168
16	0x3db0affb	0.086273156
17	0x3de466e6	0.11152439
18	0xbcc01d86	-0.023451578
19	0xbe1c9bb7	-0.15293775
20	0xbe5c6dd7	-0.21526276
21	0xbb17cfc5	-0.0023164612
22	0xbd93c243	-0.07214787
23	0x3d995023	0.07485988
24	0x3de91ec2	0.1138282
25	0xbd03c29c	-0.032168016
26	0x3c01a906	0.0079138335
27	0x3e7f9e4c	0.24962729
28	0x3e516526	0.20448741
29	0x3dce9f8f	0.10089027
30	0x3de84d2a	0.11342843
31	0xbe7e595c	-0.24838775
32	0xbbf122a3	-0.0073588653
33	0x3d38cf3a	0.0451195
34	0x3d01779e	0.031608216
35	0x3dfda6fd	0.12385366
36	0x3e8eb43d	0.27871886
37	0xbe45cfcd	-0.19317551
38	0xbe362262	-0.17786554
39	0x3e44ae42	0.19207099
40	0xbde2a450	-0.11066496
41	0xbe406aec	-0.18790787
42	0x3c8cafc3	0.017173653
43	0xbd8322c0	-0.064031124
44	0x3e14866c	0.14504403
45	0x3e0e82de	0.1391711
46	0xbd85a3b3	-0.06525364
47	0xbe106c23	-0.14103751
48	0x3e00f56f	0.12593625
49	0x3dedbfc9	0.11608846
50	0x3e781957	0.24228416
51	0xbd45d730	-0.048300922
52	0x3e6177f7	0.22018419
53	0xbc4452de	-0.011982648
54	0x3da4d2e5	0.080480374
55	0x3d5aba5f	0.053400394
56	0x3e801341	0.2501469
57	0x3e5930b1	0.2120998
58	0xbe7d0369	-0.24708332
59	0x3e25cac5	0.16190632
60	0x3d9da5b4	0.07697621
61	0xbd85e75a	-0.065382674
62	0x3e4dd6e0	0.201015
63	0xbe4938c1	-0.19650556
64	0xbe407893	-0.18795995
65	0xbe020d4d	-0.12700386
66	0xbcd939d7	-0.026516838
67	0x3e01e1e6	0.1268383
68	0x3e036af8	0.12833774
69	0x3e4996ca	0.19686428
70	0xbdeec36d	-0.11658368
71	0x3e3c59ba	0.18393603
72	0xbe04a0a5	-0.12951906
73	0xbd8ee4bf	-0.069772236
74	0xbd1af741	-0.037833456
75	0x3df7a765	0.12092475
76	0xbe42be8d	-0.19018002
77	0x3e0cc627	0.13747464
78	0x3d2a84f4	0.0416307
79	0xbd9b7752	-0.07591118
80	0xbc7a5e34	-0.015281249
81	0x3b40af39	0.0029401316
82	0x3e82b70e	0.25530285
83	0xbcc69255	-0.024239698
84	0x3e020720	0.1269803
85	0x3c23185c	0.009954538
86	0xbd4834e0	-0.04887855
87	0x3e1e77a6	0.1547533
88	0xbe138ee7	-0.14409982
89	0x3bca3ccf	0.0061717997
90	0xbdfbffbb	-0.12304636
91	0xbcada873	-0.021198487
92	0xbdb03a62	-0.08604886
93	0x3e32e9a9	0.17471947
94	0xbde7655d	-0.112986304
95	0x3deef6f0	0.11668193
96	0x3dbf6259	0.0934493
97	0xbe886923	-0.26642713
98	0x3db74597	0.0894882
99	0x3dda4e19	0.10659427
100	0xbddf5589	-0.109049864
101	0xbe049521	-0.12947513
102	0x3d78f5e5	0.06078138
103	0xbe05fe76	-0.1308535
104	0xbd2bb21f	-0.041917916
105	0x3e889564	0.26676476
106	0x3c63c5a3	0.013902101
107	0x3c890301	0.016725065
108	0x3e8e5d80	0.2780571
109	0x3e1d178a	0.1534101
110	0xbe4d90bf	-0.20074748
111	0x3dd0d578	0.10196966
112	0xbb543e4a	-0.003238576
113	0xbe6ff0e0	-0.2343173
114	0xbcd8e7bf	-0.026477693
115	0x3d680185	0.056642074
116	0xbd052cd4	-0.032513455
117	0x3cf12c8c	0.029440187
118	0xbe2c7eec	-0.16845292
119	0xbdc1eed3	-0.0946938
120	0x3d638a40	0.055551767
121	0xbcef21fc	-0.02919101
122	0x3e4628ff	0.19351576
123	0x3db37c1d	0.08763907
124	0x3c945f20	0.018111765
125	0xbc513dc4	-0.012771074
126	0x3d7b5106	0.061356567
127	0xbe2a8b98	-0.16654813
128	0x3e513c97	0.2043327
129	0x3db21b4f	0.08696615
130	0x3d9b5cc2	0.075860515
131	0x3c1282af	0.00894229
132	0x3e9522f2	0.29128224
133	0x3e042e92	0.1290839
134	0x3dd4b487	0.10385995
135	0xbe864568	-0.26224828
136	0xbd478035	-0.048706252
137	0x3e078e0c	0.1323778
138	0xbe05f9e0	-0.13083601
139	0xbde84052	-0.11340393
140	0xbe3678bc	-0.17819494
141	0x3e13d1af	0.14435457
142	0x3d4f09ea	0.050546564
143	0x3e88173d	0.2658023
144	0xbe616f54	-0.22015125
145	0x3de05303	0.10953333
146	0x3dbb0f59	0.09133787
147	0xbdd44136	-0.103640005
148	0x3e8e5890	0.27801943
149	0xbc588319	-0.01321485
150	0x3df44401	0.11927033
151	0xbdca0bdb	-0.098655425
152	0x3cb5d10e	0.022194412
153	0x3d84aedf	0.064786665
154	0xbc13bf0a	-0.009017715
155	0x3b85e5b0	0.004086219
156	0xbda3976d	-0.079878666
157	0x3c99087e	0.018680807
158	0x3e2edb0b	0.17075746
159	0xbe28e36c	-0.16493005
160	0x3cc10040	0.02355969
161	0xbded0c74	-0.11574641
162	0xbe13bc55	-0.14427312
163	0xbe677c15	-0.22605927
164	0x3d009c95	0.03139933
165	0xbdeefd34	-0.116693884
166	0x3e6a5891	0.22885348
167	0xbdaac875	-0.083390154
168	0x3e33a202	0.1754227
169	0x3e5fbacf	0.21848606
170	0x3db4f6b8	0.0883612
171	0x3e114cff	0.14189528
172	0xbd9e17d7	-0.07719391
173	0xbd51721d	-0.051134218
174	0x3ca4e154	0.020126976
175	0xbe7f2385	-0.24915893
176	0x3dfef60d	0.12449274
177	0xbd223527	-0.03960147
178	0x3c16707a	0.00918209
179	0x3d75ceb8	0.060011595
180	0x3e5fac53	0.2184308
181	0x3dc8ac9a	0.09798546
182	0x3de9f61b	0.11423894
183	0x3c524254	0.012833197
184	0xbc817e8e	-0.015807416
185	0x3d40c2d0	0.047060788
186	0x3e1b0e99	0.15142287
187	0xbd87a6a7	-0.06623583
188	0xbdd30103	-0.10302927
189	0xbe9167cb	-0.283995
190	0xbd9309c8	-0.071796
191	0x3d0eb788	0.034842998
192	0x3d81e856	0.06343143
193	0xbdb065e8	-0.08613187
194	0xbdd2ef8d	-0.10299597
195	0x3dabfb10	0.08397496
196	0xbd3bd9fc	-0.045862183
197	0xbbd06264	-0.0063593853
198	0xbc729c3f	-0.01480776
199	0x3ddb7e0a	0.107173994
200	0x3d27ce44	0.040968195
201	0x3e3da92f	0.1852157
202	0xbda33d57	-0.07970684
203	0xbeab78d7	-0.3349063
204	0xbda7ec26	-0.081993386
205	0x3e26ea8a	0.16300407
206	0x3d905fdd	0.070495345
207	0x3d207b57	0.039180126
208	0xbd7b9be7	-0.061427977
209	0x3e23d5cf	0.1599953
210	0xbdcdfd18	-0.100580394
211	0x3e3b6267	0.18299256
212	0x3e182491	0.14857699
213	0xbd39b37c	-0.045337185
214	0x3bc943b3	0.0061421036
215	0xbd2eb130	-0.042649448
216	0x3e66c191	0.22534777
217	0x3e09658b	0.13417642
218	0xbe2e290f	-0.1700785
219	0x3cb66f0b	0.022269746
220	0xbe482a30	-0.19547343
221	0x3d8aa59c	0.06769869
222	0x3d8e6322	0.06952502
223	0x3d8955da	0.06705828
224	0xbd89340b	-0.066993795
225	0xbe2596fe	-0.1617088
226	0xbd109c8d	-0.03530555
227	0x3d76dd8d	0.06026988
228	0xbdb73822	-0.08946253
229	0xbccaddab	-0.024763903
230	0x3dbc7170	0.09201324
231	0x3dbb7e30	0.09154928
232	0x3c839fef	0.016067473
233	0xbb225afe	-0.0024773474
234	0xbda548f1	-0.08070553
235	0x3d20444b	0.03912763
236	0x3dce22cc	0.10065231
237	0x3d82823b	0.06372496
238	0x3e12a5ab	0.1432101
239	0xbc3e1b81	-0.011603237
240	0x3dcc40f4	0.09973326
241	0x3c908c71	0.017645093
242	0x3d6c6c17	0.05772027
243	0x3dc45bb0	0.095878005
244	0xbdd4832b	-0.10376581
245	0xbcf51f58	-0.029922172
246	0xbc8219ca	-0.015881438
247	0x3d731cf2	0.059353776
248	0xbd9bdf92	-0.07611002
249	0x3dc8ee35	0.098110594
250	0xbd30b030	-0.043136775
251	0xbd243b29	-0.040095482
252	0xbe5e0ae6	-0.21683845
253	0x3e99d2c8	0.30043626
254	0x3df7bce9	0.12096579
255	0x3e2d86f2	0.16946009
