works/letterFromC/weights/B3_conv2dTranspose_1-kernel.npy (npy, 295040 bytes, 1 tensors)

array f4 [3, 3, 64, 128]
00000000: e0bf ce3d ae46 7c3d 8395 563e 058e 36be
00000010: d788 2c3e 4709 54bd 6c3f 763a 347b 1fbb
00000020: a952 0f3e 1e51 653d 1e62 87bc 7f5d ca3d
00000030: 53c5 a0bd 1b0a 19be 82f4 983d d472 cd3d
00000040: 777a 483d e37f fcbd f693 0cbe 1538 05be
00000050: ebcb 043e 912e 41bc f043 113e 67ef f6bd
00000060: 2c71 66bc 190f babd 7883 f3bd 98b5 3cbe
00000070: 11a0 773d a835 46be 3ffe e8b8 f86f f5bc
00000080: 6c2e e83d fb8f 0cbe 3b08 49be b109 813e
00000090: 86e5 14bd 3dab d3bc 822a 0ebd dc9b a83d
000000a0: a62a 153e 3896 ebbb 19e3 b8bd ed67 823e
000000b0: c525 68bd 6947 03be ca6b bbbd 70ad dbbc
000000c0: 5631 02be bca4 b33d 1b4e 82bc 3ea9 3f3d
000000d0: 59c5 1cbd e828 c5bd ff8e d13d 42ec c1bd
000000e0: 01b8 31bd 6945 0d3b c366 02be 28de 46be
000000f0: 4dd2 1fbe 82c4 8abd 5b1e 0bbd 8e2a 20be
00000100: 9107 8fbb 0b48 1a3e 9ed8 a6bd 0dd1 083e
00000110: e963 293e 7fa9 febd 8693 e2bb 28ad 49bd
00000120: 59a6 d83d 0c4f ca3d 050e 30bd 44bf c9bd
00000130: a155 443e cb4f eebb a2f9 5f3d 3b51 3ebc
00000140: 75c7 a83d 1a46 a63c d78e 33bd 694c 65be
00000150: 5ddf 3dbe 5d3d 03be 2a93 543d c086 703e
00000160: a90d 85bd 416f bd3b 9227 2e3e 1687 56bc
00000170: 5d3b aebc bf8d 74bd 5f68 573c ddc6 17be
00000180: 3ed3 cb3b 8db6 47bd 78fc a0bd f08d 43bc
00000190: 236b e83d de2a 73be 0761 17bd c9db 42bd
000001a0: 074e e23d 9ed5 cabd 4753 c1bd b104 d8bc
000001b0: 43dc 483c b24a fe3d e5a5 0fbe e9ee 3abe
000001c0: 1d54 49bc a087 75bd 43d3 ea3d 0555 283e
000001d0: 7fdc ba3d 3e40 133d 78e4 f4bd 6fa4 91bd
000001e0: 117d 983e 4f8b 263c 394d 1bbd 4cc3 c33b
000001f0: a706 33be bf9f 83bd 8479 333d b968 cd3c
00000200: a18e fa3c 51b1 b13d 7c69 673e 6fd1 3ebe
00000210: 86c6 ad3d 2433 cdbd 30b4 dd3d 28ce d63d
00000220: d875 a33e fa19 653b 4df6 4dbd 2c71 273e
00000230: 9d65 a8bd 1952 22be eb7f 743e 030b e13d
00000240: bc9c eabd 47c2 83be c3d5 0e3e 1b36 55be
00000250: d880 5ebd b1e6 5abe f1e1 da3b d51c 70be
00000260: fe60 b53c 527a 63be 42a2 0fbe 2130 8dbd
00000270: 1099 4e3d 8235 5dbd 197f ecbd 459f 34be
00000280: bb37 163e 8d0a 4ebe 974c c2bd 4db2 5e3e
00000290: 8d4d 79bd 84de 32be c6a3 ad3c d747 743d
000002a0: be6a 3e3e 112c 853d 212e 8bbe 79df 533e
000002b0: 7049 5a3e 1f52 c4bd b8a6 abbe 7391 d1bd
000002c0: a508 08be 2617 323e ddf3 72be b0a5 9b3e
000002d0: 85ea 923d 1959 22be ffcc f13d b12a de3d
000002e0: 67de 53be 0f51 95be 520a 153e 8885 d2bd
000002f0: f5f5 22bd 5181 0c3e dc15 c63d 7707 bfbd
00000300: a9eb 733e 74ec 15be 5f86 d7bd 3c9d bf3c
00000310: 57bb 46bd 10ae 943d 1bf9 3d3e 271a 103e
00000320: 9037 59bd 3f25 283e e3a4 643c 78b8 a63c
00000330: c210 e9bd 4d64 5abe 388c 1f3b 3ec5 31be
00000340: cb46 8c3e 80a7 03be 4064 5ebd eb19 6a3e
00000350: 9247 09bd 52ca b33c df0a b03e 1eb9 623d
00000360: 5c8d 493e 86c3 11be 4ee5 2c3e 0a5f 80bc
00000370: 5fca 863d 2ae4 463e 6dcf c7bd 9bcd 02bd
00000380: b21e 953d b80f 2ebe 79d5 90be 8e45 2c3d
00000390: 0063 d53d aa46 8dba 431c c73d 1a2f 0fbe
000003a0: dbc7 9e3d 3aa9 8fbe e9e9 033e 877b 6b3d
000003b0: 66b6 393b 5bbe 10bb 8320 663e 5fa5 dd3c
000003c0: be17 c5bc a186 903e 29c1 8e3e 33c8 263d
000003d0: 880d ce3d ab4d 00be 64d2 be3d d83a 7b3e
000003e0: 596e 0b3e 51fd 863e abdc 833e a81e 85be
000003f0: 80e8 e2bd 25a9 89be 8007 fcbc 321c 5f3e
0.10095191 0.061590843 0.20955472 -0.17827614 0.16849075 -0.05176666 0.0009393606 -0.002433491
0.13996376 0.055985563 -0.016526278 0.09881114 -0.078501366 -0.14945261 0.07468511 0.10031667
0.048944917 -0.1232908 -0.13728318 -0.13009675 0.12968414 -0.011790887 0.14186072 -0.12057381
-0.014065068 -0.09084911 -0.1189031 -0.18428648 0.060455386 -0.19356406 -0.00011109979 -0.029960617
0.11336979 -0.13726799 -0.19632046 0.25202706 -0.036351703 -0.025838489 -0.034708507 0.08232853
0.1456705 -0.0071895383 -0.090276904 0.25469914 -0.056676645 -0.1282021 -0.091514185 -0.0268161
-0.12714133 0.08771655 -0.015906384 0.04679226 -0.038274143 -0.09626943 0.102323525 -0.09468891
-0.04338837 0.0021556264 -0.12734513 -0.19420683 -0.15607567 -0.06775762 -0.033964496 -0.15641233
-0.0043649157 0.15066545 -0.08146785 0.13360997 0.16542019 -0.124346726 -0.006914559 -0.0492374
0.10578603 0.09878358 -0.04298212 -0.09850934 0.1917329 -0.0072726957 0.054681428 -0.011616047
0.082411684 0.020297099 -0.043837395 -0.2239243 -0.18542238 -0.12816377 0.05189816 0.23488903
-0.06496746 0.0057810848 0.17007282 -0.01309373 -0.021268541 -0.059705492 0.013147443 -0.14821954
0.0062202504 -0.04875808 -0.078606546 -0.011935696 0.1134856 -0.23746821 -0.036957767 -0.047572885
0.11050039 -0.099040255 -0.09439712 -0.026369425 0.012259546 0.12416591 -0.14028127 -0.182552
-0.012288121 -0.059943795 0.11466076 0.16438682 0.091240875 0.035949938 -0.119576395 -0.07111441
0.29782918 0.01016505 -0.037915442 0.005974209 -0.17483006 -0.064269535 0.04381706 0.02507435
0.030585589 0.086763985 0.22598833 -0.1863458 0.08485131 -0.1001952 0.10825384 0.1048854
0.31925845 0.003495811 -0.05028372 0.16351765 -0.08222506 -0.1585163 0.23876922 0.109884284
-0.11455676 -0.2573416 0.13948731 -0.20821421 -0.054322094 -0.21377064 0.0066797663 -0.23448499
0.022140976 -0.2221463 -0.1402674 -0.068939455 0.05043894 -0.054006107 -0.115476795 -0.17638882
0.14669697 -0.20121212 -0.094872646 0.21747704 -0.060864974 -0.17467695 0.021196257 0.059638824
0.18595406 0.065025456 -0.2718363 0.20690717 0.21317077 -0.09585976 -0.33525634 -0.1023282
-0.13284548 0.17391643 -0.23725839 0.30399847 0.07173637 -0.158543 0.11806678 0.108479865
-0.20690309 -0.29163405 0.14554718 -0.10279375 -0.039785344 0.13721205 0.09672138 -0.09327596
0.23820366 -0.14640981 -0.10523676 0.023390405 -0.048518505 0.07259762 0.18552057 0.14072476
-0.053031504 0.16420458 0.013955328 0.020351633 -0.113801494 -0.21327324 0.0024345051 -0.17360398
0.2739776 -0.12856865 -0.054294825 0.2286145 -0.03351552 0.02194706 0.34383294 0.055352323
0.1968283 -0.14234743 0.16884348 -0.015670318 0.06581568 0.19422975 -0.0975636 -0.031934362
0.07281245 -0.16998184 -0.28287867 0.04205852 0.104192734 -0.0010778506 0.09722187 -0.13982812
0.07752963 -0.28058797 0.12882198 0.05749085 0.0028337478 -0.0022086117 0.2247334 0.027056394
-0.024059173 0.28227714 0.27881745 0.04071827 0.10061175 -0.12529628 0.093174726 0.24534166
0.13616313 0.2636514 0.25754294 -0.2599995 -0.11079502 -0.2688686 -0.030765295 0.217881
