works/letterFromC/weights/CBN_B3_1_dense_2-kernel.npy (npy, 16512 bytes, 1 tensors)

array f4 [32, 128]
-0.013299657 0.016459232 -0.12264994 -0.016272053 0.18976577 0.027351232 0.033200655 -0.001896308
0.040908124 -0.009036346 -0.18678334 -0.0394031 0.16483147 -0.053797074 0.0987547 -0.0077410853
0.013618852 0.008192484 0.007848561 0.07773311 -0.03874593 0.013441855 -0.07144483 -0.006926614
0.02676463 0.19692023 -0.115994625 -0.13832141 0.20185697 -0.087858215 0.0015162885 0.06882161
-0.06997553 -0.02006601 0.018375497 -0.095696464 -0.024118219 0.1313462 -0.023242947 0.083010614
-0.021800391 -0.023756677 0.05823932 0.16873223 0.0048465626 0.098555125 -0.0256302 -0.03328364
0.06797515 0.11636493 0.008438709 0.038036734 -0.1580425 0.045626424 0.24125619 0.027750492
0.038012978 -0.009000572 0.036760006 0.02010301 0.16181742 0.020682406 0.07719401 0.0132724205
-0.0031473034 0.04745876 -0.070373155 -0.15915981 -0.040680237 0.09637289 0.012247925 -0.16167894
0.051600568 0.15188974 0.1126955 0.001665617 -0.016779032 0.037980102 -0.13965216 -0.11845615
0.11563822 0.02524725 -0.015058394 -0.015296368 0.032274347 -0.016358294 0.22432452 -0.024167871
-0.22651055 -0.008744669 -0.011709735 0.024844358 -0.07003375 -0.015118934 0.04196581 0.030645048
-0.28871623 0.23425598 -0.19999267 -0.05700745 -0.19641401 0.010345721 -0.06494393 -0.055587884
-0.09720777 0.005492228 -0.036378033 0.09497009 -0.0111657875 -0.15083279 0.012492844 0.04532249
-0.093278766 -0.08370608 -0.18788664 0.07204003 -0.077370666 -0.057941943 -0.015789455 -0.022095058
0.020523967 0.06820679 -0.014107586 0.121983156 0.11521124 -0.2081154 -0.04370861 0.040479068
0.018422093 0.27275452 -0.14362499 0.020670228 -0.009121722 -0.009203619 0.017444095 0.015291793
0.0066562234 -0.17272694 -0.09375242 -0.19856156 -0.15261588 -0.012288259 0.00041394783 0.042350344
-0.045483876 0.0021872553 -0.012524361 -0.09044443 -0.25232473 0.017618094 0.1124069 0.017511208
-0.028802563 0.007881915 0.009257482 -0.11288178 -0.063138366 -0.003849363 0.015076914 -0.12301888
0.014248375 0.042771626 -0.016564695 0.09764761 -0.05070019 0.083670385 0.20495181 0.046376005
-0.15158911 -0.025383301 0.02226805 0.02102397 -0.017913355 -0.07063108 0.051337663 -0.06633109
-0.03214567 -0.08175449 -0.024573548 -0.030314779 0.089041404 -0.038322113 0.051985513 0.0424292
-0.0428254 0.016468754 -0.043835055 -0.038608946 -0.28232315 -0.067770265 0.011872387 0.012366027
0.09011252 0.019959982 0.051574104 0.1325047 -0.02849415 0.008759005 0.009546057 0.08803285
-0.022248982 0.22734848 0.016491957 0.08036212 0.030895378 0.0014314291 -0.15872034 -0.01917845
0.10065533 -0.12572476 0.013121227 0.00551255 0.020477436 0.09573956 -0.059067816 -0.07754982
-0.055998653 -0.022372955 -0.047412768 -0.16708255 0.047542796 -0.0007013729 -0.0642652 -0.077503115
-0.011048111 -0.23475595 0.058305215 0.073270954 0.21283975 0.020980353 -0.019484153 0.13819708
0.072709166 -0.011161087 -0.0118156485 0.060449414 0.03925202 -0.062333893 -0.06334527 -0.045093585
0.011284647 0.10901861 0.095308885 -0.08193463 0.05705375 -0.0077375956 0.06478838 0.043328576
-0.021868419 0.019858481 0.061352316 0.039057165 0.15682873 0.11186962 0.04318459 -0.010177147
00000000: cee6 59bc 83d5 863c e42f fbbd f84c 85bc
00000010: f551 423e b10f e03c 69fd 073d 8a8d f8ba
00000020: 478f 273d 2f0d 14bc 2244 3fbe 2565 21bd
00000030: 95c9 283e 525a 5cbd e73f ca3d eea8 fdbb
00000040: 9b21 5f3c c539 063c 4097 003c 8932 9f3d
00000050: 0db4 1ebd 3a3b 5c3c ab51 92bd a6f8 e2bb
00000060: 7f41 db3c 75a5 493e 978e edbd 21a4 0dbe
00000070: 98b3 4e3e 02ef b3bd 33be c63a 58f2 8c3d
00000080: 554f 8fbd 7961 a4bc 3688 963c 82fc c3bd
00000090: 9293 c5bc 9e7f 063e fe67 bebc 7801 aa3d
000000a0: bc96 b2bc 5d9d c2bc 5a8c 6e3d 24c8 2c3e
000000b0: eacf 9e3b 45d7 c93d 6df6 d1bc 6d54 08bd
000000c0: 8e36 8b3d bd50 ee3d 8342 0a3c 68cc 1b3d
000000d0: e5d5 21be c6e2 3a3d dd0b 773e 0055 e33c
000000e0: 7fb3 1b3d 2377 13bc a991 163d 11af a43c
000000f0: 77b3 253e 266e a93c e517 9e3d 9174 593c
00000100: fd42 4ebb 1e64 423d cd1f 90bd cafa 22be
00000110: 52a0 26bd 265f c53d 85ab 483c 2a8f 25be
00000120: 1e5b 533d fc88 1b3e e6cc e63d d550 da3a
00000130: 2e74 89bc 0691 1b3d fa00 0fbe 2399 f2bd
00000140: bbd3 ec3d 52d3 ce3c 7bb7 76bc 9e9d 7abc
00000150: 1b32 043d d401 86bc 54b5 653e b3fb c5bc
00000160: 62f2 67be cd45 0fbc 30da 3fbc 6586 cb3c
00000170: db6d 8fbd 68b5 77bc 57e4 2b3d 530b fb3c
00000180: 9dd2 93be cde0 6f3e e1ca 4cbe a580 69bd
00000190: c120 49be 1981 293c 5301 85bd 1fb0 63bd
000001a0: de14 c7bd 26f8 b33b 2201 15bd ae7f c23d
000001b0: b5f0 36bc e973 1abe c9ae 4c3c 13a4 393d
000001c0: f008 bfbd 186e abbd 5b65 40be b989 933d
000001d0: 8374 9ebd 8854 6dbd e358 81bc b200 b5bc
000001e0: e121 a83c 00b0 8b3d 8123 67bc 4ed2 f93d
000001f0: dff3 eb3d 341c 55be cd07 33bd 61cd 253d
00000200: eee9 963c 7ba6 8b3e 6e12 13be 9c54 a93c
00000210: 4673 15bc c7ca 16bc ebe6 8e3c 6e8a 7a3c
00000220: 731c da3b 55df 30be 4501 c0bd b953 4bbe
00000230: 5647 1cbe b254 49bc 2307 d939 8e77 2d3d
00000240: 4d4d 3abd 0e58 0f3b fa32 4dbc ee3a b9bd
00000250: b530 81be d253 903c 9735 e63d aa73 8f3c
00000260: 5af3 ebbc 2623 013c b2ac 173c 902e e7bd
00000270: b04e 81bd 9845 7cbb 2905 773c 53f1 fbbd
00000280: 0472 693c 4d31 2f3d afb2 87bc 78fb c73d
00000290: 01ab 4fbd 615b ab3d e3de 513e c4f4 3d3d
000002a0: 2d3a 1bbe a4f0 cfbc 7c6b b63c 763a ac3c
000002b0: 07bf 92bc 07a7 90bd 7147 523d 98d8 87bd
000002c0: 2eab 03bd e66e a7bd 774e c9bc b356 f8bc
000002d0: 575b b63d a6f7 1cbd c3ee 543d 3eca 2d3d
000002e0: b069 2fbd 7be9 863c 638c 33bd 6a24 1ebd
000002f0: a98c 90be 23cb 8abd 6684 423c e09a 4a3c
00000300: ea8c b83d 1e83 a33c 5e3f 533d 50af 073e
00000310: 906c e9bc ee81 0f3c 1167 1c3c 914a b43d
00000320: 7f43 b6bc 0ace 683e 241a 873c e594 a43d
00000330: 4e18 fd3c ca9e bb3a 9687 22be 201c 9dbc
00000340: 6224 ce3d febd 00be 6afa 563c 9fa2 b43b
00000350: 4cc0 a73c 1a13 c43d 18f1 71bd 71d2 9ebd
00000360: d85e 65bd 7d47 b7bc e433 42bd b017 2bbe
00000370: 3cbc 423d 57dc 37ba 799d 83bd f4b9 9ebd
00000380: 2303 35bc dd63 70be 73d1 6e3d 150f 963d
00000390: aaf2 593e fdde ab3c 3b9d 9fbc 8983 0d3e
000003a0: 8be8 943d fedc 36bc 6c96 41bc ce99 773d
000003b0: bac6 203d d351 7fbd 2abb 81bd 0db4 38bd
000003c0: 3de3 383c 2645 df3d 4e31 c33d 58cd a7bd
000003d0: 31b1 693d a88b fdbb c5af 843d 4e79 313d
000003e0: 6625 b3bc 41ae a23c 914c 7b3d 68fa 1f3d
000003f0: b697 203e e61b e53d 53e2 303d 0cbe 26bc
