works/letterfromc/weights/CBN_B2_2_dense_1-kernel.npy (npy, 16512 bytes, 1 tensors)

array f4 [32, 128]
00000000: ab50 02bf 77f8 eebd 12d6 3c3d aaa2 853d
00000010: 42b3 9b3e a106 e9be bb13 7fbe 5f65 1fbf
00000020: 47fe d63e 74b4 1ebe ccfd 08bd 0a3a 873d
00000030: 2ef8 1b3f 67f2 2dbe d3a5 493e b3cb 663e
00000040: 2730 b2be a250 ea3d e1a9 303f e2dc b2be
00000050: dbb1 143f ed14 603e c045 a43c 890c 3c3f
00000060: 4ce8 273f 4087 153f da15 2bbf 12b1 00bf
00000070: 6537 353e 8f96 82be 86d5 69bd 5e67 d53e
00000080: 4820 febd 5e77 7dbe 6561 213f 7775 cabd
00000090: e05a 2fbe 9689 56be a2da 993e a060 1cbf
000000a0: d0a1 dfbe 56f1 b8bb de12 c43e 805e 003f
000000b0: 780d c7bd a451 7ebe 655d 87be dc07 153e
000000c0: 86e3 b2bc 4319 00bf 4083 193f f5ba 9cbd
000000d0: a93d d6be 0ccf 6e3e 40af 3cbe f8bb ec3e
000000e0: dd1d ac3e 8bf6 9a3e 5c1a 00bf 3047 c53d
000000f0: 883b 0bbf 2a6b 203f 9461 f53d 9aad 93be
00000100: 02b1 9b3d 8294 1c3d f90d 023d 002a 2dbd
00000110: 5756 b63e 19ee 5c3e fb22 523e 35de f8bd
00000120: 5a12 e13e 4224 6ebe 4e30 f1bd 4746 d73e
00000130: 9227 f7bc ed5b ac3e 5b14 103f 78b9 9fbe
00000140: bd81 f13e 05a1 7bbc 5de5 0ebd db8d 123f
00000150: 3991 19be 8c94 01be 8207 6bbd 3983 fbbc
00000160: f777 d0bd 55f5 fd3b 41fa cabe 4b79 fabe
00000170: 2df4 78be 795b 12bd aa91 78be ce3b 623e
00000180: 48d2 bcbe 11f8 52be 1621 1b3f 0956 81be
00000190: c2f9 bb3d 4e19 8dbc d9c8 aabe 16f6 a1be
000001a0: 6a02 933e 4b6f 153d a47c 683d f9b5 9ebe
000001b0: 19ba 0bbf 7b8e 23bd 4f8b bb3d d6f3 2cbf
000001c0: 7353 a3bd 17e7 eb3d b139 9e3e b704 a9bd
000001d0: 3cc0 aebe d35d 1cbf 01d4 04be 1f1c 163f
000001e0: 22de 9b3e 9901 4a3e 151c c43e 55dd 89be
000001f0: 29dd f7be 5b40 19bf 7794 573e cba3 8abe
00000200: 2730 f3bd 8273 a8be 2427 16be 7a1c 5d3d
00000210: 16bf 21be 8fc4 c6bd 2343 1dbf d3cf 48be
00000220: 4a29 d13e 5cdd a5be 1313 963e 7760 fcbd
00000230: d9a1 6a3e def3 24be 899a d93c 7d02 893d
00000240: 8c46 34be 9716 b3be 495a 8a3e 8398 0f3e
00000250: 84a0 4e3e d09f e5be ec10 4abe a149 8d3e
00000260: d05c 483e 6bd9 123f c33e 413e a19a f03e
00000270: 93b9 c73e 5ed1 bebe 54db 1b3e 4602 1cbd
00000280: e468 bbbc b86a a73c 34bb 0338 e3fe e13d
00000290: e28a 2cbe 3cc5 ab3d 1b08 85be f544 17bf
000002a0: 24ea 45be c5bc e1bd 1084 063f 0efb b6bb
000002b0: 5459 973c df5f adbe 6e47 34be fb5f 9a3e
000002c0: 29cc edbd 22b0 d6be 74ce 023f 8cf6 b43e
000002d0: a63e de3d 4583 ef3c d7fb 6bbe 7480 36be
000002e0: fcd3 263e 97de 0ebe f4a5 61be 5799 7ebe
000002f0: d206 3bbd 429d bd3e 5278 9dbd 44f2 fd3d
00000300: 3e5e 2fbe a7da 19bf d759 3c3e c432 b5bd
00000310: 6830 633d c8a7 83bd 4d51 973e b312 51bf
00000320: 5b95 463e a57f 62bd 9027 86be 53a1 d33e
00000330: db2a 79bd abf8 b0be ddc7 213d 31ce e53b
00000340: 050b 14bf 43ff 55bd b0fa 88be d853 37bb
00000350: 2d30 38bf 76cd d3be e239 4bbe deb4 aabe
00000360: 9f04 e2be 0294 3abd 23c9 1abe 2d19 253e
00000370: 1991 65be 09ae 61be 10ea 923e e6ed 7a3e
00000380: 796a e23d 1282 a2bc 1a57 993e 7ced 423e
00000390: 112a c33e 496d ec3d 7975 a8be 3e1a bcbc
000003a0: 1807 53be 0588 f6be c6f8 a9be 2c04 36be
000003b0: eefc 71be 5674 323e b1af 00be f12f cabe
000003c0: a8a6 41be e98a a13e 6e45 b5be 6007 003e
000003d0: 0457 c8be 39b3 84be de0a 27bf 34cf 883d
000003e0: 6579 9eb9 f667 c23e e3d1 993e 93f2 443d
000003f0: 155c b5bd 3ea0 31be e9c9 23bd bf97 78bd
-0.5090434 -0.11668485 0.04610259 0.06525166 0.304102 -0.4551287 -0.2490987 -0.62264055
0.41990873 -0.15498525 -0.033445165 0.06602867 0.6092557 -0.16987 0.19692163 0.22538643
-0.34802362 0.11441161 0.69009215 -0.34934145 0.58083886 0.21882983 0.02005279 0.7345663
0.6558883 0.584095 -0.6683022 -0.5027019 0.17696913 -0.25505492 -0.057088397 0.41680425
-0.12408501 -0.24752566 0.6303924 -0.09885686 -0.1712451 -0.20950922 0.30049616 -0.6108494
-0.4367814 -0.005644004 0.38295645 0.50144196 -0.09719366 -0.24835831 -0.26438442 0.1455378
-0.021837007 -0.50038546 0.59965897 -0.07652847 -0.41843918 0.2332117 -0.18426228 0.4623716
0.33616534 0.30266222 -0.5004022 0.096327186 -0.5438771 0.6266352 0.11981502 -0.28843385
0.07602121 0.038227566 0.031751607 -0.042276382 0.35612747 0.21575202 0.20521156 -0.12151758
0.43959314 -0.23256019 -0.117767915 0.42045805 -0.030170236 0.33663884 0.5628106 -0.3119619
0.47169295 -0.015358214 -0.034886707 0.57247704 -0.14996804 -0.12654322 -0.057380207 -0.03070222
-0.101791315 0.007750193 -0.39644054 -0.48920664 -0.24311896 -0.035731766 -0.24274316 0.22093126
-0.36879182 -0.20602442 0.6059736 -0.25260952 0.09178497 -0.01722398 -0.3335636 -0.3163306
0.2871278 0.03648309 0.05675949 -0.3099821 -0.5458084 -0.0399308 0.091574304 -0.67559564
-0.07974901 0.11518686 0.3090339 -0.082528524 -0.34131038 -0.61080664 -0.12971498 0.5863666
0.3044291 0.19727172 0.38302675 -0.26926675 -0.4841092 -0.59863824 0.21052729 -0.2707809
-0.11874419 -0.32900625 -0.14663368 0.053982235 -0.1579555 -0.09705459 -0.6143057 -0.19610529
0.40851814 -0.32395446 0.29311427 -0.12323087 0.22913302 -0.16108653 0.026562946 0.06689928
-0.17605036 -0.34978172 0.27022007 0.14023022 0.2017842 -0.4484849 -0.19733018 0.27595237
0.19566655 0.57363003 0.18871598 0.46992972 0.3900877 -0.3726911 0.15220386 -0.038088106
-0.022877164 0.02043663 3.140718e-05 0.11034944 -0.16849855 0.08387229 -0.25982746 -0.59089595
-0.19327599 -0.11022333 0.5254526 -0.0055841273 0.018475212 -0.33862206 -0.17605373 0.30151352
-0.11611206 -0.41931254 0.5109627 0.3534435 0.10851793 0.029237399 -0.23045288 -0.17822438
0.16291803 -0.13952099 -0.22035962 -0.24863182 -0.0456608 0.3703404 -0.07688965 0.12399724
-0.17125794 -0.6009926 0.18393646 -0.088475734 0.055466086 -0.06428486 0.29554215 -0.8166916
0.19392912 -0.055297513 -0.2620206 0.41334018 -0.060831886 -0.3456472 0.039497245 0.0070131053
-0.57829314 -0.05224539 -0.2675376 -0.0027973559 -0.7194851 -0.41367692 -0.198463 -0.33341116
-0.4414415 -0.045551307 -0.1511579 0.16122885 -0.22418632 -0.22039045 0.286942 0.24504814
0.11055464 -0.019837413 0.29949266 0.19035906 0.38118032 0.11544282 -0.32902125 -0.022961732
-0.20608175 -0.4815065 -0.33197612 -0.17775029 -0.23631641 0.17427191 -0.12567021 -0.394897
-0.1891123 0.31551293 -0.35404533 0.12502813 -0.39128888 -0.25917986 -0.65250957 0.06680146
-0.00030226554 0.3796994 0.30042943 0.0480829 -0.08855454 -0.17346284 -0.03998748 -0.06069159
