works/letterfromc/weights/CBN_B2_1_dense_1-kernel.npy (npy, 32896 bytes, 1 tensors)

array f4 [32, 256]
0	0xbda965c3	-0.08271363
1	0xbdfb222e	-0.12262379
2	0x3d8de386	0.06928162
3	0xbe7eb652	-0.24874237
4	0xbd349b8b	-0.04409365
5	0x3ec87abf	0.39156148
6	0x3e844e18	0.2584083
7	0xbbe30f52	-0.0069293166
8	0x3d9db34c	0.07700214
9	0xbd7058cf	-0.058678444
10	0xbe07c17d	-0.13257404
11	0xbc8c0623	-0.01709277
12	0x3e05d538	0.13069618
13	0xbe31702d	-0.17327948
14	0x3de5265a	0.111889556
15	0x3cb514de	0.022104677
16	0x3e62a5de	0.22133586
17	0x3e98c777	0.2983968
18	0xbeb8ee6c	-0.361194
19	0x3e761207	0.24030314
20	0x3e420818	0.189484
21	0x3e5a166e	0.21297619
22	0x3e85890b	0.26081118
23	0xbf0ec76a	-0.5577303
24	0x3e8680c2	0.2627011
25	0x3df06960	0.11738849
26	0xbec93b3c	-0.39303005
27	0x3c618a6b	0.013765912
28	0x3ec62600	0.38700867
29	0xbd8849b6	-0.06654684
30	0x3be772f8	0.007063266
31	0x3da87e2c	0.082271904
32	0xbe66aeb2	-0.22527578
33	0xbed023a8	-0.40652204
34	0xbe4c7ba8	-0.19969046
35	0x3e30dbe4	0.17271382
36	0xbdcd4385	-0.10022644
37	0x3dfd5416	0.12369554
38	0x3d7c2848	0.061561853
39	0xbe915563	-0.28385457
40	0xbe0b07bb	-0.13577168
41	0xbcf4280d	-0.029804254
42	0xbd997238	-0.074924886
43	0x3f05c036	0.52246416
44	0xbe1046c6	-0.14089498
45	0x3dd72848	0.1050573
46	0xbe59e40d	-0.212784
47	0xbeae8de3	-0.34092626
48	0x3d15fd84	0.036618724
49	0x3e30ef9f	0.17278908
50	0x3e85f341	0.2616215
51	0xbdcc56be	-0.09977482
52	0x3c95d7c9	0.018291371
53	0x3e3b7716	0.18307146
54	0xbd610ec1	-0.05494571
55	0xbb32d3c6	-0.0027286871
56	0x3e7f43ba	0.2492818
57	0x3ef19eee	0.47191566
58	0x3d8130df	0.063081495
59	0xbe933d3c	-0.28757656
60	0xbef92a6d	-0.4866518
61	0x3e628860	0.22122335
62	0xbdf66219	-0.120304294
63	0xbe2192bc	-0.15778631
64	0xbe3499cd	-0.17636795
65	0x3e7756a1	0.2415414
66	0x3e5a5681	0.21322061
67	0x3c860b87	0.016362919
68	0xbe43ab64	-0.19108349
69	0xbdd83178	-0.105563104
70	0x3ed75126	0.420541
71	0x3e89d2e9	0.26918724
72	0xbe6b84dd	-0.22999902
73	0x3e949fea	0.29028255
74	0xbdca6fff	-0.09884643
75	0xbf12aedf	-0.5729808
76	0xbd378773	-0.04480691
77	0xbe44059d	-0.19142766
78	0x3ed7e19e	0.4216432
79	0xbe8f5a0c	-0.27998388
80	0x3e56df5a	0.2098364
81	0x3d14a7a4	0.036292687
82	0xbe0f2e42	-0.1398249
83	0xbed378d5	-0.41303125
84	0x3e53e011	0.20690943
85	0x3e585179	0.2112483
86	0x3e7d4156	0.24731955
87	0xbd3c3b0a	-0.04595474
88	0xbe95b657	-0.29240677
89	0x3eb5d720	0.3551569
90	0xbedf69cb	-0.436354
91	0x3e80ec58	0.25180316
92	0xbdf0a803	-0.11750796
93	0xbe0c2ae1	-0.13688232
94	0x3ea1f343	0.31630906
95	0x3eef3fb0	0.46728277
96	0x3e33c03f	0.17553805
97	0x3e528cc1	0.20561506
98	0x3e7b086f	0.24514936
99	0x3e9aebe1	0.30258086
100	0xbeae15fd	-0.3400115
101	0xbd3889af	-0.04505318
102	0xbe051c08	-0.12998974
103	0x3e03ea20	0.1288228
104	0xbd801373	-0.0625371
105	0xbe925743	-0.285822
106	0xbe6c376f	-0.23068021
107	0xbde4cec8	-0.11172253
108	0xbeeac8e0	-0.4585638
109	0xbbe65297	-0.0070288884
110	0x3e8eccc4	0.278906
111	0xbd2f291a	-0.042763807
112	0xbd870951	-0.06593574
113	0xbc17cfd4	-0.009265859
114	0xbecd7fe3	-0.40136632
115	0xbe5d372b	-0.21603076
116	0xbde2cece	-0.11074601
117	0xbda6f336	-0.081518576
118	0x3d9b2853	0.075760506
119	0xbda11c7c	-0.07866761
120	0xbd3816f9	-0.044943783
121	0xbca4bdda	-0.02011006
122	0xbee5db12	-0.448937
123	0xbdbdb10a	-0.09262283
124	0xbe81d7f4	-0.25360072
125	0x3ddcd097	0.10781973
126	0xbd216c9d	-0.039410222
127	0xbec6df59	-0.38842276
128	0xbe02aa14	-0.12760192
129	0x3d4078f7	0.04699036
130	0xbeb13a95	-0.34615007
131	0xbc175920	-0.009237558
132	0x3e844692	0.2583509
133	0x3d9bd994	0.07609859
134	0x3d36a7be	0.044593565
135	0xbeb81075	-0.35950056
136	0xb983494a	-0.00025040872
137	0xbdb21d8e	-0.08697043
138	0x3d9b0759	0.07569761
139	0xbdf54dac	-0.11977705
140	0xbe2c2935	-0.16812594
141	0xbcce606c	-0.025192462
142	0x3d9e26fe	0.07722281
143	0x3e97e1f9	0.2966459
144	0xbcd1e8ec	-0.025623761
145	0xbcc1fc86	-0.023679983
146	0xbe0d8a30	-0.13822246
147	0x3ea47e40	0.3212757
148	0x3df6d39f	0.12052082
149	0xbd24f47f	-0.040272232
150	0x3e2df0f8	0.16986454
151	0x3e6226c1	0.22085096
152	0xbdae4a80	-0.085103035
153	0xbe7ffada	-0.24998036
154	0xbee70c38	-0.4512651
155	0xbe3ca44a	-0.18422046
156	0xbd5d30ae	-0.054001503
157	0xbebd917d	-0.3702506
158	0x3f00a54b	0.5025222
159	0xbe456985	-0.19278534
160	0x3dea7c5f	0.11449503
161	0x3edd04b9	0.43167666
162	0xbe4b5800	-0.19857788
163	0x3ead5152	0.33851105
164	0x3d0ebd63	0.034848582
165	0xbe7eb953	-0.24875383
166	0x3e8573db	0.26064953
167	0x3c0448be	0.008073984
168	0x3f05ee79	0.52317005
169	0xbe29546a	-0.16536108
170	0xbf1dccb2	-0.61640465
171	0x3eaa77b6	0.33294457
172	0x3d934008	0.07189947
173	0xbe29769b	-0.1654915
174	0x3e91dbe5	0.2848808
175	0x3cd0a19d	0.025467688
176	0x3e846ae2	0.25862795
177	0xbcc7c93d	-0.02438795
178	0x3e28aaca	0.16471401
179	0x3ee07863	0.43841848
180	0xbe0e75f9	-0.1391219
181	0xbe43b749	-0.19112886
182	0xbddde3a0	-0.10834432
183	0x3b96d0ec	0.004602542
184	0xbe83ab48	-0.25716615
185	0xbe1e3e73	-0.1545351
186	0x3e4756a6	0.19466648
187	0x3e4baf1b	0.19891016
188	0xbe05934e	-0.13044474
189	0x3d673945	0.0564511
190	0xbd9390c7	-0.072053485
191	0xbeec8d93	-0.46201763
192	0x3e128c90	0.14311433
193	0x3ee02dff	0.43785092
194	0x3ed9506e	0.42444175
195	0x3eabef70	0.33581114
196	0x3e12fe18	0.14354742
197	0xbea9f3bc	-0.33193767
198	0xbeab2907	-0.3342974
199	0x3eee8d0c	0.46591985
200	0x3aa5522c	0.001261299
201	0x3e4f36a7	0.20235692
202	0xbe0fcb2a	-0.14042345
203	0x3da3771a	0.07981701
204	0x3eb0aa64	0.34504998
205	0xbe4bf8a6	-0.1991907
206	0xbeb1569c	-0.3463639
207	0xbe847c0d	-0.25875893
208	0x3e9fc84d	0.31207505
209	0xbd55c297	-0.05218753
210	0xbe24ab4f	-0.16080974
211	0x3e0190f9	0.12652959
212	0xbea5f612	-0.324143
213	0x3c2f4172	0.010696756
214	0xbe8df593	-0.2772642
215	0x3ece7955	0.40326944
216	0xbeaff949	-0.34369877
217	0x3e0ca3b0	0.13734317
218	0x3d42daaf	0.047571834
219	0x3e93c885	0.28863922
220	0xbdee8555	-0.11646525
221	0x3e40e3db	0.1883692
222	0xbe6cedc1	-0.23137571
223	0xbe8897d6	-0.26678342
224	0xbab3c183	-0.0013714287
225	0x3ee3b20a	0.4447177
226	0x3ea4fffc	0.3222655
227	0xbec36e24	-0.38169968
228	0xbde07f15	-0.10961739
229	0xbea66f14	-0.3250662
230	0xbd1ee37a	-0.038791157
231	0x3d8668ec	0.06562981
232	0xbdc9d72f	-0.09855496
233	0x3e8a1c2e	0.26974624
234	0xbea0ec18	-0.31430125
235	0xbe0dfacd	-0.13865204
236	0x3d83118e	0.06399833
237	0x3d43c20b	0.047792476
238	0xbee913e6	-0.45522994
239	0xbe1e8c6e	-0.15483257
240	0x3e1a3094	0.15057594
241	0x3edcfc54	0.4316126
242	0xbe25a306	-0.1617547
243	0xbd3cad6b	-0.04606382
244	0xbe4ccf0d	-0.20000859
245	0xbe5a2fe0	-0.21307325
246	0x3e08940f	0.1333773
247	0x3e82344e	0.2543053
248	0xbdc3fa9d	-0.09569285
249	0x3c22f1b9	0.0099453265
250	0xbec22d08	-0.3792498
251	0xbcf8afbc	-0.030357234
252	0x3e288643	0.16457467
253	0xbe93e211	-0.28883412
254	0x3ee2feb8	0.4433496
255	0xbdc90162	-0.09814717
