works/letterfromc/weights/CBN_B1_1_dense_2-kernel.npy (npy, 65664 bytes, 1 tensors)

array f4 [32, 512]
000000 02 d4 ca 3b 6b 43 d1 bc 74 a3 36 3c 23 06 ef 3d
       0.006189824 -0.025544843 0.011147369 0.11671092
000010 14 70 aa 3c f3 ec b9 bc 8a 36 e2 bc c8 95 23 39
       0.020805396 -0.022695994 -0.027613897 0.00015600689
000020 cf 75 75 bc 42 98 b9 3b 41 fd 0f bd d4 36 94 bc
       -0.014981701 0.0056639025 -0.03515363 -0.01809255
000030 67 68 0e bd 41 be a0 3b 3b 77 3d bc 0c 33 5c bc
       -0.034767535 0.0049054925 -0.011564071 -0.013439905
000040 53 74 0f 3c 04 a0 e4 bc aa 67 2b 3d 52 88 a1 3c
       0.008755761 -0.027908333 0.04184691 0.019718323
000050 db 9a 15 bb 11 fb d1 bc 27 a2 08 3b 85 e3 8e bc
       -0.0022827897 -0.025632413 0.0020848603 -0.017442474
000060 ed c4 9f bc 31 a9 3e bd d7 bd d8 3c d5 3e 82 bc
       -0.019503081 -0.046548072 0.02645771 -0.015899101
000070 7d dc 71 3b 24 be 1c bc 39 87 c2 bc 95 a8 07 3d
       0.0036905103 -0.009566817 -0.02374612 0.033119757
000080 e4 31 2b 3c 86 0a af 3b de 99 0b 3d a4 ef 6f bc
       0.010448907 0.0053418307 0.034082286 -0.014644537
000090 84 02 b9 bc ff 74 88 3c 6b 3b ff 3c 4a a7 af 3b
       -0.022584207 0.01665735 0.031156262 0.0053605186
0000a0 62 54 a3 bc 9b ff d0 3c b8 32 c0 3c 40 9c 11 bd
       -0.019937698 0.025512507 0.023461685 -0.035549402
0000b0 bf cd 03 3d 13 22 6b 3a 3f 01 c1 bc 8e 4d f1 bb
       0.032178637 0.0008969616 -0.023560164 -0.0073639816
0000c0 08 78 b8 bd 87 fe 08 bd 67 4a df 3c d8 8b 3f 3d
       -0.09007269 -0.03344586 0.027257157 0.046764225
0000d0 74 45 74 bc ac 30 82 bc 0a 58 8c 3c 77 c6 3b ba
       -0.014909137 -0.01589235 0.017131824 -0.00071630575
0000e0 83 2c 9e bc d6 cd f0 bc 4e 89 21 bb ae c5 c0 bb
       -0.019308334 -0.029395025 -0.002464849 -0.0058829403
0000f0 7f cc 82 bc cc ac 59 3c 92 ff 09 3c 53 bf 89 3b
       -0.015966652 0.013285827 0.008422749 0.004203716
000100 3c 18 1f bc ae 57 6e bc ee 8a 10 3f 8a 27 48 bc
       -0.009710368 -0.014547272 0.5646199 -0.012216458
000110 b9 cb e1 be 61 fe fd bc c0 ed cc bc 86 67 de 3c
       -0.4410074 -0.031005086 -0.025015712 0.027148973
000120 bd 37 63 3c bb 93 20 bc 2d 3a 53 3d 8f b3 63 3d
       0.0138682695 -0.009800847 0.051569153 0.055591162
000130 b8 d8 28 bc 92 7f 96 3c df e9 83 3d c9 61 b6 3c
       -0.010305576 0.018371377 0.06441092 0.022263424
000140 6b d4 45 3d fe 90 51 bc 56 fc 22 3d 63 bf 91 bc
       0.04829828 -0.0127909165 0.039791428 -0.017791456
000150 ee 10 ec bb 31 1c 71 bc dc 2b 90 bc 22 7d 66 3b
       -0.0072041666 -0.014716194 -0.017599039 0.00351698
000160 62 e1 a8 bc a9 5c 28 3d bb 97 13 bc d0 2e 4d bc
       -0.020615283 0.041103993 -0.009008343 -0.012523368
000170 58 02 f8 bc e4 03 56 bb 09 f9 5d 3c d5 93 ca 3c
       -0.030274555 -0.0032656128 0.013548144 0.024728695
000180 89 8d f1 3c 5a 45 cf bb b4 45 1f bd 6e 4d 59 bc
       0.029486435 -0.006325406 -0.038884833 -0.01326309
000190 d8 86 7e 3c 03 5a 95 bc 5f 8c a3 3c 34 ab d3 bb
       0.015535079 -0.018231397 0.019964395 -0.006459618
0001a0 fe 36 7e 3a ed 73 ca bb c6 74 04 bd 8a 16 9f 3c
       0.00096975255 -0.00617837 -0.032337926 0.019419927
0001b0 42 c4 a1 3b 58 e5 17 bd 72 5e ce bc a0 39 b1 3c
       0.004936726 -0.037083954 -0.02519152 0.021633923
0001c0 8b d2 d3 bc 8b aa 0a bd b2 b4 16 bd 03 24 74 bc
       -0.02585723 -0.03385405 -0.03679342 -0.014901164
0001d0 ff 98 2c bd 9a 6c 85 bc d9 ab c9 3c 72 d4 06 bc
       -0.042138096 -0.016287137 0.024618076 -0.008229362
0001e0 8e 34 97 bc ba d7 f3 3c f0 36 80 bb 13 22 c1 3d
       -0.018457677 0.029765952 -0.003912799 0.09430327
0001f0 9f c5 d4 bb 7e 19 c7 ba 94 eb a2 bc 0e b7 90 3d
       -0.006493285 -0.0015190092 -0.019887723 0.07066165
000200 8f d6 ee 3c e8 5a 29 3b d4 72 c9 3c 62 dc 80 3c
       0.029155044 0.0025841538 0.024590887 0.015730087
000210 87 ee 4a 3d 72 91 21 bd d9 15 b5 3c 77 4c e5 bc
       0.049543884 -0.039445348 0.022105144 -0.027990563
000220 73 17 9d bc e7 a0 86 3c 43 95 0e bd 69 6c ef 3c
       -0.01917622 0.016434146 -0.034810316 0.029226499
000230 77 a9 ae 3a 6d fc 43 bc b8 d0 1a bc c4 26 b3 bb
       0.0013325651 -0.011962038 -0.0094491765 -0.0054672677
000240 68 e7 cf bc b3 9f 2f 3d 28 ab 44 bd b7 ec 83 3c
       -0.025378898 0.04287691 -0.04801479 0.016104085
000250 2a d6 a2 3c 92 c5 91 bc 9e 61 df 3c 60 24 b4 3b
       0.019877512 -0.017794404 0.027268227 0.0054975003
000260 24 de 30 3b 6f 4f 4b bb 46 35 30 3d d5 80 a5 3c
       0.0026987875 -0.0031022688 0.043019556 0.020203033
000270 e2 2a f7 bc 3a 7d 46 bd 9b 64 fb bc 41 be 6c 3c
       -0.030171815 -0.04845927 -0.03068762 0.014449657
000280 02 5b d6 bb b4 23 a2 bc c8 3c 8a bc be e3 c0 3c
       -0.0065416107 -0.019792415 -0.016874686 0.023546096
000290 6e 20 1b bc 3f 3d 23 3c c5 b9 58 bd ed a1 2a 3b
       -0.009468181 0.009963333 -0.05291154 0.0026036457
0002a0 35 21 cd 3c f5 02 81 bc 90 44 b5 bb 8e 26 61 bb
       0.025040248 -0.01574848 -0.005531855 -0.0034355256
0002b0 bb 16 00 bd 3c f1 8e 3c 2e 44 c9 bc 1d b5 d5 bb
       -0.031271677 0.017449014 -0.024568643 -0.0065218345
0002c0 2d 74 8c 3c 82 8d b0 bc 9e a0 db 3c 3b 71 4b 3b
       0.01714524 -0.021551851 0.026809987 0.0031042832
0002d0 0c c8 29 bd c2 16 5d 3d 1d 17 ff 3b 45 7a fd 3b
       -0.041450545 0.05397678 0.0077847377 0.007735523
0002e0 fa 01 10 3d c2 fc de bc 6b 20 0c bd 8a 8f 33 bd
       0.035158135 -0.027220134 -0.034210604 -0.04383806
0002f0 6b f7 82 bc 4e 1e 9e bb 6d e2 ad bc 0b 47 6a bc
       -0.015987119 -0.00482539 -0.021226132 -0.0142991645
000300 1c d8 ed ba 6b 28 7e 3c 47 4c 74 3d a6 a1 71 3d
       -0.0018146071 0.015512566 0.059643056 0.05899205
000310 7a 76 d7 bc 57 6c 11 bd 83 15 19 bc 3c cd b5 3c
       -0.026301611 -0.03550371 -0.009343508 0.02219259
000320 be dd a6 3b 18 8e ce 3c bb f0 de 3c 4c 6d fa 3b
       0.0050923517 0.02521424 0.027214399 0.0076424237
000330 0a e0 06 bc 02 40 37 3b 1f f8 16 3d a8 2d fb 3d
       -0.008232126 0.0027961736 0.03685772 0.122645676
000340 1d c6 08 bb ef 94 8d 3a 12 17 fd 39 8e 26 7c 3c
       -0.0020870038 0.0010801832 0.0004827311 0.0153900515
000350 d4 31 24 bd 60 c5 25 3d 0b 87 0c 3d ec db 98 3c
       -0.040086582 0.040471435 0.034308475 0.018659554
000360 3f cd f0 bb cf 50 a6 bb 77 71 85 bc a7 75 b0 bc
       -0.007348686 -0.005075551 -0.016289456 -0.021540476
000370 b8 16 f4 3c 68 db 49 3c 74 75 0f bb a4 f8 a9 bb
       0.02979599 0.012320377 -0.0021890076 -0.005187111
000380 55 7c 04 3d 19 4c 1b bd 50 3b cc 3c f4 1f fd 3c
       0.032345135 -0.03791437 0.024930626 0.030899025
000390 75 8a 20 3c 6a b5 08 bd c2 21 59 ba fb 2b a9 bc
       0.009798636 -0.033376135 -0.00082829234 -0.020650854
0003a0 ef 5b 12 bc 00 4a c9 3c 98 55 09 3c 42 8a 5c bc
       -0.0089330515 0.024571419 0.008382224 -0.013460698
0003b0 4e 44 42 bc ce ea 95 3c e8 6f 4d bc 64 50 da 3c
       -0.011857105 0.01830044 -0.012538888 0.026649661
0003c0 af 6d ae bc ad da 0d bd 94 47 e4 bc f8 44 5a 3c
       -0.021292536 -0.034632374 -0.027866162 0.0133221075
0003d0 fc 75 9b 3c 59 bd be bc 17 6f 08 bd ce fb 03 3c
       0.018977158 -0.023283647 -0.03330907 0.00805564
0003e0 d2 b9 88 3c 8a 8d ab 3c d9 a7 f5 bb 04 fc 37 bc
       0.016690169 0.020941515 -0.0074968156 -0.011229519
0003f0 1f b3 97 bc 6f 33 3e 3d a9 12 98 bc 02 4d cc 3a
       -0.018518029 0.04643577 -0.018563585 0.0015586915
