works/letterFromC/weights/CBN_B3_1_dense_1-kernel.npy (npy, 16512 bytes, 1 tensors)

array f4 [32, 128]
-0.30673057 0.04825814 -0.17305483 0.085943334 0.33071387 0.27471152 0.05204183 -0.047100563
0.6308355 -0.021999659 0.24348749 -0.07361244 0.085127465 -0.6114793 0.17428109 0.075465776
0.03134328 -0.10930955 0.033001635 0.19011666 -0.0681468 -0.34343126 0.002789428 0.20943132
0.35764846 0.4323618 -0.3637594 0.17709164 -0.16739796 0.339445 -0.15786648 -0.11962106
-0.2668186 -0.12958549 -0.002232372 0.3440181 -0.024573933 -0.37383848 -0.032748684 0.016355675
0.016117007 0.049770404 0.38238326 -0.25064024 0.19490243 0.01800806 0.025402343 -0.011702304
0.20237598 -0.28373745 0.32284763 0.32149905 -0.07772237 0.29226404 -0.4408725 -0.04315161
0.45989135 -0.076572105 -0.149182 -0.098554 0.29971308 0.005805845 -0.09410515 0.35665682
0.063998654 -0.65545446 -0.1420471 -0.16573478 -0.3391076 0.58849156 -0.08711466 0.5046652
0.10188611 -0.1768876 0.09203188 -0.005497875 -0.044252496 -0.45283717 -0.15380315 0.5322533
0.33547792 -0.019543163 -0.66460305 -0.07518308 -0.41840997 -0.032609396 0.9390001 -0.026321705
0.36894494 -0.27372646 0.0085444525 0.01307347 -0.25923565 -0.107643135 -0.04647357 0.19204898
-0.38071948 -0.46058342 -0.3521808 -0.13733579 -0.22894181 -0.10882474 0.0089070825 0.14735363
-0.1438361 -0.1468233 0.16207437 0.12572797 0.09981679 0.13376713 0.053670555 -0.17502818
-0.68166554 -0.14479561 0.35532266 -0.03071668 0.10604113 -0.13048704 0.037589543 -0.24694268
-0.009006863 0.3871355 -0.0364385 0.55009097 -0.11582968 0.43006787 -0.25023946 -0.4079867
-0.21548858 0.31341076 -0.22630306 -0.111456126 -0.06330285 -0.123638794 -0.03498617 0.18916252
-0.29681095 -0.12916563 0.16754042 -0.25933176 -0.052346952 0.0049902876 -0.034696262 -0.3095332
-0.025683269 -0.21400188 -0.041392814 -0.2344024 -0.31692374 -0.08660083 0.07626718 -0.2136741
-0.372145 0.091502436 0.013090522 0.08675002 0.10396064 0.0073292665 0.16008419 0.1952515
0.021200115 0.2981508 0.03242094 -0.31923762 -0.0026369842 -0.32355273 -0.13956356 0.037060868
0.16754016 0.11430736 0.13441186 -0.045773778 -0.06964154 0.028536763 -0.20702705 0.15216476
-0.19222362 0.18084694 -0.26794165 -0.47946316 0.11875198 -0.11544976 -0.13520968 0.07859113
-0.19261597 0.14371054 0.26223928 0.17261942 -0.5193186 -0.18393943 -0.038756188 -0.3265941
0.24793543 0.16785225 0.081056416 0.09836465 0.023063492 0.08452484 0.11792296 -0.13532996
-0.057707638 -0.2519148 -0.021468483 -0.0044268197 -0.29163608 -0.07823281 -0.20753679 0.0040961923
0.31416816 0.3276555 -0.36261603 0.22060797 0.13534585 -0.5049228 -0.25374997 0.2473805
0.039051127 -0.35133162 0.1549644 0.15589066 0.18999286 -0.09472314 0.10082487 -0.4861281
-0.0026708983 0.44070268 0.073693715 0.18023144 0.26397362 -0.15925342 -0.015790163 -0.35816562
0.13254462 0.008818384 0.002805382 0.01334466 0.35047582 -0.000659358 -0.23514186 0.28255346
-0.07000843 0.19265088 -0.13786913 0.07935984 -0.11518262 0.011234767 0.2859882 0.22619511
0.11144195 -0.05420389 0.31202757 0.25223583 -0.1803006 -0.18936428 0.3461763 0.13470967
00000000: ca0b 9dbe 54aa 453d 4935 31be 0f03 b03d
00000010: 5453 a93e fda6 8c3e d029 553d 85ec 40bd
00000020: 6f7e 213f a138 b4bc c954 793e 1ec2 96bd
00000030: 4f57 ae3d e889 1cbf be76 323e cd8d 9a3d
00000040: d061 003d afdd dfbd b92c 073d f1ad 423e
00000050: 8d90 8bbd 39d6 afbe d6ce 363b 2a75 563e
00000060: b31d b73e 875e dd3e ac3e babe 8357 353e
00000070: 5f6a 2bbe bccb ad3e c0a7 21be e3fb f4bd
00000080: 739c 88be 0fb2 04be fd4c 12bb 2423 b03e
00000090: 464f c9bc c267 bfbe 7c23 06bd 56fc 853c
000000a0: d007 843c 0ddc 4b3d bdc7 c33e eb53 80be
000000b0: 8194 473e a485 933c 9318 d03c 05bb 3fbc
000000c0: a63b 4f3e 0946 91be 494c a53e 869b a43e
000000d0: e82c 9fbd a2a3 953e 0aba e1be bebf 30bd
000000e0: e176 eb3e d6d1 9cbd 2bc3 18be aed6 c9bd
000000f0: fe73 993e f53e be3b 33ba c0bd b99b b63e
00000100: ba11 833d ddcb 27bf cc74 11be 61b6 29be
00000110: 839f adbe 62a7 163f 2c69 b2bd bd31 013f
00000120: aaa9 d03d 0622 35be 367b bc3d 8527 b4bb
00000130: 1b42 35bd 46da e7be 937e 1dbe c141 083f
00000140: c3c3 ab3e fc18 a0bc 6d23 2abf 96f9 99bd
00000150: d539 d6be 6e91 05bd 5062 703f 9ea0 d7bc
00000160: 5ae6 bc3e e025 8cbe 08fe 0b3c 1c32 563c
00000170: 89ba 84be 0174 dcbd 125b 3ebd 7da8 443e
00000180: aaed c2be 97d1 ebbe 0b51 b4be c1a1 0cbe
00000190: b96f 6abe 81df debd 03ef 113c dfe3 163e
000001a0: c549 13be d958 16be d3f6 253e d5be 003e
000001b0: bf6c cc3d 40fa 083e a8d5 5b3d 963a 33be
000001c0: a281 2ebf 4d45 14be daec b53e 8ca1 fbbc
000001d0: 182c d93d 659e 05be 7ef7 193d 8bde 7cbe
000001e0: 8691 13bc a036 c63e 8940 15bd c3d2 0c3f
000001f0: 1c38 edbd db31 dc3e 631f 80be a2e3 d0be
00000200: 0aa9 5cbe 6077 a03e fdbb 67be 1c43 e4bd
00000210: eda4 81bd 5636 fdbd a84d 0fbd d2b3 413e
00000220: 9bf7 97be ff43 04be b78f 2b3e 22c7 84be
00000230: c269 56bd 9185 a33b ab1d 0ebd 237b 9ebe
00000240: b865 d2bc 4f23 5bbe 838b 29bd 2f07 70be
00000250: d443 a2be c75b b1bd f831 9c3d 62cd 5abe
00000260: ca89 bebe a165 bb3d a179 563c ffa9 b13d
00000270: 51e9 d43d 582a f03b 1ced 233e 02f0 473e
00000280: ddab ad3c 39a7 983e d2cb 043d 1d73 a3be
00000290: 41d1 2cbb b4a8 a5be c0e9 0ebe 23cd 173d
000002a0: a68f 2b3e fa19 ea3d 43a3 093e 497d 3bbd
000002b0: 39a0 8ebd eec5 e93c e6fe 53be 14d1 1b3e
000002c0: 45d6 44be f12f 393e a62f 89be 327c f5be
000002d0: 3d34 f33d ec70 ecbd 6874 0abe 63f4 a03d
000002e0: 1f3d 45be db28 133e 3a44 863e 25c3 303e
000002f0: 10f2 04bf 9e5a 3cbe cfbe 1ebd 5837 a7be
00000300: c9e2 7d3e 76e1 2b3e e800 a63d 6873 c93d
00000310: a6ef bc3c 5c1b ad3d 9881 f13d f093 0abe
00000320: d85e 6cbd fafa 80be acde afbc db0e 91bb
00000330: 5351 95be 8638 a0bd 8684 54be 5a39 863b
00000340: a6da a03e 76c2 a73e cfa8 b9be 0ee7 613e
00000350: 1a98 0a3e 9f42 01bf 84eb 81be 5051 7d3e
00000360: 13f4 1f3d bde1 b3be fdae 1e3e cda1 1f3e
00000370: 7d8d 423e 35fe c1bd 457d ce3d c8e5 f8be
00000380: 3d0a 2fbb c8a3 e13e bbec 963d 978e 383e
00000390: 8d27 873e 5413 23be 5f5a 81bc 7c61 b7be
000003a0: c7b9 073e fc7a 103c 80da 373b 90a3 5a3c
000003b0: 9171 b33e c4d8 2cba 07c9 70be d9aa 903e
000003c0: 9460 8fbd 4646 453e 912d 0dbe 6987 a23d
000003d0: dee4 ebbd 0712 383c 0c6d 923e b19f 673e
000003e0: ad3b e43d e604 5ebd 14c2 9f3e 0e25 813e
000003f0: b8a0 38be b6e8 41be 053e b13e 55f1 093e
