works/letterfromc/weights/CBN_B2_1_batchNormalization-moving_mean.npy (npy, 1152 bytes, 1 tensors)

array f4 [256]
00000000: 20b7 35c0 1cc2 3740 6fe0 da3d 99d7 91c0
00000010: d764 de3f cda2 9e3d cd60 a2c0 84b2 343f
00000020: e725 9ec0 22eb 80bf 8d7a 22c0 10e4 a7bf
00000030: b5f4 0140 0648 4ec0 84c3 8f3e cbe7 99bf
00000040: 4d4e 793f 4ae3 40c0 5205 8240 2c8e a5bf
00000050: f8e7 1140 140d a7be e23d f63e 080b 9040
00000060: 9f57 14c0 f6f4 bc3f e23d 2440 c6b1 4640
00000070: 4c60 ca3f d82a 80bf adf6 603f 4f7e 9140
00000080: b3d4 8bbf e656 82be 13b2 1dbf d7eb b83f
00000090: 63f1 823f 1e60 28bf 4bfd 8dbf b3b2 b23f
000000a0: 0d70 58bf 651d efbf a876 8140 be16 5a40
000000b0: b576 2dc0 8a7e c03e e01d 0bc0 8d7c e63f
000000c0: 10f2 85c0 329c 54bf 14a7 c5bf 9a8f 7e3f
000000d0: 7204 1dc0 080c 65be c56a 03c0 bb85 9b40
000000e0: 9774 23c0 a818 f1bf b62e 48bf d32e 353e
000000f0: 204c 083f 3c78 b73f 13c1 24c0 d402 2240
00000100: 5d87 0d40 7124 353f c9d0 eebd e406 f4bf
00000110: 4a08 a83a 54d6 3240 0ff5 af3f 8e07 1040
00000120: 6fc8 79c0 ad40 ba3f 5b82 363f ae3b 0f3f
00000130: 9e79 0240 118e 5740 c2b6 bc3a c54b cb3f
00000140: 655b 873f f46a ce3e 4ac8 08bf a8a6 afbf
00000150: db52 403e 3ae4 90c0 a8f5 1740 d7a8 c5bf
00000160: 2e05 0f3e 56ca c9bf 0b78 16bd a0d7 a7be
00000170: 47c2 24c0 8127 7d3c d5f3 643f 69a2 2dbe
00000180: 759b 15bf 9084 9d3f b9f4 d1bf c048 653d
00000190: 880a fc3f d8ee cdbf daaf e4bf 1c7d 9e3f
000001a0: cf18 12bf d5b4 6240 adc3 a43f b22d 42bf
000001b0: 77e6 bdbf 471c b8be f052 d2bf 21df 893f
000001c0: d1ef cf3f b28c 1d40 08ab 97bf a16d 8b3f
000001d0: 1a00 2fbf cf54 ddbf 95fa 82be 0c8a 3540
000001e0: 4d84 ce3e f9f6 ca3f cb8a 7fbf 0700 00c0
000001f0: b4be 123e b936 a7be 1524 dfbf 986e 80bf
00000200: f9b0 20c0 cbf1 533f 2758 4e3d a83e d83e
00000210: 7022 193f bc2b 8440 48ea c43f fdf5 2f40
00000220: 72ca c7bf a923 3340 4c94 31c0 a217 ad3f
00000230: 890f 3740 e650 0fc0 7a4b 353f 2c1e e03f
00000240: 52bc 94be adcf d7bf 54e9 35bf 2a47 f2bf
00000250: f1c1 2040 185a eabd 442d a43f 74c8 15c0
00000260: fe6f a13d 0d1b 91c0 2676 a8bf 9b7d b840
00000270: e91a 4c3c 7178 1ec0 f959 203f 7781 0fc0
00000280: d13f b63f 480c a8bf ce9b 2ebf 855f 10be
00000290: 6d19 ebbf 451f 29c0 fea3 383f bd39 983f
000002a0: 96d0 49c0 fde4 b2c0 0c2a d7be 6800 aebf
000002b0: 6143 7540 a48f c3bf df15 d83f 645e b53f
000002c0: 0145 1bbf 60bc eb3f 26c2 2c3f e506 9740
000002d0: f397 f8bf 2563 2ac0 8579 95bf 43b2 1540
000002e0: 103f c8bf dc78 b93f 8bd4 1b3f 7801 8c3f
000002f0: cd59 13c0 590b e43f 2baf e9be 3cf3 923f
00000300: d3e9 cf3e 4ff4 b93f fce2 2540 8e19 82bf
00000310: 796b c2bf 35e7 ebbd 4ac1 0b40 7352 1f3f
00000320: a0f6 a4bf 0673 94bf 5357 51bf 1fcb 40c0
00000330: 573a b2bf ea79 8abf 3587 6240 9d42 bbbf
00000340: 09c5 11c0 cdf7 6c3e 45f2 83bf 3b9a 47c0
00000350: ecde b43f e248 883f 4acd b1bf 906d 173d
00000360: 2fe2 1a3f e422 fdbf fae0 963f 5a44 3cbf
00000370: 701f 60c0 200b f5bf 67e2 8ebf 55cf 88bf
00000380: a074 0ac0 b3d0 a53f 7caa 8cbf 00eb 6140
00000390: 2bfa cc3e 2881 7bbf 505b d7c0 0aab 89be
000003a0: 6b5d 0ec0 0c04 333d 6b6e cb3f 4622 19bf
000003b0: 3e9d 95bf 84e6 9ebf 9489 91c0 8fa4 3940
000003c0: 3d4a 513f 2b18 a63f c5a7 df3f dbdc 053f
000003d0: d14a cfbe cdb5 4cc0 7a0e 0840 c7b3 7abf
000003e0: 9f97 0d3f 541f ebbf e821 b03f dfe2 693f
000003f0: caa0 f2bf c378 10c0 586b c5be cedc a13e
-2.839302 2.8712225 0.106873386 -4.557568 1.7374524 0.077458955 -5.0743165 0.70584893
-4.9421268 -1.0071757 -2.53873 -1.3116474 2.0305607 -3.223146 0.28078854 -1.2023863
0.973851 -3.0138726 4.0631495 -1.2934012 2.2797832 -0.32627165 0.48094088 4.5013466
-2.317848 1.4762256 2.566277 3.1046004 1.5810637 -1.0013075 0.878764 4.5466685
-1.0924286 -0.25456923 -0.61599845 1.4446973 1.0229915 -0.65771663 -1.1092924 1.3960785
-0.84545976 -1.8680845 4.0457344 3.407638 -2.7103703 0.37596542 -2.1736984 1.800676
-4.1857986 -0.83050835 -1.5441613 0.9943787 -2.4533963 -0.22367871 -2.0533917 4.8600745
-2.553991 -1.883565 -0.78196275 0.17693643 0.5324116 1.4333568 -2.5742843 2.5314226
2.211387 0.7075873 -0.11660916 -1.9064603 0.0012819853 2.7943316 1.3746661 2.250461
-3.9028585 1.4550987 0.71292657 0.5595044 2.038673 3.368046 0.0014397728 1.5882498
1.0574766 0.40315974 -0.53430617 -1.3722734 0.18781607 -4.5278597 2.3743687 -1.5442151
0.1396682 -1.5764873 -0.036735576 -0.32781696 -2.5743577 0.015451313 0.8943456 -0.16956486
-0.58440334 1.230608 -1.6402808 0.055977583 1.9690714 -1.6088514 -1.7866166 1.238193
-0.57069105 3.542287 1.2872216 -0.75850976 -1.4835957 -0.35959074 -1.643156 1.0771219
1.6245061 2.4617124 -1.184907 1.0892831 -0.6835953 -1.7291507 -0.25581804 2.8365507
0.40335312 1.585662 -0.99821156 -2.0000017 0.1433056 -0.32658938 -1.7432886 -1.003375
-2.5108016 0.8279082 0.050377037 0.42235303 0.5981817 4.1303387 1.5383997 2.749389
-1.5608656 2.7990515 -2.7746763 1.3522837 2.8603232 -2.2393126 0.70818293 1.7509208
-0.29049927 -1.6860253 -0.71059155 -1.8927968 2.5118372 -0.11442965 1.2826314 -2.3403597
0.07882689 -4.534552 -1.3161056 5.7653327 0.012457588 -2.4761012 0.6263729 -2.242277
1.4238225 -1.3128748 -0.6820649 -0.14098938 -1.8367134 -2.6425335 0.7212523 1.189262
-3.153356 -5.5904527 -0.42024267 -1.3593874 3.8322375 -1.5278211 1.6881675 1.4169431
-0.60652167 1.8416862 0.67483747 4.7195916 -1.9421371 -2.6623013 -1.167771 2.3390052
-1.5644245 1.4490008 0.6087119 1.0937948 -2.302356 1.7815963 -0.45641455 1.1480479
0.4060808 1.4527682 2.591979 -1.0164049 -1.5189048 -0.115187086 2.1836724 0.6223518
-1.2887764 -1.1597602 -0.8177387 -3.0123975 -1.3924054 -1.0818455 3.5395024 -1.4629704
-2.277651 0.23141403 -1.030831 -3.1187885 1.413053 1.0647242 -1.3890774 0.03696972
0.6050138 -1.9776273 1.1787407 -0.73541796 -3.5019188 -1.914402 -1.1162843 -1.0688273
-2.1633682 1.2954315 -1.0989528 3.5299683 0.40034613 -0.9824395 -6.7298965 -0.26888305
-2.2244518 0.04370503 1.5893072 -0.5981792 -1.1688612 -1.2414098 -4.548044 2.9006689
0.81753904 1.2976125 1.7473074 0.52290124 -0.40486768 -3.1985962 2.1258836 -0.9793057
0.5530948 -1.8368936 1.3760347 0.913618 -1.8955319 -2.2573707 -0.3855846 0.31613773
