works/letterfromc/weights/CBN_B3_2_dense_1-kernel.npy (npy, 8320 bytes, 1 tensors)

array f4 [32, 64]
0.51263404 0.19556063 0.0031223337 0.53918 0.37197116 -0.20571259 0.39010507 0.016892742
0.26467717 0.5473672 0.20337372 0.024363477 -0.26076302 0.02690341 -0.33846626 0.46681312
-0.31337497 -0.4598428 -0.18287121 0.6987404 0.06450029 0.38449255 0.6606272 -0.19916014
0.097601615 0.11104717 0.22021444 0.0061664484 0.3746257 -0.3338393 -0.10997112 0.79252803
0.486741 0.08972117 -0.27024817 0.11240087 0.13611093 0.27367702 0.67181367 -0.008717838
0.13913366 -0.19658232 -0.10638307 -0.1174712 -0.012250776 -0.07011972 -0.4694942 -0.2640128
0.5705894 -0.0014974164 0.16294956 -0.19494371 -0.24033676 -0.16547792 0.28565487 -0.2554395
0.016954038 0.6431282 -0.32247904 -0.11338615 0.15536913 -0.39429426 0.30764169 -0.44977286
-0.46090344 -0.50531554 -0.10450185 0.35343048 0.5993407 0.38313687 -0.07846051 -0.1906144
0.04665089 -0.11324193 0.09731171 0.49263832 -0.73663414 -0.6571324 -0.08179905 -0.013077895
0.6308044 0.16133171 -0.0923449 -0.05125283 -1.0753161 0.141794 -0.16345589 -0.11358485
-0.33448607 -0.28427935 0.24357016 -0.36690956 -0.47465974 -0.1348003 0.31553796 -0.27741706
-0.02910451 -0.4478252 0.10070111 -0.22859846 -0.22416414 -0.00863896 0.102462746 -0.68286496
-0.17344435 0.27147815 0.19251996 -0.009741606 0.2232766 0.09271675 0.14886644 -0.28603697
0.2113436 0.07650794 -0.6313957 0.19004467 0.087767564 0.24738759 -0.4618521 -0.011432837
0.424285 0.18250892 -0.23125091 0.029036447 -0.7550651 0.28714734 0.1864472 -0.009137806
0.041823883 -0.18349835 0.034304526 0.19619122 0.012642944 0.08491496 0.55126095 0.09576535
-0.106536165 -0.51765573 0.37082678 0.30521342 0.33265167 -0.046591245 0.12474134 -0.41430157
0.80907845 -0.5140915 -0.97502613 0.3125614 -0.5876292 0.02361441 0.15886173 -0.37973177
0.37021515 -0.005514742 0.6993712 0.1334818 -1.1416436 -0.29378507 0.51137716 0.10437788
-0.2517256 -0.5241811 -0.105058946 0.19375016 0.11948452 -0.0711768 -0.1826227 -0.21949676
-0.2721722 0.70416725 0.6418887 0.18160765 0.10000087 0.7760053 0.121793576 -0.09844425
0.8299033 -0.08389649 0.10503453 -0.18610264 0.17553857 0.43078715 -0.34105474 -0.25581834
-0.09428826 0.4084032 -0.5202218 0.08120257 0.13055417 0.5032987 -0.042623375 -0.071279906
-0.09123061 0.13077684 0.02481233 0.0030925423 -0.18396354 0.0926961 -0.09219871 0.18845193
0.35269928 0.4801609 0.06329714 0.23497573 0.0117928935 -0.029511169 0.0029856868 0.8382248
-0.19346115 0.20245405 0.27122864 0.43008685 -0.29084417 0.32833603 0.51179504 0.24903232
-0.08905766 -0.39050713 0.40261102 -0.5207969 0.45143747 -0.30130172 0.36624202 0.7070358
-0.16623123 0.07234439 -0.5399966 -0.24855922 0.06334254 1.173859 0.9098834 -0.32559335
0.81517994 -0.8247592 -0.6635837 0.17116432 0.09666121 -0.6467638 -0.22919708 -0.33341473
0.12561765 -0.08886622 0.27406004 -0.28148273 -0.29046732 -0.324172 0.37368366 -0.48273593
-0.0504722 -0.057671078 -0.15652062 -0.44839934 -0.39389163 -0.17964768 -0.054097798 -0.25389245
00000000: fc3b 033f 0c41 483e 11a0 4c3b b307 0a3f
00000010: 0173 be3e 52a6 52be dabb c73e a662 8a3c
00000020: c483 873e 4220 0c3f 3341 503e ea95 c73c
00000030: bb82 85be 8a64 dc3c 734b adbe 2102 ef3e
00000040: af72 a0be 8470 ebbe 9742 3bbe a7e0 323f
00000050: ba18 843d 35dc c43e dd1e 293f a3f0 4bbe
00000060: 5be3 c73d b36c e33d e57f 613e eb0f ca3b
00000070: f1ce bf3e fcec aabe 8a38 e1bd 1ee3 4a3f
00000080: 1e36 f93e bcbf b73d f85d 8abe 6d32 e63d
00000090: aa60 0b3e 651f 8c3e fbfb 2b3f 43d5 0ebc
000000a0: 0e79 0e3e e04c 49be 5edf d9bd be94 f0bd
000000b0: 7bb7 48bc ee9a 8fbd 8b61 f0be b02c 87be
000000c0: 2612 123f f544 c4ba 40dc 263e 539f 47be
000000d0: d71a 76be 0b73 29be 5b41 923e f7c8 82be
000000e0: 32e3 8a3c 0da4 243f f91b a5be ff36 e8bd
000000f0: 1619 1f3e f0e0 c9be 3683 9d3e a148 e6be
00000100: 89fb ebbe 5c5c 01bf 1105 d6bd d7f4 b43e
00000110: 646e 193f 842a c43e e7af a0bd 6c30 43be
00000120: 0115 3f3d 63eb e7bd 5d4b c73d 173b fc3e
00000130: 0e94 3cbf d439 28bf 4386 a7bd ab44 56bc
00000140: 667c 213f 2434 253e 531f bdbd 7dee 51bd
00000150: f5a3 89bf 7232 113e fb60 27be 2d9f e8bd
00000160: c241 abbe 108d 91be 756a 793e 92db bbbe
00000170: 9a06 f3be 1709 0abe 318e a13e 9c09 8ebe
00000180: 956c eebc 5849 e5be 623c ce3d b715 6abe
00000190: 498b 65be 6d8a 0dbc fdd7 d13d 3dd0 2ebf
000001a0: 659b 31be 2fff 8a3e f423 453e 429b 1fbc
000001b0: 9fa2 643e 48e2 bd3d 7270 183e 7073 92be
000001c0: 756a 583e 32b0 9c3d 26a3 21bf 129b 423e
000001d0: 7bbf b33d 2c53 7d3e e177 ecbe cb50 3bbc
000001e0: e23b d93e 9ee3 3a3e 0acd 6cbe d8dd ed3c
000001f0: f24b 41bf fa04 933e 04ec 3e3e bcb6 15bc
00000200: 854f 2b3d fee6 3bbe e782 0c3d 5ae6 483e
00000210: 5a24 4f3c e5e7 ad3d 701f 0d3f a020 c43d
00000220: a22f dabd 1685 04bf 02dd bd3e ef44 9c3e
00000230: 5251 aa3e 76d6 3ebd 6378 ff3d 561f d4be
00000240: c41f 4f3f 809b 03bf 509b 79bf 0c08 a03e
00000250: de6e 16bf 0273 c13c a6ac 223e 346c c2be
00000260: d78c bd3e 02b5 b4bb fe09 333f 74af 083e
00000270: 6121 92bf ff6a 96be 9de9 023f 12c4 d53d
00000280: 2ee2 80be bc30 06bf 2529 d7bd 7166 463e
00000290: 4db4 f43d 24c5 91bd 7201 3bbe c2c3 60be
000002a0: 285a 8bbe 4e44 343f d152 243f 5bf7 393e
000002b0: 42cd cc3d 49a8 463f e96e f93d 249d c9bd
000002c0: 8b74 543f ecd1 abbd 581c d73d b191 3ebe
000002d0: 62c0 333e 2290 dc3e ba9e aebe 9ffa 82be
000002e0: 341a c1bd 391a d13e 422d 05bf 884d a63d
000002f0: feaf 053e 2fd8 003f d995 2ebd 33fb 91bd
00000300: 1dd7 babd 5dea 053e 3a43 cb3c 40ac 4a3b
00000310: f060 3cbe 74d7 bd3d add2 bcbd 8bf9 403e
00000320: 0095 b43e a6d7 f53e eea1 813d 7a9d 703e
00000330: fb36 413c 68c1 f1bc 83ab 433b e795 563f
00000340: ae1a 46be 1d50 4f3e 7bde 8a3e 5834 dc3e
00000350: 87e9 94be a91b a83e 0005 033f 5402 7f3e
00000360: dd63 b6bd 8df0 c7be 0823 ce3e f252 05bf
00000370: d022 e73e 3844 9abe 1384 bb3e 4c00 353f
00000380: 8538 2abe 4c29 943d 383d 0abf 4f86 7ebe
00000390: bcb9 813d 0341 963f 1eee 683f 2cb4 a6be
000003a0: a2af 503f 6b23 53bf 9fe0 29bf b345 2f3e
000003b0: 50f6 c53d 5092 25bf a4b2 6abe 56b5 aabe
000003c0: eaa1 003e 7eff b5bd 9951 8c3e 811e 90be
000003d0: 22b8 94be dff9 a5be 7753 bf3e 2a29 f7be
000003e0: f0bb 4ebd 8238 6cbd f146 20be 9994 e5be
000003f0: 2aac c9be 90f5 37be a795 5dbd 31fe 81be
