works/letterFromC/weights/CBN_B1_1_dense_1-kernel.npy (npy, 65664 bytes, 1 tensors)

array f4 [32, 512]
000000 50 b2 ec bd ed 88 7b 3d a0 dd 4f bc 1d f5 89 3e
       -0.11557448 0.06140988 -0.012687117 0.2694482
000010 07 58 84 be 54 fc a3 3e 51 d3 e4 be ca 1b b3 be
       -0.2584841 0.3202845 -0.44692472 -0.3498214
000020 18 ce 84 be 24 27 1b 3e f3 34 6f be 7c d0 c4 be
       -0.25938487 0.1515165 -0.23360042 -0.3844031
000030 ff 2d 34 3d 3b 43 db bd 9f 23 46 3e aa db da 3e
       0.043989178 -0.107061826 0.19349526 0.42745715
000040 14 dc 84 be 0a ee 07 3e c4 15 b2 be fc 89 ef bd
       -0.25949156 0.13274398 -0.3478223 -0.1169624
000050 07 e9 bb bd d0 89 05 3f aa 26 60 be 59 a1 80 be
       -0.09175306 0.5216341 -0.21889749 -0.25123098
000060 e5 77 a0 be 42 bf 22 bd b4 d2 cd be c8 93 61 3e
       -0.31341472 -0.03973318 -0.40199816 0.2202903
000070 83 be 09 3e f8 f2 90 be 2e 34 7b 3b 55 a6 56 3e
       0.1345158 -0.2831037 0.0038330662 0.20961888
000080 65 ae d4 3e 93 ba 9e be 6f ee 84 3e e0 20 80 3e
       0.41539302 -0.3100172 0.2596316 0.25025082
000090 4c 5b 28 3e 0d 9e 2e be 06 58 91 3e 29 e7 91 3d
       0.16441077 -0.17052479 0.2838747 0.071241684
0000a0 eb ed 9a 3e ed 0e 9a 3d 93 f9 9e 3e e3 91 87 3d
       0.30259642 0.07522378 0.31049785 0.066196226
0000b0 45 17 69 bd 24 06 44 be 57 29 33 3e d1 a3 b3 3e
       -0.056906957 -0.19142967 0.17496239 0.3508592
0000c0 ff 3d d3 be 6d 08 82 3e a9 16 04 be 38 7e b4 ba
       -0.41258237 0.25397053 -0.12899269 -0.0013770526
0000d0 01 39 cf 3e cd b9 b7 bd fb 17 89 bd 30 cb a6 bd
       0.40473178 -0.089709856 -0.06694027 -0.08144224
0000e0 65 5f 32 be db 92 8c bd 26 02 32 3d eb 2a 3d 3d
       -0.17419203 -0.06863948 0.04345908 0.046183508
0000f0 47 8a 85 bd dd b9 0a be c4 4c 57 bc 78 e7 a1 bd
       -0.06520515 -0.13547464 -0.013140861 -0.07905477
000100 97 f4 78 bb 59 fe 01 3f 98 00 a8 3d af 06 94 3e
       -0.0037987584 0.5077873 0.08203238 0.2891135
000110 03 90 a2 3d f7 95 1b 3e f7 a5 73 3b 22 16 ed 3d
       0.07937624 0.15193926 0.003717778 0.11576487
000120 27 3c 97 be 58 d0 b7 3d 15 00 6b be 90 63 52 3e
       -0.2953808 0.08975285 -0.2294925 0.20545793
000130 65 b2 bf 3e eb cd 96 bd ee c1 3e be 39 9b 89 be
       0.37440792 -0.073634945 -0.18628666 -0.26876238
000140 f1 ba b7 be 5c c2 6e be 45 57 23 be c8 28 56 3e
       -0.35884812 -0.2331633 -0.1595126 0.20913994
000150 7c 9e a6 3e 4b 32 4f be 3e ab 97 3e e2 89 8d 3e
       0.3254279 -0.20234029 0.29622835 0.2764426
000160 6a 28 52 bd 03 a0 3e be 11 4d 99 3e 03 ba d8 bd
       -0.051308073 -0.18615727 0.2994161 -0.10582354
000170 26 2e 43 3e 4b a1 91 3e aa 90 97 be 1c 49 04 be
       0.19060573 0.2844337 -0.29602557 -0.12918514
000180 e5 25 2b be 56 c7 8f bd d7 19 ca 3e 91 12 13 be
       -0.16713674 -0.07020442 0.3947284 -0.14362551
000190 fb a5 b1 bc db b5 0e 3d 0f c2 cc be e2 80 84 3e
       -0.021685591 0.0348414 -0.39991805 0.2587958
0001a0 00 40 03 be fe cf a9 3e 3d 9e 39 be ca 3d 49 be
       -0.12817383 0.33166498 -0.1812677 -0.19652477
0001b0 6d d6 f8 bd 7e b3 dd be e5 d4 c6 3e b5 cc 28 be
       -0.121502735 -0.43301004 0.388343 -0.1648434
0001c0 53 87 56 3e a5 33 da 3e f3 1a b0 3e a7 b5 77 3e
       0.2095006 0.42617527 0.3439556 0.24190389
0001d0 e4 55 5b bd b9 0a c2 3b 4b 30 6c 3e 43 c2 08 bc
       -0.05354871 0.0059216884 0.23065297 -0.008347097
0001e0 70 de 19 3e c1 16 95 3e e5 8f 4c be 77 12 c9 3d
       0.1502626 0.29118922 -0.19976766 0.09817975
0001f0 d5 71 66 bd 18 8d 0b 3d b5 10 bc be 76 62 12 be
       -0.056260902 0.034070104 -0.36731496 -0.14295372
000200 4a 0c eb bd d3 dd 04 3e 30 aa bf 3d 36 bf 0d 3e
       -0.11476953 0.12975244 0.093586326 0.13842472
000210 7d 56 d6 3e 0e 19 8b 3e c0 b6 41 be 82 88 ad 3e
       0.4186286 0.27167553 -0.1891737 0.3389321
000220 d3 27 b0 3e 9d 89 93 bd 85 2c 41 3e 6c 4d 55 be
       0.34405383 -0.07203982 0.18864639 -0.20830315
000230 7c bb ca be b7 56 40 3e e8 86 c6 be 43 d7 78 be
       -0.39596164 0.18783079 -0.387748 -0.24300866
000240 4b b0 61 be 08 f3 6e bd 0c 1f 85 be 64 32 97 be
       -0.22039907 -0.05833724 -0.2600025 -0.29530632
000250 fa aa 8b 3e 9a 15 c1 bd 48 9c 1a 3d 9c 75 05 be
       0.27278882 -0.09427948 0.037746698 -0.13033146
000260 f4 b4 75 be c6 14 8d be 05 ac eb bc 55 fe b4 3e
       -0.2399481 -0.2755491 -0.028768549 0.3535029
000270 91 7e a6 bc 76 8a 2b 3e 74 63 f2 3d b7 a3 db 3d
       -0.020324023 0.16752037 0.118353754 0.107245855
000280 e0 d2 c3 be 32 97 43 be d0 49 05 be 05 a3 9d 3e
       -0.38246822 -0.19100645 -0.13016438 0.30788437
000290 07 e1 97 3e 1a 04 46 be 22 89 b3 3b b2 a5 c8 3e
       0.2966387 -0.19337502 0.005478994 0.39188915
0002a0 59 bd 0c bd 74 3c 94 3d d2 e9 34 be 41 18 55 3d
       -0.034360263 0.07238093 -0.1766732 0.052025083
0002b0 30 b5 ff bd 1c 1d 27 3e a9 f2 dc 3d ee 95 0a 3e
       -0.12485731 0.16319698 0.10788471 0.13533756
0002c0 4a 77 f9 bc d7 f8 8c 3e 32 91 8a 3d ff 94 d1 3c
       -0.03045239 0.275336 0.06765975 0.025583742
0002d0 0d 62 bc be 4b 4a 1d bd d1 1f 40 3c c8 b1 96 3e
       -0.36793557 -0.03840093 0.011726336 0.2943251
0002e0 50 5e 92 bd a2 8e f3 3d 23 aa 82 be 24 76 88 be
       -0.07146895 0.118924394 -0.2552043 -0.26652634
0002f0 64 a5 d0 be c6 73 3c 3e bb 8a af 3e b8 52 3c bd
       -0.40751183 0.18403539 0.3428553 -0.045977324
000300 96 70 e5 bc 96 62 b3 be 11 6c dd 3e 48 77 83 3d
       -0.028007787 -0.35036153 0.4324651 0.064192355
000310 e8 d3 8b be 4d 5e 4d 3e 0c 8c 00 3e d9 27 52 be
       -0.2731011 0.20055504 0.12553424 -0.20523013
000320 43 a4 00 3e c7 c0 d0 3e 3a 8b e6 bc fa 5f dc be
       0.12562661 0.40772077 -0.02814256 -0.43041974
000330 41 9e 16 3d d6 5f 5e 3d 7d 4a 6f bc 39 40 65 bd
       0.036772016 0.054290615 -0.014605162 -0.05596945
000340 64 f3 5a be 89 b1 33 3e 89 d4 17 be cd ac b5 be
       -0.21381909 0.17548193 -0.1482717 -0.354834
000350 74 91 6d 3e f7 e6 2c 3d f0 f1 4c 3e 1d 08 f9 3d
       0.23200017 0.042212453 0.20014167 0.121597506
000360 d9 2d 8d be d3 56 8a be 5f d3 d8 bd ff 2b 00 be
       -0.2757404 -0.27019367 -0.10587191 -0.12516783
000370 05 dc 24 3e 1e b1 2a 3e 97 e6 ab 3e 41 8e b8 3e
       0.16099556 0.16669127 0.33574364 0.3604603
000380 e2 04 a9 be 1c fd 1c be 0d a3 8b be 5d 31 fc 3d
       -0.33011538 -0.15330929 -0.27272835 0.12314103
000390 3e 75 75 3e 13 e4 e1 be 65 91 e5 bd 4a a1 96 be
       0.23970506 -0.4411932 -0.112093724 -0.2941993
0003a0 65 4e b9 3e 3c 8b 7d 3d ee fd 37 be 4d 74 61 be
       0.36192623 0.061900362 -0.1796796 -0.22017021
0003b0 58 c7 49 be de 0a 97 3d c0 72 b1 3e 45 25 a9 3d
       -0.1970495 0.073751196 0.3465786 0.08259062
0003c0 48 aa c0 be ef 62 a8 be b9 1c d4 3d 6e b5 ab 3d
       -0.37629914 -0.3288798 0.10357041 0.08384214
0003d0 52 94 19 be 39 e1 82 3e 12 5a 63 be c3 19 04 3d
       -0.14997986 0.25562456 -0.22202328 0.03225113
0003e0 70 01 e1 be b8 e1 88 be 50 1e 5a be ac 74 6d be
       -0.4394641 -0.2673471 -0.21300626 -0.23189038
0003f0 3a 7c 9e be c8 9f 81 3e 1d 43 8a be c6 5d a6 be
       -0.30954152 0.25317216 -0.27004328 -0.32493418
