works/letterFromC/weights/CBN_B3_2_dense_2-kernel.npy (npy, 8320 bytes, 1 tensors)

array f4 [32, 64]
00000000: de8b 353e 813b 943d 143d 3ebd 119a cd3c
00000010: 4a9b 0ebc 467a a93c 4e68 283c df69 93bc
00000020: 99ac 8a3d 8bca 643c a45d 0cbe 61d3 fbbb
00000030: 6690 d23c e582 fcbb 65f8 53bd 3675 7a3e
00000040: 4fe5 08bd 52d6 793b 1897 b13d 0cd7 233e
00000050: 39f8 c9b9 b147 42be c84b 33be 90c9 21bc
00000060: 5a47 0dbd d066 2bbd a636 8c3d c424 943b
00000070: 8312 bbbc 8b0e ae3c 8f75 233c 3fd6 1abe
00000080: 120f 66bc 8735 cbbc f0c9 d7bc 1364 29bd
00000090: 8366 87bd 0c57 bb3b 6b14 b6bc 533d 753b
000000a0: 7122 dcbc 3a42 143c 6cf0 233c 00ca 8a3d
000000b0: 1dda 3abc 602d 1bbd 176c 05be 2062 a3bd
000000c0: 6847 353d db5c 54bc a7b0 04bc 1a78 323d
000000d0: 27e2 ffbd 7195 ab3b b518 0c3a 6362 3b3d
000000e0: bc3f 0ebc e28c 413c dc0e e3bd 4f11 4fbc
000000f0: b82d e7bc 9209 893d de81 433e 287a ee3c
00000100: f33f f6bd 63df 36be 95f3 ab3c 00da 963c
00000110: 0a25 5a3b ae6a 4a3b 8004 643a 7889 1dbd
00000120: e91a ce3c a275 b63b 5d1f 2abd cb83 08be
00000130: 963a 703d a96e 473d bb1a cfbc 7608 a0bc
00000140: 8fa3 b93d ef7f 01bd 25f0 413d c0c6 a6bc
00000150: 22ef 7abe 8d24 94bd 050f 863d 8e75 ea3c
00000160: 261a 113e b982 3d3d fc64 5f3d ec14 ca3d
00000170: f0af 843d c955 953c 7930 fabc c262 133d
00000180: fe6c 743c a6e3 2bba ad51 743c 57ac d03c
00000190: 1464 c23d e2f8 d43c 7a2d 07bc 7294 c53b
000001a0: d627 9a3a c0fe 72bb 995b 38bb aa49 0bbc
000001b0: 320a 1e3d 8389 4cbc 56a1 ec3c bdfc 39bd
000001c0: 4e2c 3a3c 98b7 a2bc 5866 d63c f8e8 963a
000001d0: 55b6 473d bd00 33ba 5306 41bd 91fd b9bb
000001e0: 8f8b dbbc e286 9d3c a1cd cbbd bed5 33bc
000001f0: d02c 8f3d ece1 8cbd 5425 df3d 14b4 69bc
00000200: a68a d53a 98a2 6bbd 3669 95bc a44f 643a
00000210: bc42 b33b 29b7 853c c477 a3bb da66 bf3c
00000220: 9f17 17bd 36ae e1bc 2f88 5abe 363e 93bd
00000230: bc4c 29bd 6122 8fba 21fb 853c b527 68be
00000240: 66c1 063e f128 923c d5e9 183f 50c6 783d
00000250: 3cf4 14be 2805 32bc e57b 19bd ce86 983d
00000260: 1515 36be 9e00 eeb9 f212 303e 3a50 c2bc
00000270: 83fe ba3d 775a 34bc d309 ebbc ec35 30bc
00000280: 11f6 c53b 8fc8 153d e211 9bbc 51ad 95bc
00000290: 7f50 0cbd 1a2e 2e3a 9877 11bc 630a 1dbc
000002a0: cf0b 363c f233 3ebb 5c8c 09bd b6dc 9abd
000002b0: 1aaf 673c bff8 813d 5b3a 063a 9742 94bd
000002c0: 4aba 723d 5463 3abc 78b7 1bbc f7ca e1bb
000002d0: 86e2 863d 1b0a 0dbd 64dd fdbc df08 c83d
000002e0: b166 5fbb ba4e 50bb 16ef 3bbe f98e 50bc
000002f0: 520a 94bb ff60 e5bd 2848 2dbd e817 c1bb
00000300: c744 11bc 564b 023d ea0f af3b e2d8 23bc
00000310: feff 9aba bb2a 3dbc 6a35 0abb 16cc 863d
00000320: fb93 8e3d 423e 393d a0ff 41bd 8f4b 2fbd
00000330: 0f0e deb8 193b 81bc 6e2c 42bc c91d e13e
00000340: 3dd0 41bd 4b3b cbbc 18b3 14be f737 8a3d
00000350: 4383 45bd 1c25 1ebe cabd dfbd c42c 25bd
00000360: 926c 023d 3825 833c 99aa d13d 8a48 0d3e
00000370: 69ed 3ebd a96b 8dbc e866 67bc 2a76 0dbe
00000380: 81e1 d33c e2e6 c63b ba42 dbbc c915 df3c
00000390: cd73 d8bc 3216 293d f149 a33c ef5b 6a3c
000003a0: 53eb 6cbd e92b 263d 8462 e23c c028 bdbd
000003b0: 6583 1bbc 7146 33bd c6f1 0bbd d0f2 c9bd
000003c0: 5ce7 eabb 6ff5 9e3c 5e30 913b aa49 d83c
000003d0: 0cc3 fdbd 1875 953c 0fbb 593d c27d cf3d
000003e0: a8ca e1bb 92ed d537 58b0 77bd c2ce 303d
000003f0: 5a81 343d d3d3 da3c 1167 1fbd 31e3 ea3c
0.17729136 0.07237912 -0.046444967 0.025097879 -0.008704016 0.020688187 0.010278774 -0.01799482
0.06771202 0.013964306 -0.13707596 -0.0076851104 0.02570362 -0.0077060335 -0.05175056 0.24458775
-0.03342181 0.003812213 0.08671397 0.16000003 -0.00038522648 -0.1897266 -0.17509377 -0.009874716
-0.034491874 -0.041846097 0.06846361 0.0045209844 -0.022835976 0.021247169 0.009976759 -0.15120791
-0.014041679 -0.024805797 -0.026341408 -0.041355204 -0.066113494 0.005717164 -0.022226533 0.0037420585
-0.026871892 0.009048993 0.0100060515 0.0677681 -0.011404541 -0.03788507 -0.13029514 -0.079777
0.04425755 -0.012961592 -0.008098758 0.04357157 -0.12494307 0.0052363207 0.0005344258 0.045748126
-0.008682188 0.011813374 -0.110868186 -0.012638404 -0.028220043 0.066912785 0.19092509 0.029110983
-0.12023916 -0.17858653 0.020990172 0.018414497 0.0033286237 0.003088634 0.00086981803 -0.03846118
0.025159316 0.005568222 -0.041533817 -0.13331525 0.058649622 0.048689518 -0.0252813 -0.019535284
0.090643995 -0.031616148 0.04734816 -0.020358443 -0.24505284 -0.07233534 0.065458335 0.028620508
0.14170131 0.046267245 0.054539666 0.09867272 0.0647887 0.018229382 -0.030540692 0.035982855
0.014918564 -0.00065570546 0.014912051 0.025472803 0.09491745 0.025997583 -0.008250589 0.006029659
0.001176114 -0.0037078112 -0.0028130768 -0.00850145 0.03858394 -0.012483957 0.028885525 -0.045407046
0.011363102 -0.019862935 0.026171848 0.0011513522 0.04875787 -0.0006828418 -0.047125172 -0.0056759794
-0.026799945 0.019229356 -0.0995133 -0.010976253 0.06990969 -0.06879029 0.10895792 -0.014264125
0.0016291931 -0.05752811 -0.018238645 0.0008709377 0.005470602 0.01632269 -0.0049886424 0.023364473
-0.03688776 -0.02754889 -0.21341012 -0.071896 -0.041332945 -0.001092028 0.0163551 -0.22671397
0.13159713 0.017841788 0.597318 0.060736 -0.14546293 -0.010865487 -0.03747167 0.07447587
-0.1778148 -0.00045395357 0.17194727 -0.023719896 0.091305755 -0.011007897 -0.028691208 -0.0107550435
0.0060412963 0.03656822 -0.018929426 -0.01827112 -0.034256455 0.0006644443 -0.008878611 -0.009584996
0.011111214 -0.002902266 -0.033581123 -0.075616285 0.014140869 0.06346273 0.000512039 -0.072392635
0.05925969 -0.011376221 -0.009504192 -0.0068906504 0.06586175 -0.034433465 -0.030989356 0.09767317
-0.0034088308 -0.0031785206 -0.18352923 -0.0127294 -0.004517832 -0.11200141 -0.04230514 -0.0058927424
-0.008866495 0.031810127 0.0053424733 -0.010000439 -0.0011825559 -0.011545832 -0.0021088966 0.06581895
0.06961819 0.04522539 -0.047362924 -0.042796668 -0.000105884035 -0.01577525 -0.011851413 0.43968037
-0.047317732 -0.024808547 -0.14521444 0.06748956 -0.048220884 -0.15443844 -0.10924871 -0.040325895
0.031841822 0.016008958 0.10237617 0.13797203 -0.04661313 -0.01726325 -0.014123656 -0.13814607
0.025864365 0.006070004 -0.026765216 0.027232068 -0.026422406 0.041280933 0.019932719 0.014304145
-0.05784161 0.04056922 0.027634867 -0.09236288 -0.009491776 -0.04376835 -0.03416612 -0.09860766
-0.0071686935 0.019404141 0.0044308146 0.026402313 -0.12390718 0.018244311 0.05315691 0.10131408
-0.0068906136 2.5502206e-05 -0.06047091 0.04316593 0.04406867 0.026712334 -0.03891665 0.028672786
