works/letterFromC/weights/generatorPrep_cond2d-kernel.npy (npy, 2432 bytes, 1 tensors)

array f4 [3, 3, 64, 1]
-0.048002623 0.02425531 0.001818101 0.03798958 -0.09874879 -0.02599023 0.025792908 0.05833769
0.031513784 -0.010321831 -0.027439062 -0.026175046 0.040020935 0.0359246 -0.033389345 -0.12875411
0.13128705 -0.029735288 0.027392156 0.06077039 0.03051165 -0.027406264 0.024512038 0.057656307
0.10858606 -0.08662202 -0.053005256 0.052449662 0.038595192 -0.007760203 0.038132183 0.07673066
0.17047796 0.033157706 -0.016648462 0.1522157 -0.0055953725 0.024968952 -0.0056017204 0.054184675
-0.026428876 -0.00022201128 0.040228825 0.16482735 -0.15031125 -0.027842436 -0.0138993375 0.90461177
-0.016932404 0.035744723 0.17931817 0.041878458 0.008421016 0.05367471 0.02421332 -0.010476072
0.04405557 -0.06702308 0.1951438 -0.051072013 -0.017395513 0.025887301 0.01811284 -0.027820226
-0.030409789 0.24700695 -0.003915392 0.018372262 0.037638284 0.012962613 0.08134038 0.12242036
0.09145786 0.09569271 -0.099810906 -0.27567247 0.21288896 -0.14252988 -0.07756764 -0.14266694
0.02297146 -0.041171893 0.008734282 0.004521598 -0.036519654 -0.19337176 0.112023145 -0.10457994
-0.053290494 -0.11924178 -0.06330222 0.19877344 0.013542963 0.017211568 0.089696415 0.14335604
0.1315428 0.13474777 -0.08478365 1.2013943 -0.0442036 0.040913917 -0.033928733 0.053453676
-0.01449759 -0.20482683 0.040282015 0.0037389167 0.14904594 0.0029934323 -0.0019897714 1.1156
-0.04061052 0.019558614 1.1299086 0.13852552 -0.0059187207 -0.016367355 0.0642809 -0.00433091
0.027100444 -0.2660956 -0.004732997 0.049467117 0.14402567 0.062285464 0.053864524 0.026176265
0.07326278 0.028609542 -0.022533216 0.022703681 -0.0019503841 0.023157604 0.02610133 0.057271324
0.0414167 -0.00785375 -0.039342783 -0.1161147 -0.0072556487 -0.01659657 -0.01669024 -0.027267523
-0.02795307 -0.054400224 0.013951473 0.02155816 -0.006070631 -0.05173985 0.0090880785 -0.13209525
-0.04920803 -0.010463834 0.015662422 0.06889268 0.010630363 0.082429156 0.08089029 0.071408086
0.0413047 0.038160633 0.049909603 0.0616939 0.038192537 0.030927299 -0.016042484 0.031238604
-0.0056083347 0.049461015 0.010093937 -0.010181054 0.027847353 0.046181183 0.027130047 0.36724353
0.04144002 -0.018420395 -0.16905957 0.031051883 0.028241845 0.0038005407 0.032571454 -0.009338358
0.03842149 -0.10155566 -0.06416982 -0.0023989175 -0.0063177412 0.07681966 0.011847082 0.032647684
-0.026084403 0.033785697 0.0011661695 0.0054598944 -0.01980383 -0.06886179 0.022984385 0.12462897
0.054544233 -0.00086286606 -0.03108567 -0.0010781649 -0.03126835 0.089049436 -0.03566663 -0.31913105
0.40062505 -0.06114351 -0.015446396 0.098033346 0.0669762 -0.1702255 0.063973494 0.09885658
0.09161622 -0.16264749 -0.15610644 0.09970431 0.010466875 0.011584829 0.05300853 0.06607566
0.0025503708 0.021324707 -0.08789526 0.03320549 -0.0680369 0.06379102 -0.03448935 0.048717003
-0.032879613 -0.03456166 0.091042794 0.45967382 -0.22378115 -0.08234233 0.024084501 0.25359115
-0.029406797 0.11821459 0.08919922 0.09688197 0.06756976 0.008813398 0.42045137 0.032783497
0.33440334 -0.16313703 0.55012417 -0.10772502 0.016703011 0.054873344 0.08212928 -0.004663178
00000000: 669e 44bd 12b3 c63c 594d ee3a f69a 1b3d
00000010: ce3c cabd 76e9 d4bc a64b d33c 80f3 6e3d
00000020: 9914 013d e61c 29bc e2c7 e0bc 0d6d d6bc
00000030: feec 233d ac25 133d 44c3 08bd 1ed8 03be
00000040: 1d70 063e 6b97 f3bc 8465 e03c 5fea 783d
00000050: 91f3 f93c 1a83 e0bc 78cd c83c 0529 6c3d
00000060: 5e62 de3d e366 b1bd 0a1c 59bd 75d5 563d
00000070: fe15 1e3d 4d49 febb 7e30 1c3d f724 9d3d
00000080: c691 2e3e 60d0 073d 5b62 88bc 6fde 1b3e
00000090: 6359 b7bb b08b cc3c a38e b7bb c0f0 5d3d
000000a0: 5f81 d8bc b3cb 68b9 fbc6 243d 80c8 283e
000000b0: 31eb 19be d215 e4bc 0cba 63bc a394 673f
000000c0: d3b5 8abc 0f69 123d 2f9f 373e bf88 2b3d
000000d0: 4df8 093c 03da 5b3d 035b c63c d5a3 2bbc
000000e0: 9d73 343d 6643 89bd c7d3 473e e330 51bd
000000f0: 0981 8ebc 9b11 d43c 6161 943c 3ee7 e3bc
00000100: f31d f9bc 64ef 7c3e b04c 80bb 6d81 963c
00000110: 9a2a 1a3d 2461 543c c995 a63d 87b7 fa3d
00000120: 424e bb3d 8afa c33d a969 ccbd f124 8dbe
00000130: 90ff 593e 5af3 11be c8db 9ebd 4817 12be
00000140: a52e bc3c dca3 28bd 3c1a 0f3c ea29 943b
00000150: a295 15bd 3f03 46be 646c e53d 022e d6bd
00000160: 2247 5abd 0935 f4bd 98a4 81bd 448b 4b3e
00000170: 4ee3 5d3c 46ff 8c3c c1b2 b73d edcb 123e
00000180: 28b3 063e 52fb 093e 0da3 adbd 4ac7 993f
00000190: d60e 35bd 5a95 273d dbf8 0abd 3ef2 5a3d
000001a0: 4d87 6dbc 20be 51be c1fe 243d 9d08 753b
000001b0: 809f 183e 762d 443b d366 02bb fbcb 8e3f
000001c0: 3757 26bd 6339 a03c d8a0 903f a2d9 0d3e
000001d0: d4f1 c1bb d514 86bc b4a5 833d 4eea 8dbb
000001e0: c001 de3c af3d 88be 4217 9bbb 089e 4a3d
000001f0: 777b 133e 0b1f 7f3d 0ca1 5c3d 9b6f d63c
00000200: cc0a 963d 8f5e ea3c 9497 b8bc 12fd b93c
00000210: 08a4 ffba 04b5 bd3c 75d2 d53c 5695 6a3d
00000220: 8fa4 293d 04ad 00bc e625 21bd 8bcd edbd
00000230: cbc0 edbb 88f5 87bc f8b9 88bc 2460 dfbc
00000240: d6fd e4bc c5d2 5ebd b894 643c bd9a b03c
00000250: 25ec c6bb 2aed 53bd 2ae6 143c fa43 07be
00000260: 5c8e 49bd 8070 2bbc 7b4e 803c 9b17 8d3d
00000270: f92a 2e3c 9ed0 a83d cfa9 a53d 673e 923d
00000280: 1e2f 293d 534e 1c3d 036e 4c3d beb2 7c3d
00000290: c76f 1c3d 3f5b fd3c 876b 83bc 1ae8 ff3c
000002a0: 1fc6 b7bb a297 4a3d 0a61 253c 6fce 26bc
000002b0: 2220 e43c 7b28 3d3d d53f de3c 5807 bc3e
000002c0: 03bd 293d 5ee6 96bc f41d 2dbe 8560 fe3c
000002d0: 715b e73c 7e12 793b a569 053d eaff 18bc
000002e0: da5f 1d3d 6afc cfbd 776b 83bd 2837 1dbb
000002f0: 0e05 cfbb a053 9d3d 431a 423c 94b9 053d
00000300: f5ae d5bc df62 0a3d 28da 983a eae8 b23b
00000310: a43b a2bc 6907 8dbd c049 bc3c 793d ff3d
00000320: c669 5f3d f631 62ba 60a7 febc 3651 8dba
00000330: 3e13 00bd 8d5f b63d 2c17 12bd 2565 a3be
00000340: ba1e cd3e 9e71 7abd e112 7dbc b5c5 c83d
00000350: d12a 893d 984f 2ebe 8904 833d 5275 ca3d
00000360: 49a1 bb3d 108d 26be 5eda 1fbe c631 cc3d
00000370: 417d 2b3c 4bce 3d3c 791f 593d ad52 873d
00000380: 1f24 273b 27b1 ae3c 6e02 b4bd 7b02 083d
00000390: ee56 8bbd dea4 823d b444 0dbd 7b8b 473d
000003a0: c6ac 06bd 8790 0dbd a574 ba3d 5e5a eb3e
000003b0: e326 65be 18a3 a8bd dc4c c53c b3d6 813e
000003c0: 86e6 f0bc 7e1a f23d 15ae b63d 0e6a c63d
000003d0: 0462 8a3d 1266 103c 6745 d73e fd47 063d
000003e0: ea36 ab3e 650d 27be f0d4 0c3f ef9e dcbd
000003f0: c1d4 883c dfc2 603d 6533 a83d 93cd 98bb
