website/works/letterFromC/weights/B3_conv2d-kernel.npy (npy, 147584 bytes, 1 tensors)

array f4 [3, 3, 64, 64]
00000000: 9be1 f0bc 1319 933b 8693 50bd 6005 5abe
00000010: 2c82 e13a d53f e7bd 47a7 93be 9139 533d
00000020: e9d6 9d3d 0ca3 82bc edc3 4fbe d666 0dbd
00000030: f7d8 a73d 25f7 953d a262 3bbe 0ff3 3e3d
00000040: 87e8 043d 7580 9cbc 7597 1bbe cd50 93bc
00000050: 2e0f cabd ca65 233e c48d eab9 295c a6bd
00000060: 760d 69bd 130a 02bd ec32 97be 16dd c2bd
00000070: d686 493d 5e19 99bd 30ee 1fbe 3e38 25be
00000080: fd4b 31be e1bd 24bd a06e 67be b1be 573d
00000090: 39dc 893d 3091 a4be 0b77 673d 0c09 a3bd
000000a0: c692 30be 263d 5a3c e2fe 013e 8a4d 043c
000000b0: 0838 06be f670 17bc cc29 ee3d 9410 22bd
000000c0: 3774 d53d 5a85 293c 7fe8 1a3d 4030 97bd
000000d0: 46f3 42be e6e1 df3c 0c48 403c 11fc 9ebd
000000e0: 0b54 47be d444 82bd 7df7 17be 8d61 1ebe
000000f0: aff1 15bc 6531 503d a1d4 bbbd 5428 933e
00000100: a5bf 0bbe d797 6cbe df5d 3c3c 3fc2 593e
00000110: 86b4 f1ba 9546 4f3e ccc5 21bf c48b 84be
00000120: 677a ec3d b351 7cbe d8de 25be ac1e 0fbe
00000130: 8906 eabd 33d8 ed3d 9931 e2bd 5a21 aabd
00000140: 1d67 e6bd e257 843d 3b27 663e f772 d5bd
00000150: aba1 98bc 3efb 58be aad8 203e 3512 6bbe
00000160: 1c2a 83be ded0 c13d fe5c 05bf d08c b13e
00000170: 73af 4ebd 71c9 da3c 2302 f63c 37b5 1dbe
00000180: 888c ab3d 963e 823d db80 e83c b46b 3e3d
00000190: b1ab 6c3d bb92 41bc 718b 2d3e ac87 77be
000001a0: 4df7 473e 267f f4bd c2bd cdbd 29be 12be
000001b0: a1ad c5bd 1921 3ebe 9548 1e3e b70e d1bd
000001c0: 9ab9 993c 141f 083d d5dc c4bd a735 87be
000001d0: 6107 483e 7302 ad3e b1aa 4abe 86e2 463e
000001e0: 9683 143e abf6 073e 15f6 06be e6cc f23d
000001f0: 3c50 09be c3e3 193e 1c65 6d3e 7913 40be
00000200: 4559 193d 0fd1 5a3d cca5 6dbd 3450 a2be
00000210: 1b69 573d c018 c2be 988a 22be 3361 d33d
00000220: d8dd f33d dc28 3dbb 5407 d5bd f2db 003d
00000230: 8cb7 5a3e 6936 08be a854 74be 321c b43d
00000240: 5160 883d ea40 8fbe 0fd2 c1be bc2e 16be
00000250: 22d8 06be 41cb 99bd 2410 82bc 2057 f6bd
00000260: 699a c43d 7806 a2bd aad8 18bd 8b42 e4bd
00000270: de2d 95bd fbff c63c dd23 f83d 1050 18bd
00000280: 73d1 e5bd 34b8 35bd 3dc1 94bc 7d78 9cb9
00000290: 304a a93d 5580 a5be 10e3 303d f847 85be
000002a0: 96b9 97be 40f7 183e 3d03 d2bc ad1a fdbc
000002b0: 40b2 c3bd 4b4c d33d cd22 6bba 1e53 5abe
000002c0: 6513 4c3d 3c20 df3c 696b 5b3d 8e3b 8bbe
000002d0: 4047 20be 4dde 52be 9100 13bd 66ea c6be
000002e0: 4cce 153d 5bc2 bebd 9f4b 423d 5c9c f43c
000002f0: f83b 8e3c 74f2 d9bb 5cc9 26be 0d17 163e
00000300: b9f9 7a3d 3b7b c23d f403 26bd 11e5 2dbe
00000310: 5886 b63d fbb7 bdbd af6a 98bd c57d d23d
00000320: 71e5 97be eb13 273e 6ec0 693d db76 4d3d
00000330: 1681 3a3e bad4 92be b8c3 ce3d e546 813d
00000340: 9cca 6abe cdb0 0ebe 7a8b 76be e46a 1fbb
00000350: a392 b13d d27c 38be 4aeb 713d 7369 bfbc
00000360: 5b1b 263e e0df 39be aebc 053e 071a 1cbd
00000370: 2a87 653e 4a85 eebc ddf4 943d 2c80 2bbb
00000380: c43a 883d 968c 76be e527 b0be 0af3 d33c
00000390: eea2 01bf 472f 97bd ccf1 0cbe 1d7a 3f3e
000003a0: 01de 90be 7d59 593d b2b1 a93d fbdf f43d
000003b0: 36ed 233e 9bea b1be 5b2b 18be d203 0abc
000003c0: 8e39 323e f7cd 0e3e 4190 1ebd 175a 65be
000003d0: dc6a 68be 9f03 d23d 38e1 9c3d ab8c b83c
000003e0: 3ec3 2ebe 4083 193c cbaa 0dbd b96e 20bd
000003f0: a519 b53d 3082 abbc fb53 7d3d f9d1 003e
-0.029404452 0.004489073 -0.05092194 -0.21291113 0.0017204932 -0.11291472 -0.2883856 0.05156857
0.077070065 -0.015946887 -0.20289584 -0.0345219 0.0819568 0.0732253 -0.18299344 0.046618517
0.032448318 -0.019104222 -0.15194495 -0.017982865 -0.098661765 0.15956798 -0.00044737582 -0.08123047
-0.056897603 -0.03174789 -0.29531038 -0.09514825 0.049200855 -0.074755415 -0.15618205 -0.16134736
-0.17314143 -0.040220145 -0.22600794 0.052672092 0.06731457 -0.3214202 0.056510013 -0.0796071
-0.1724349 0.013320243 0.12694886 0.008075127 -0.13107312 -0.009243241 0.11629066 -0.03956659
0.10422557 0.010346735 0.03781938 -0.0738225 -0.19038114 0.027329396 0.011735927 -0.077629216
-0.19465654 -0.06360784 -0.14840503 -0.154669 -0.00915186 0.050828356 -0.09171415 0.28741705
-0.13647325 -0.23104797 0.01149699 0.21265505 -0.0018440641 0.20241769 -0.6319244 -0.25887883
0.11546784 -0.24640541 -0.1619829 -0.13976544 -0.11427028 0.11613502 -0.11044616 -0.083071426
-0.11250136 0.06462075 0.22475903 -0.104223184 -0.018631777 -0.21189591 0.15707651 -0.22956164
-0.25618064 0.094636664 -0.5209502 0.34677744 -0.05046029 0.026707383 0.030030316 -0.15401159
0.083764136 0.063595936 0.028381756 0.046489432 0.057780925 -0.011814768 0.16947724 -0.24172848
0.19527932 -0.11938314 -0.10045959 -0.14330353 -0.09652258 -0.18567313 0.15457375 -0.10207885
0.01876526 0.033232763 -0.09612433 -0.2640812 0.19534065 0.3379093 -0.19791676 0.1942235
0.14503321 0.1327769 -0.1317981 0.118554875 -0.13409513 0.1502829 0.23183101 -0.18757428
0.03743865 0.05342203 -0.058019444 -0.31701815 0.05259047 -0.37909508 -0.15873182 0.10321274
0.11907548 -0.0028863465 -0.10401788 0.031459756 0.2135908 -0.13302006 -0.23860419 0.0879444
0.06658996 -0.27979213 -0.37855574 -0.14666265 -0.13168386 -0.07509471 -0.015876837 -0.120283365
0.09599764 -0.0791139 -0.037316002 -0.111455046 -0.07284139 0.024291983 0.121162154 -0.03718573
-0.1122159 -0.044365123 -0.01815855 -0.0002984441 0.08266103 -0.32324472 0.043185294 -0.2603147
-0.29633778 0.14938068 -0.02563631 -0.030896509 -0.09555483 0.10317286 -0.00089697243 -0.21320769
0.049823184 0.02723705 0.05356923 -0.27193874 -0.1565218 -0.20592614 -0.035889212 -0.38850707
0.036573693 -0.09314414 0.0474354 0.029859714 0.01736258 -0.006651217 -0.1628775 0.1465723
0.06127331 0.094961606 -0.040531114 -0.16981913 0.08912343 -0.09263607 -0.07442223 0.10277895
-0.29667237 0.16316192 0.05706828 0.050162178 0.18213305 -0.28677922 0.10095924 0.0631235
-0.22928852 -0.13934632 -0.24076644 -0.0024325186 0.08670547 -0.18016365 0.05906228 -0.023365712
0.16221373 -0.18151808 0.13060257 -0.03811076 0.22414842 -0.029116292 0.072732665 -0.0026168926
0.06651834 -0.24077067 -0.34405437 0.025872726 -0.50639236 -0.07382064 -0.13764113 0.18698926
-0.28294376 0.05306386 0.08285846 0.119567834 0.16008458 -0.34749302 -0.14860289 -0.008423762
0.17404768 0.13945757 -0.03871179 -0.22397648 -0.22697014 0.10254597 0.076601446 0.022528013
-0.17066666 0.009369671 -0.03458671 -0.039168093 0.08842782 -0.020936102 0.06184767 0.12580098
