website/works/letterFromC/weights/CBN_B1_1_batchNormalization-moving_mean.npy (npy, 2176 bytes, 1 tensors)

array f4 [512]
-0.0011534222 -6.0149177e-06 -0.00047683305 -0.001110274 -0.0018558545 0.00014785053 -0.0046478757 -0.0013429691
-0.00084555545 5.7455283e-05 0.0014637915 -0.00033424038 0.00043735903 -0.00020465984 0.0013283518 -0.0003310045
-0.0009836261 -0.001278502 -0.0018401959 -0.0011995273 -0.0006051703 0.0031934073 0.00024596223 -0.0010013145
-0.00012071531 -0.0002800633 -0.0011616201 -0.002219535 0.003126259 0.00066922756 -0.0001491536 -0.00034369712
0.0007015566 -0.0006823273 -0.001121615 -0.0016467375 0.00034766766 -0.00087180076 -0.002142136 -0.00010523466
0.00037288695 0.0015583074 9.9780766e-05 -0.0030482148 -0.0023665777 -0.001134657 0.001706863 0.0018870204
0.0007198015 0.00027712283 -0.0010479771 0.0023329335 -0.0024467332 -1.2625591e-05 -0.00077977567 -0.0018556049
0.002337686 -6.1200306e-05 -0.00051899115 0.0015790334 -0.0011466584 -0.0022215853 -0.0013900184 0.0008754317
0.00077358383 -0.0012401604 -0.0008220201 7.327307e-05 0.0002879929 -0.00017804361 0.0015689648 -0.00021612097
0.00049285707 -0.0030863867 -0.0024727376 -0.0013708224 -0.0011728558 -0.0007683319 0.0014607762 -0.00025289264
-0.00045659745 -0.0017378802 0.001563705 -0.00092492317 0.0036790713 -0.0039963713 0.00028820074 -0.0011608963
0.00091682543 -0.0020502824 0.0018466889 0.0032036377 0.0007627708 0.0018018971 -0.0026140988 0.00016469197
-0.0005585881 -4.32237e-06 0.0018632861 0.00049397897 0.001959137 0.001453267 0.0016439302 0.0035852205
0.00199302 0.0036462143 0.0019273357 0.00096435705 0.003317981 0.0011707597 0.0004474416 -0.0004029902
0.0012167417 0.002141496 0.000530717 0.0010823966 -0.0011637028 -0.0011531349 0.00042364892 0.00097314734
0.0006815019 -0.0008041465 -0.0004401063 0.001582743 -0.0003356235 0.0007315136 1.1564727e-05 -0.0021428817
-0.0001124042 -0.0016490438 -0.00054392416 0.00020212732 -0.0014372373 -0.0012817145 -0.0012241418 0.0007003733
-0.0006466435 0.000290776 -0.0012998014 -0.0010066476 0.00020402811 0.00023635966 0.00018411291 0.00031635727
-0.000194088 -0.0014240475 -0.0039733434 0.0011609528 -0.0014415444 -0.00086280133 -0.00015295988 0.0013801577
-0.003454617 -0.0002039026 0.001680772 -0.0015930866 0.00048616977 0.0019618138 -0.00045568973 -0.002196122
-0.0028094498 0.00076901313 -0.00088134984 0.00026358388 0.0007753492 0.0008865776 0.001582914 -0.00046072993
-0.0001251878 0.0024535444 -0.00019779173 4.968934e-05 0.00046515674 -0.00064487755 -0.0003735827 -0.00010905113
0.0025829016 -0.00028061212 0.0020154025 -0.00061686884 -0.00061855547 -0.0015627029 0.00016294452 -0.0004331484
0.00091230747 0.0003727299 -0.0020149006 -0.0002796494 -0.0010860998 -0.0003080553 0.0005937723 -0.00039629903
-0.00093529414 -0.0009937773 -0.00055373396 0.0022564663 -0.00042094942 -0.00031660672 -0.0014901095 -0.002697759
-0.0023137294 0.001077135 -0.0015761122 0.00028902496 -4.8747068e-05 0.00023362544 -0.0024074258 -0.0019934175
0.0016815446 -0.0006729143 0.00062827877 0.0011551667 0.0010731895 -0.0012811853 0.00051226246 -0.0027767762
-0.0007526964 0.00021772963 -0.00036852184 0.0025902747 -0.0008171186 -0.0019908613 -0.0045311637 0.0009866715
-0.00016601743 -0.0013133811 0.0011084519 -0.0010947234 0.00019324334 0.00036064003 0.00014689869 -0.0022901422
0.00174579 -0.00049198756 0.0020485725 -0.0025335294 0.0004223227 -0.0019015182 0.000733954 0.0014962889
-0.0020079247 0.0013622596 0.00091034605 0.0010072954 -0.001378336 -0.0026950787 -8.572322e-06 0.00046184857
0.0017229212 0.00072511367 -0.0028675988 -8.480159e-05 -0.002818065 0.0015688704 0.0015926228 -0.0023734097
00000000: 6d2e 97ba c0d3 c9b6 73ff f9b9 9d86 91ba
00000010: 2540 f3ba 5308 1b39 354d 98bb 9106 b0ba
00000020: 44a8 5dba 24fc 7038 b1dc bf3a fc3c afb9
00000030: 564d e539 f599 56b9 171c ae3a ac8a adb9
00000040: 04ed 80ba 6993 a7ba ba32 f1ba 7539 9dba
00000050: 4ba4 1eba 7c48 513b 7ef4 8039 8a3e 83ba
00000060: 8a28 fdb8 76d5 92b9 8141 98ba 9e75 11bb
00000070: ece1 4c3b 1a6f 2f3a 1d66 1cb9 3f32 b4b9
00000080: abe8 373a 36de 32ba 2703 93ba 57d7 d7ba
00000090: 2a47 b639 8f89 64ba 1463 0cbb 6eb1 dcb8
000000a0: 0a80 c339 1f40 cc3a 6441 d138 8fc4 47bb
000000b0: 9618 1bbb c5b8 94ba d2b8 df3a e655 f73a
000000c0: 10b1 3c3a cc4a 9139 475c 89ba 21e4 183b
000000d0: 5f59 20bb 80d2 53b7 dc69 4cba c537 f3ba
000000e0: dd33 193b aa58 80b8 e80c 08ba 92f7 ce3a
000000f0: 794b 96ba 0498 11bb 4731 b6ba 3a7d 653a
00000100: 55ca 4a3a e18c a2ba d67c 57ba 2eaa 9938
00000110: c1fd 9639 38b1 3ab9 b9a5 cd3a 889e 62b9
00000120: 1433 013a fa44 4abb a70d 22bb 2bad b3ba
00000130: 83ba 99ba e269 49ba 8477 bf3a ad96 84b9
00000140: 7963 efb9 95c9 e3ba 3cf5 cc3a 8b76 72ba
00000150: 931c 713b fef3 82bb a619 9739 3729 98ba
00000160: 1d57 703a 085e 06bb 990c f23a 1ff4 513b
00000170: aff4 473a a22d ec3a 4d51 2bbb 2ab1 2c39
00000180: 366e 12ba e008 91b6 8239 f43a 5e7e 013a
00000190: dd64 003b 8c7b be3a 2579 d73a 05f6 6a3b
000001a0: 549d 023b 53f5 6e3b a89e fc3a e8cc 7c3a
000001b0: 7c72 593b 2d74 993a 9896 ea39 6e48 d3b9
000001c0: 147b 9f3a 5758 0c3b d11f 0b3a 34df 8d3a
000001d0: 6387 98ba c924 97ba 321d de39 d01a 7f3a
000001e0: d1a6 323a 5ccd 52ba 11be e6b9 0b74 cf3a
000001f0: a0f6 afb9 0cc3 3f3a 2006 4237 976f 0cbb
00000200: 8cba ebb8 ba24 d8ba 2296 0eba 24f2 5339
00000210: ae61 bcba 34ff a7ba 6273 a0ba 4299 373a
00000220: 8383 29ba 4b73 9839 195e aaba 7df1 83ba
00000230: 61f0 5539 50d7 7739 6f0e 4139 c1dc a539
00000240: 1a84 4bb9 1ba7 baba d232 82bb 1d2b 983a
00000250: 34f2 bcba 9e2d 62ba db63 20b9 68e6 b43a
00000260: db66 62bb b0ce 55b9 5a4d dc3a 1ecf d0ba
00000270: 9ae4 fe39 c691 003b a4e9 eeb9 d0ec 0fbb
00000280: bf1e 38bb 9997 493a 630a 67ba a131 8a39
00000290: ce40 4b3a 3769 683a c879 cf3a 208e f1b9
000002a0: d844 03b9 a5cb 203b 5066 4fb9 8669 5038
000002b0: 48e0 f339 000d 29ba 6cdd c3b9 61b2 e4b8
000002c0: e645 293b 1f1f 93b9 d814 043b 5eb5 21ba
000002d0: 8e26 22ba 9cd3 ccba 16dc 2a39 3218 e3b9
000002e0: eb27 6f3a f66a c339 6c0c 04bb e89d 92b9
000002f0: 765b 8eba 7c82 a1b9 62a7 1b3a 5bc6 cfb9
00000300: 872e 75ba a241 82ba 7528 11ba 39e1 133b
00000310: e0b2 dcb9 3cfe a5b9 c74f c3ba e3cc 30bb
00000320: f0a1 17bb a72e 8d3a 8d95 ceba 4688 9739
00000330: c475 4cb8 5af9 7439 e7c5 1dbb ffa3 02bb
00000340: 4667 dc3a 8466 30ba 13b3 243a f668 973a
00000350: 44aa 8c3a 72ed a7ba 5a49 063a 93fa 35bb
00000360: 9a50 45ba 5a4e 6439 2a36 c1b9 99c1 293b
00000370: e733 56ba 1c79 02bb 287a 94bb 3453 813a
00000380: f714 2eb9 c225 acba 7949 913a d27c 8fba
00000390: 5da1 4a39 4914 bd39 d108 1a39 3616 16bb
000003a0: fed2 e43a baf8 00ba 5841 063b 9209 26bb
000003b0: 316b dd39 5d3c f9ba d266 403a 201f c43a
000003c0: 6397 03bb d98d b23a 4aa4 6e3a 3a07 843a
000003d0: 48a9 b4ba eb9f 30bb d8d1 0fb7 4424 f239
000003e0: a4d3 e13a 8e15 3e3a 53ee 3bbb 82d7 b1b8
000003f0: 49af 38bb 8ea2 cd3a 8ebf d03a 358b 1bbb
