website/works/letterFromC/weights/CBN_B2_2_dense_2-kernel.npy (npy, 16512 bytes, 1 tensors)

array f4 [32, 128]
00000000: 934b f6bd b3de 4fbc b472 b13c da64 ae3b
00000010: ab7d 1b3d 8550 05be 63be b5bc bfd8 c4bd
00000020: ed0f f63c 93f8 113d 37a8 e4bb eff7 0bbd
00000030: 467b f037 ea06 403d 2b90 3c3c 43b0 af3d
00000040: 1ef7 02be 8509 96bc b86b 98be 852c 3abd
00000050: 8080 1bbe 75a5 603b 6af5 c8bc 9385 3f3c
00000060: df53 09bd e06f 6d3c d2fa 023e fec4 aabb
00000070: 9113 5f3d d600 1d3e b23a 063c a5f0 24bc
00000080: 5d9b b63c 392d 363a eba7 80bc 9acc b73b
00000090: 6f6c 8f3d 8945 aebc e17e 98bc 0d16 cf3c
000000a0: ea93 91bc ba6d 063a 25a1 3bbe 2d58 8bbd
000000b0: 7dbc 1d3c 5a26 01bc 6b19 bebc 691a 37bc
000000c0: f6db 1dbd b222 b837 740b 293d 737a 263c
000000d0: 321d 073c 160f e5bc 3b6d e2bb 2619 c9bb
000000e0: ef57 1d3e 8e3b 1e3d b080 1bbd 1777 623c
000000f0: f469 193d f3d5 113d dab6 5ebc ffd9 273e
00000100: 1ac9 dc3b 9c92 38bc dd17 bcbb 1486 66bc
00000110: 21a0 d73c a0a1 9d3d 827a 8bbc 93d1 e93b
00000120: f955 2e3d 6061 fcbc 5dff 98bc 73a8 2abc
00000130: b4f7 0bbc 1694 f239 9c35 823e 81bd 963d
00000140: d2e8 b03c 8e60 153b 23cb 9abc 7b64 b03d
00000150: e1e3 10bc f0b7 273c ea64 943c c008 0ebb
00000160: c776 8cbb 9787 813c fe67 283a 2b62 ebbb
00000170: 67a0 083d e83b 783c 6ec1 0bbc 01dd 09bd
00000180: 716f debb 0e3c c5bb 3bca 7a3c 36e3 9b3c
00000190: 0527 013b bd47 86bc 4e09 64bc 30a2 36ba
000001a0: 0332 1abc 89be fcbc 2d38 a5bc 8221 0cbc
000001b0: 5bec 81bd 14bd d13b 7a84 9c3d 161d 10bd
000001c0: 6b25 9f3c fd4f ff3b 6b78 94bc 1371 733c
000001d0: ce63 7c3c c2b3 f7bc 369d 2e3d 91d6 293d
000001e0: 75f3 1cbd e799 413c d6bd 05bd df4a f13d
000001f0: a38e b8bd fad2 d2bd 77ba 3d3c ad5d 0b3e
00000200: 2324 dbbc 0468 38bc 2355 63bd 44ab 1c3c
00000210: f081 163d ae5b 2bbd 24aa c53c 7e8b 02bd
00000220: a122 d83c 4a17 d43c fc35 3dbc b4fa 283d
00000230: b8e4 543d 6b9b e33c 53ce a1bc 1375 823c
00000240: b381 75bd 1f9a 073d ae06 f8bd e72e c53c
00000250: 21bb 24bd 5687 5cbd 1061 0a3c f901 cbbb
00000260: 1762 aabc dfa2 9e3c 508c a5bc ce29 3e3b
00000270: c403 ec3d e9c1 573e d04f 103c 8295 08bc
00000280: de1c 63ba 1fd8 82bb ed7d d5ba 2f30 db3b
00000290: 5e53 463d d175 f0ba 4c60 e93c faed 093d
000002a0: cf11 abbb 156d 86bc 7185 2cbe 364d 203c
000002b0: 661e a63c a4d8 88bc 24dd c8bc 7c72 a73c
000002c0: b842 a4bb 7714 5bba 1cf6 0b3c e608 01bd
000002d0: b437 323c 85a9 763c 9219 c43b fc73 253c
000002e0: ffa5 0d3e e86a af38 3702 c0bc b526 233d
000002f0: ddfd a5bb c44a 7d3c 2584 c93c 34ad 8fbd
00000300: e1da f33c 7704 f73c 6abe a6bc 483d edbc
00000310: c794 32bc 9a04 97bb 54d9 d43a 851d 9c3a
00000320: 24b3 073d adbb 8cbb 365e 61bc 26b3 1eba
00000330: 552b 0bbd 3578 64bc 12bf e33c ad65 8bbc
00000340: 85c5 89bc 7f66 2bbc 3c55 99bc 6dfa 2d3c
00000350: 6ce2 9d3d 2d2e c03d a124 853c 5657 d2bc
00000360: 9fbf 97bc 960a 2d3c 58e0 4bba 0e0b f1bb
00000370: 56ab 143d 70db 82bb 4148 8a3a 4ff0 bfbc
00000380: 777a 18bc 5d22 9cbb 8444 623c 2f90 0cbd
00000390: b301 f4bc d7ad 00bd c688 76bb 6dc2 beba
000003a0: 32ba 05bc 193d f63d 606b 00bd 39ed a9bc
000003b0: 4a48 d9bc 5324 c53c 9627 313d 8c6b ef3c
000003c0: 1af1 a83d ca63 303d c81f ffbb 5e5f a63a
000003d0: 3c8d 933c 180b dcbb 4855 4a3e 0c65 4b3a
000003e0: e4c0 473a c20e f53b c8c2 d4bc 15c0 85bc
000003f0: e5fd 0dbd 26b0 7cbc 4738 0ebc 322e 403d
-0.120261334 -0.012687373 0.02166114 0.005322081 0.037961643 -0.13018997 -0.02218551 -0.096116535
0.03003689 0.03563745 -0.0069780606 -0.034171995 2.8667633e-05 0.046881594 0.011508982 0.08578541
-0.1278958 -0.018315086 -0.29769683 -0.045452613 -0.15185738 0.0034278308 -0.024531085 0.011689561
-0.03352725 0.014492005 0.12790993 -0.0052114716 0.05446202 0.1533235 0.008192705 -0.01006714
0.02229088 0.0006949488 -0.01570507 0.005609107 0.07003104 -0.021273391 -0.018615188 0.02527907
-0.017770726 0.0005128045 -0.1832319 -0.068039276 0.009627459 -0.007882679 -0.02320548 -0.01117573
-0.03853985 2.1950666e-05 0.04127069 0.01016103 0.008246707 -0.027961295 -0.006909994 -0.006137031
0.15365575 0.038631015 -0.037964523 0.013822339 0.03745456 0.03560443 -0.0135934 0.16391753
0.0067378404 -0.011265423 -0.0057401494 -0.014070053 0.026321473 0.07696843 -0.01702619 0.007135579
0.04256246 -0.03080815 -0.018676454 -0.010416138 -0.008542944 0.0004626817 0.25431526 0.07360364
0.021595392 0.0022793147 -0.018895691 0.08612915 -0.008843393 0.010236725 0.018114526 -0.0021672696
-0.0042866203 0.015811725 0.00064241874 -0.0071833334 0.033356097 0.0151510015 -0.008530004 -0.03365803
-0.006788187 -0.006019122 0.015307005 0.019029241 0.0019707095 -0.01639163 -0.013918234 -0.0006966917
-0.009411338 -0.030852573 -0.020168388 -0.008552911 -0.06343909 0.0064007137 0.076424554 -0.03518399
0.019427022 0.007791518 -0.018123826 0.014858502 0.015404655 -0.030237082 0.042630397 0.041464392
-0.038318116 0.011816478 -0.032651745 0.11781859 -0.09011581 -0.10294147 0.011580101 0.13609953
-0.02675063 -0.011255268 -0.055501115 0.009562317 0.03674501 -0.04183548 0.024128981 -0.03187131
0.0263837 0.025890011 -0.011548515 0.041254714 0.051975936 0.02778407 -0.019751703 0.015924966
-0.059938144 0.033105966 -0.12110649 0.024070216 -0.040217523 -0.053840004 0.008445993 -0.0061953035
-0.020798726 0.019364772 -0.020208508 0.0029016617 0.11524156 0.21070065 0.008808091 -0.008336427
-0.00086636643 -0.003993049 -0.0016288139 0.0066890935 0.04841935 -0.0018345659 0.0284883 0.033674218
-0.005220629 -0.016409436 -0.16847779 0.0097840335 0.020278167 -0.016704865 -0.02451951 0.020440333
-0.0050128363 -0.00083572365 0.008542564 -0.031502627 0.0108775385 0.015055065 0.0059844935 0.010098454
0.13832854 8.364563e-05 -0.023438556 0.039831836 -0.0050656633 0.01545972 0.024599144 -0.07015458
0.029767456 0.030153496 -0.020354468 -0.028959885 -0.010899729 -0.004608703 0.0016239085 0.0011910653
0.033129826 -0.0042948336 -0.013755372 -0.0006053917 -0.03397687 -0.013944675 0.02780107 -0.017016256
-0.016817817 -0.010461449 -0.0187174 0.010618788 0.07709202 0.09383807 0.016252818 -0.02567641
-0.01852399 0.010561606 -0.0007777265 -0.007356054 0.03629621 -0.003993444 0.0010550098 -0.023430018
-0.009306542 -0.0047648386 0.013810281 -0.03431719 -0.029785967 -0.031415787 -0.0037618144 -0.0014553793
-0.008162068 0.12023372 -0.0313524 -0.020743 -0.026523728 0.024065172 0.043250643 0.029226087
0.082491115 0.043063916 -0.007785771 0.0012693217 0.018011682 -0.0067151897 0.19759095 0.00077588926
0.00076199905 0.007478566 -0.025971785 -0.016326943 -0.03466596 -0.015422856 -0.00868041 0.046919055
