website/works/letterFromC/weights/CBN_B2_1_dense_2-kernel.npy (npy, 32896 bytes, 1 tensors)

array f4 [32, 256]
00000000: f65b 9e3c 0910 09be 9feb 86bc a4af 513d
00000010: 0ed9 07bd beac 853c ad33 11bd 5c31 1ebd
00000020: 0c20 88bd 991b 1a3c 2672 c3bc e404 d2bc
00000030: 2475 cdbc b255 c7bb 9bae 493d 2eba 2dbb
00000040: e5cf a2bd c173 1abe b687 533d 2a04 87bd
00000050: 0804 c83d bc93 3c3d f007 dabd bf64 a8be
00000060: 4354 053e bd1a 3ebc f215 9cbe 2aeb edbb
00000070: 48ea 7cbc e272 b13c af0a 0c3d a0df 193d
00000080: ba8e a1bd 5bb2 cf3d b0da af3d e168 f23d
00000090: 5f02 4fbd 9f99 e8bc 0ee6 11bd 6f02 c6bd
000000a0: cf7e 53bc bb09 283c 821f 8fbc 37a1 3b3e
000000b0: 6f8c a9bd 07e7 2f3d a097 403d d6dd 983d
000000c0: 4ed7 81bc b1c9 a3bd 1d3f b73d 213c 863c
000000d0: dd03 1cbd b751 72bd 4f40 9d3d 931f 3c3c
000000e0: d65a f5bc 5cc2 933d 65af 613c c458 ed3b
000000f0: 1e91 ccbd da40 9f3d 8b73 eabb 6fce 493c
00000100: dc73 acbd d32c 0abd 68b5 90bd 408a 093c
00000110: b166 73bd bf37 67bd 2118 92be d968 383e
00000120: a233 bc3c dc07 7dbc a479 01bd af76 12bd
00000130: e5e8 783c fce8 3dbc 10b5 f4bd 18bd abbd
00000140: 9fc5 8abd 3908 ae3c fd74 943d acaf fd3c
00000150: 4ade 86bc f922 293c 57c2 a33d d244 153d
00000160: 6b1e c4bd 462c 923b 4178 85bd f4af 53bd
00000170: 4ff0 9abd 13f1 5a3d ff7d fbbd 67f7 033e
00000180: 5046 ab3d 59f7 d9bc 2e96 923a 3f8f d03c
00000190: c7c2 26be 3536 07bd ff78 3a3d 5193 2f3d
000001a0: 3a77 cc3c 13a3 d0bc 3021 d6bd de02 54bd
000001b0: 975b e13d 4392 55bd 9a83 663d 7c4a c73b
000001c0: 416e a03c 2e1c 6dbb 961e 2bbe 3228 d23c
000001d0: 0f4c a9bc 2ac7 6abd 2e8c 2c3d 22ac 60bc
000001e0: d48f ee3b 9204 733b 1c10 80be 5483 42bd
000001f0: 4f27 433d 6e75 9e3d df6c 3c3c df32 4e3d
00000200: c318 53bd f3d0 e53c a941 de3d d9c0 9bbc
00000210: 0ba0 bd3d dd6a d83c 56b2 9abc 67bc 893c
00000220: 2a9d 203c 76fd c4bc 5119 3bbd 6647 9bbd
00000230: 6b11 aabd 7ea5 433c d3fd 1cbd 9ea5 b63c
00000240: ec2c 9a3c b6a0 fc3c 0d1d 37bd a45a efba
00000250: d5ab 923d 9023 29bc 0d6a 2ebd c598 bd3d
00000260: 0325 ae3c 2ba8 053e 5a5b d63d 6fc2 cbbd
00000270: 9aed 833b e7ec 4e3e f36b 6fbe 1622 a9bc
00000280: 8829 5b3c dbbf 05be a826 953d cb4f 0ebe
00000290: 4e1b 07bd c5bc 0b3e 2b93 84bd 4769 9cbc
000002a0: 3717 17be 7b50 c3bd c157 2f3e 4a09 9abd
000002b0: d2ae d6bc 7659 8d3d de14 d4bd 8258 20bc
000002c0: 79ea 68bd f77c f3bc f019 06bd d32d f23d
000002d0: 7ea0 8d3d 2481 d23d 35e1 2fbc 2b35 49bc
000002e0: 2153 aa3c 14bf c53c 3f75 dcbd 0ebe f6bd
000002f0: 0a10 483d 60c4 5a3c 7660 b03b 1144 f5bd
00000300: 9046 41be 2d09 ae3c 3394 bebc 6304 003c
00000310: 83a8 f33c 2ca5 43bc 55c6 c3bd eb43 a0bd
00000320: 833e 823c 26fa 91bd b3ae 2dbd 3c58 173d
00000330: c58e 113e 2e06 223d 1024 8fbd 2c9a ffbc
00000340: 4778 7c3d 614d 2cbd a370 9abb d1e2 09bc
00000350: e3de 1f3d f6f3 323c 31dd ebbb 2b65 a2bc
00000360: 1016 eb3d ac64 653d d1e0 493d 12b2 913d
00000370: 2871 d43a 4001 a93c 3fc2 5c3d f538 c33d
00000380: 5af8 58ba c8dc 1a3e 68d4 3b3d f6e7 0fbe
00000390: ec71 d33c 932a 023e ada1 3e3d 07a6 583c
000003a0: ea81 e63c d308 70bd e789 dc3d 69ff 6cbd
000003b0: d94b b6bb d7c0 503c c2bf e43d 2894 84bd
000003c0: 259c 8ebd 69ad 193d d26e ba3d a9ed 4e3c
000003d0: 84a3 e03d 5145 e63d c035 a4bd f6ce df3d
000003e0: d8f5 12bd d617 b43b 4c94 bd3c 3f8d ea3c
000003f0: 8742 33bd 2d6e ec3d 2e8f edbd 5c1b 5f3c
0.01933096 -0.13385023 -0.016469775 0.051192895 -0.033165984 0.016317721 -0.035449672 -0.03862129
-0.066467375 0.009405994 -0.023858141 -0.025637098 -0.025080271 -0.0060832137 0.049238782 -0.0026508677
-0.07949809 -0.15083219 0.051643096 -0.06592591 0.09766394 0.046039328 -0.10646045 -0.32889363
0.13020425 -0.011603055 -0.30485493 -0.0072606998 -0.015436716 0.021661226 0.034189876 0.03756678
-0.07888551 0.101414405 0.08586633 0.1183641 -0.05053937 -0.028393565 -0.035619788 -0.09668433
-0.0129086515 0.010256226 -0.017471079 0.18323217 -0.08278739 0.042944934 0.0470196 0.07464187
-0.015849736 -0.07997454 0.08947585 0.016386094 -0.03808962 -0.05915996 0.076782815 0.011482137
-0.02995054 0.072148055 0.0137747275 0.0072432477 -0.099886164 0.07776041 -0.007154887 0.012317284
-0.08420536 -0.033734154 -0.070658505 0.008394778 -0.059424106 -0.056449648 -0.28534034 0.18008746
0.02297384 -0.015443768 -0.031610146 -0.035757717 0.015192245 -0.011591192 -0.119485974 -0.08385676
-0.067759745 0.021244155 0.07248876 0.030967556 -0.016463418 0.01032328 0.07996052 0.036442585
-0.09576114 0.004460844 -0.06517077 -0.051681474 -0.075653665 0.053452563 -0.12279891 0.12887345
0.083630204 -0.026607202 0.0011183673 0.02545893 -0.16285239 -0.03301068 0.045525547 0.0428651
0.024959195 -0.025468385 -0.10455549 -0.051760547 0.110037975 -0.05214144 0.05627785 0.0060818773
0.019583823 -0.0036180126 -0.16710886 0.025653932 -0.02066615 -0.057318844 0.042125873 -0.013712915
0.0072803292 0.0037081582 -0.2501229 -0.047488526 0.04764491 0.07737242 0.011500566 0.050341483
-0.051537286 0.028053736 0.108523674 -0.019012855 0.092590414 0.026418144 -0.018883865 0.01681347
0.009803096 -0.02404664 -0.04567844 -0.075819775 -0.083041035 0.011941312 -0.038328003 0.02229577
0.018820249 0.030838352 -0.04470544 -0.0018261266 0.071616806 -0.01032342 -0.042581607 0.09257654
0.021257883 0.13052432 0.10466643 -0.09949195 0.004026127 0.20207559 -0.23381023 -0.020646136
0.013376601 -0.13061468 0.07282764 -0.13897626 -0.032985024 0.13646229 -0.064733826 -0.019093169
-0.1475495 -0.09536835 0.17123319 -0.07521303 -0.026206408 0.06901829 -0.103555426 -0.009786727
-0.056864236 -0.029722674 -0.03273958 0.118251465 0.06915377 0.10278538 -0.010734846 -0.012280743
0.020791592 0.024138965 -0.107645504 -0.12047969 0.04884342 0.0133524835 0.005382593 -0.11975873
-0.18874574 0.02124461 -0.023264026 0.007813546 0.029743439 -0.0119412355 -0.09559313 -0.07825454
0.015898949 -0.0712779 -0.042402934 0.03694938 0.14214619 0.039556675 -0.069893 -0.031201445
0.061638143 -0.04206598 -0.0047131344 -0.008415894 0.03903092 0.010922423 -0.007197999 -0.019823631
0.114788175 0.05600421 0.049286667 0.07114042 0.001620804 0.020630479 0.053896185 0.09532348
-0.00082767534 0.15123284 0.045856863 -0.1405333 0.025811158 0.12711553 0.046540905 0.013223178
0.02813812 -0.058602165 0.1076849 -0.057860766 -0.005563241 0.012741289 0.111693874 -0.06473571
-0.06963376 0.037518892 0.091031685 0.012629905 0.10968688 0.1124369 -0.080180645 0.109281465
-0.035878986 0.0054960055 0.023142003 0.028631805 -0.043764617 0.11544452 -0.11599575 0.013617363
