website/works/letterFromC/weights/CBN_B1_2_dense_2-kernel.npy (npy, 32896 bytes, 1 tensors)

array f4 [32, 256]
000000 0c 33 1d 3c 84 cf 12 bb ea 57 6d 3b a6 8a cc bd
       0.00959469 -0.002240152 0.003621573 -0.099873826
000010 2b 91 48 bd a0 2d fb bc 35 0c 14 bd 8d 30 6d bd
       -0.048966568 -0.030661404 -0.036144454 -0.05790763
000020 b0 a2 09 3d e7 e4 13 be 10 ba 43 bc 21 3d 0a 3d
       0.033602417 -0.14442788 -0.011946216 0.033749703
000030 e1 0b 8a bc 1f 6c cf bc f0 99 5e 3d 0c 08 8c bc
       -0.016851367 -0.02532011 0.054346025 -0.01709368
000040 05 88 8c 3d de 7b 1b bb 09 44 14 3e 76 8e dd 3c
       0.06861881 -0.0023724954 0.14479078 0.02704547
000050 c7 ef 69 bc 04 89 0b bc 85 58 59 bd 40 df d3 3c
       -0.014278359 -0.008516554 -0.053062934 0.02586329
000060 a8 9e c0 bd c7 b8 b9 ba b2 ab b0 bd 19 26 c7 bd
       -0.09405261 -0.0014169448 -0.08626498 -0.097240634
000070 2e 6d 28 3d 9c 9a 0b 3e 4b 70 b5 bb 4c fa 0b bc
       0.041119747 0.13633198 -0.005537068 -0.008543562
000080 78 9f 56 bc d6 c6 f0 bc 2c 3a 07 3c 79 12 06 3a
       -0.013099544 -0.029391687 0.008253615 0.0005114447
000090 f7 89 21 3c 5c 31 ee bd c6 98 84 bc 2a 3f 8f bd
       0.009859554 -0.11630508 -0.01618613 -0.069944695
0000a0 82 75 26 3d 90 67 fb 3c 22 cc 8e bb 13 24 b5 3d
       0.040639408 0.03068903 -0.0043578306 0.08844771
0000b0 ea a9 b0 3d f7 7a 23 3d b5 ef 5c 3d 45 1f 13 bd
       0.086261585 0.03991219 0.05393954 -0.035918493
0000c0 e5 dd d9 bc f6 8f 67 3d 1b d7 05 bd 29 d7 bf bb
       -0.026595065 0.056533776 -0.032675844 -0.0058545065
0000d0 11 ca 09 bc 03 96 d1 3c 62 89 64 3b c7 51 c1 3b
       -0.008409993 0.025584226 0.0034871926 0.005899641
0000e0 d2 77 01 3e 53 bf 11 3c 2c 50 23 3d 2d 41 9b bc
       0.12643364 0.008895713 0.03987138 -0.018951977
0000f0 c1 72 3e 3d d0 c9 6c bc c6 3a 2a bc 78 ac 4b bc
       0.046496157 -0.014452413 -0.010389989 -0.0124312565
000100 26 b8 3d 3d f5 ec 2c bd 69 1e aa bd b2 61 83 bd
       0.046318196 -0.042218167 -0.083065815 -0.06415118
000110 f3 76 3f 3c 70 8f 6b be 30 01 71 3b 9e f6 48 3d
       0.011686075 -0.23003936 0.003677439 0.049063317
000120 5d 02 fd 3c 21 ef 21 3c ae 89 d9 bc 2c 2f 8c 3b
       0.030884916 0.009883673 -0.026554909 0.0042780843
000130 a2 e2 05 be 5d 47 66 bc 53 b9 56 3c ed 43 5b bc
       -0.13074735 -0.0140551 0.013105708 -0.013382894
000140 f1 57 74 bb bf ec b5 bc b0 43 28 bc 78 61 5c bd
       -0.0037283862 -0.022207616 -0.010270044 -0.05380389
000150 be 12 0d 3a b1 dc 97 3c 1a d9 aa 3c 16 d2 e1 bc
       0.0005381516 0.018537851 0.020855475 -0.027565997
000160 9e 40 f4 3a 9e ba e5 3c 89 81 36 bc c3 91 d1 bc
       0.001863498 0.028043088 -0.011139282 -0.0255822
000170 d4 ef 25 3b 9a 61 0d bd 6a 72 0d 3c 2a 7c d5 3a
       0.002531995 -0.03451691 0.0086332355 0.0016287614
000180 09 11 01 3b d0 f7 ff 3b 6a 84 8d bc cb 3c 8d 3c
       0.0019693992 0.007811524 -0.017275054 0.017240902
000190 30 14 f6 ba 69 ea 10 bb 62 3f 0b bd ce 59 c9 ba
       -0.0018774327 -0.0022112376 -0.033995993 -0.0015361847
0001a0 a6 c3 89 bc 7f 92 62 3b 8f e2 ae bb d5 e5 0f 3d
       -0.016816925 0.0034572182 -0.0053370665 0.035131294
0001b0 9b 05 42 bd 2d 6b b5 3c 28 f6 60 3d 1a 83 19 3d
       -0.047368627 0.022145832 0.054922253 0.037478544
0001c0 47 5e 0f 3d ac 3e 28 bd a1 90 84 3d 04 96 23 3b
       0.03500202 -0.041075394 0.06472898 0.0024961242
0001d0 e4 0b c3 bc 07 18 d1 3c f9 bb 8a 3d c9 36 5c bd
       -0.02380938 0.025524152 0.06774134 -0.053763185
0001e0 01 7c 35 bd 3a dd 1f bc b8 4b 6d 3c 4a 97 a4 3a
       -0.044307712 -0.009757334 0.014483385 0.0012557295
0001f0 ad 34 f7 3c 56 33 0f 3d 97 59 a4 3d dc 36 d9 bc
       0.030176485 0.034961067 0.080249004 -0.026515417
000200 6b 62 40 3c 52 94 74 bd 09 8e 52 bd 8b c6 4e 3d
       0.011742215 -0.05971176 -0.051404987 0.050482314
000210 2a 95 c5 3c b2 1a c5 bc 8b 93 71 3d 1c 9e 80 bc
       0.024118979 -0.02406058 0.0589786 -0.015700392
000220 d0 e0 bb 3c e1 e2 1b be fd 4d a5 bc 85 dc 65 bb
       0.022934347 -0.15223266 -0.02017879 -0.0035074067
000230 5b 94 b6 3b c0 1e 8b bc ef 4f 59 bd 10 4f 3f 3c
       0.0055718846 -0.016982436 -0.053054746 0.011676565
000240 b6 a7 df bc 0d 82 ab bc 1c c2 83 bc 68 13 23 3c
       -0.02730165 -0.020936036 -0.01608377 0.009953357
000250 8a 40 08 3e ca 3c 95 3c 79 1c b9 3c d3 5b 37 bd
       0.1330587 0.018217463 0.022596585 -0.044765305
000260 68 df 39 3b 59 66 60 ba c9 9e 86 3c 9f 2d 98 3c
       0.002836192 -0.0008560173 0.016433137 0.018576441
000270 05 82 61 3a c7 ab 61 3d 95 56 23 bd 22 e5 72 3d
       0.0008602443 0.05509546 -0.039877493 0.05930055
000280 06 2c 8b 3c 2f 83 21 bc b7 a4 10 3d 3b f9 c7 3d
       0.016988765 -0.009857937 0.035313334 0.09764334
000290 ae aa eb bc f2 34 9b bb da 31 29 3c 20 a4 c3 3c
       -0.02876791 -0.004736536 0.010326827 0.023881972
0002a0 70 db cd 3c 9a 19 3a 3d ea 43 4f bc 0f 5b 76 bc
       0.02512905 0.04543457 -0.012650469 -0.0150363585
0002b0 32 65 df 3a d9 0c 88 bc df 79 d9 bc 6d de 31 3c
       0.0017043708 -0.016607689 -0.02654737 0.010856253
0002c0 81 f2 d5 bc 2c 6c 8a bc be 53 99 bc 9c c4 d8 bd
       -0.026116611 -0.016897283 -0.01871669 -0.10584375
0002d0 9a 75 60 3b 22 df 4a 3d 16 61 cd 3c d6 b8 a5 3c
       0.0034249783 0.049529202 0.025070708 0.020229738
0002e0 21 7c 16 3d 73 37 54 bd 74 9d 80 bd 6d e3 7d 3c
       0.036739472 -0.051810693 -0.06280032 0.015496117
0002f0 94 c6 e8 bb 5b 87 93 3c d0 a0 4d 3c 38 5a 53 bc
       -0.0071037505 0.018008878 0.012550548 -0.012899928
000300 69 8f 61 bb 75 df 27 be bc 2b e1 bb e7 ab 5e 3d
       -0.0034417755 -0.16393836 -0.0068716686 0.054363158
000310 68 c7 10 3d d5 57 d8 3c 37 29 33 ba 81 8f 62 3d
       0.03534642 0.02640907 -0.00068344496 0.055312637
000320 f8 83 82 3c 09 ad 4c 3d 80 29 c3 bd 8f 02 3a 3c
       0.015932068 0.049969707 -0.095294 0.011353149
000330 76 94 09 3c e2 35 82 3d 30 4d 89 b9 8d 28 a9 bc
       0.008397212 0.063579336 -0.00026188185 -0.020649219
000340 41 9f e4 bc e5 73 4b 3c 63 e9 80 bc d0 1a ff 3b
       -0.02790797 0.012417768 -0.015736287 0.0077851787
000350 82 7c bd 3a a6 5f 31 3d ca b1 3b bc 76 2e e8 bc
       0.0014456662 0.043304108 -0.011455962 -0.028342467
000360 23 55 d0 ba 24 50 cf 3d bb 59 b0 3c 5d e9 da 3a
       -0.0015894513 0.101227075 0.021527162 0.0016701628
000370 96 50 54 3d 7c 34 a0 bc 20 c1 e6 bd d2 65 bb 3b
       0.051834665 -0.019556277 -0.112673044 0.005718925
000380 67 1b 39 3d 74 83 77 3d bc a3 7a 3c e3 d6 9b bc
       0.04519215 0.060428098 0.015297826 -0.019023364
000390 0d e9 3e bd 7f 49 2e 3d 2f 92 75 bd c5 97 01 bd
       -0.046608973 0.04255056 -0.059953865 -0.03163888
0003a0 1f 92 85 bd 40 89 81 bc 0f 82 14 be a7 f8 55 bc
       -0.06522011 -0.015812516 -0.14502738 -0.013059772
0003b0 13 94 8c 3d e2 a8 16 3b 52 33 11 bc f6 f1 32 bb
       0.068641804 0.0022988846 -0.008862333 -0.0027304864
0003c0 72 ac 22 bc da c7 1b bd e4 09 36 bd f7 04 46 bc
       -0.0099288095 -0.03803239 -0.044443026 -0.012086145
0003d0 26 ca 83 bc 65 7b 6d 3c 6f b1 1b 3b 7b 6f 1c 3c
       -0.016087603 0.014494752 0.0023756882 0.009548063
0003e0 0b 96 01 bc bb 5a 10 3c 3e 62 a0 bb ee b2 63 3b
       -0.007909308 0.008810694 -0.004894524 0.0034744102
0003f0 eb ec 51 3d 38 48 eb bc e3 70 d4 3c 7d 73 a1 3c
       0.051251333 -0.02872096 0.025932735 0.01970839
