website/works/letterFromC/weights/CBN_B3_1_batchNormalization-moving_mean.npy (npy, 640 bytes, 1 tensors)

array f4 [128]
-0.43599677 8.480218 5.416492 1.5207957 3.4481058 2.842538 5.511657 1.8395371
1.1667058 8.616191 -2.3656704 7.5833435 2.348524 -0.21197338 0.01621434 -3.1055658
37.035324 0.36357757 11.342093 -1.7214321 -0.7063271 1.8833369 -0.4323181 -0.16892032
-2.2174141 3.4465823 2.0468273 -0.73002106 0.34487918 -2.6029284 2.7091072 -0.012388494
2.8183012 3.3684876 -9.6505575 -3.6605077 11.067564 -0.41120324 -7.042983 4.053928
-10.128699 3.7328098 -2.281589 -0.29876316 3.1946921 -23.335737 -4.517496 -0.035436004
0.91777796 -2.9860945 -1.4600848 1.3305057 20.477125 1.0513921 -1.8871596 11.646675
-0.6444917 -1.2765423 -2.5093625 -6.34712 1.3817744 1.407051 -3.9281695 -1.8208902
-1.4936662 -0.80560374 -4.7580914 6.5494823 0.07288109 0.5718445 0.32355747 0.2033815
4.453581 -6.647882 13.770733 -6.948792 2.6926475 -1.7735883 1.5978686 -0.5733288
3.936269 -2.2992647 1.7539083 -0.49727568 0.8282438 2.3323436 -0.677394 -0.96302027
-2.3430374 -2.901299 -4.8092556 -9.278634 -0.97555166 -0.1714356 1.5072767 -0.117842704
8.364874 2.0112364 1.576836 -1.3167182 6.6209064 0.5262272 -19.260075 0.5707362
5.5563264 0.93377584 -0.51951426 10.3956995 3.7470846 0.33526447 -1.4746704 1.4403223
1.054244 1.6235431 -3.9541347 -13.412863 -2.1644151 -2.859743 -0.7975552 0.6583765
0.008416597 0.6339509 0.56485003 -0.8110589 -3.8176858 0.15313035 -0.17531131 -2.188651
00000000: f83a dfbe f9ae 0741 e753 ad40 6fa9 c23f
00000010: c4ad 5c40 25ec 3540 7f5f b040 f475 eb3f
00000020: 9e56 953f ebdb 0941 2567 17c0 c0aa f240
00000030: 384e 1640 8d0f 59be f0d3 843c 97c1 46c0
00000040: 2c24 1442 d726 ba3e 3779 3541 e357 dcbf
00000050: dad1 34bf 2f11 f13f cc58 ddbe 73f9 2cbe
00000060: 1dea 0dc0 ce94 5c40 38ff 0240 a9e2 3abf
00000070: 0194 b03e 6196 26c0 0362 2d40 1cf9 4abc
00000080: 0c5f 3440 4d95 5740 af68 1ac1 c245 6ac0
00000090: be14 3141 3b89 d2be 1e60 e1c0 c7b9 8140
000000a0: 270f 22c1 5be6 6e40 8e05 12c0 7cf7 98be
000000b0: d675 4c40 97af bac1 548f 90c0 5825 11bd
000000c0: 7ff3 6a3f 2c1c 3fc0 0fe4 babf 034e aa3f
000000d0: 27d1 a341 0494 863f 728e f1bf c858 3a41
000000e0: 68fd 24bf bd65 a3bf 6599 20c0 9b1b cbc0
000000f0: fcdd b03f 3f1a b43f 2167 7bc0 ee12 e9bf
00000100: 7430 bfbf 0c3c 4ebf 4942 98c0 5c95 d140
00000110: ae42 953d 6764 123f 53a9 a53e 3d43 503e
00000120: bc83 8e40 73bb d4c0 ec54 5c41 815c dec0
00000130: 5654 2c40 f104 e3bf f586 cc3f adc5 12bf
00000140: d5eb 7b40 2727 13c0 1180 e03f eb9a febe
00000150: c907 543f 1e45 1540 b169 2dbf 7f88 76bf
00000160: 53f4 15c0 e2ae 39c0 6ce5 99c0 4975 14c1
00000170: c1bd 79bf d08c 2fbe 71ee c03f 8457 f1bd
00000180: 86d6 0541 19b8 0040 c3d5 c93f 398a a8bf
00000190: 77de d340 d3b6 063f a214 9ac1 c51b 123f
000001a0: 6dcd b140 ef0b 6f3f e3fe 04bf c954 2641
000001b0: 3cd0 6f40 c9a7 ab3e 00c2 bcbf 7b5c b83f
000001c0: 78f1 863f 43d0 cf3f 8b10 7dc0 169b 56c1
000001d0: c785 0ac0 0806 37c0 942c 4cbf 5d8b 283f
000001e0: c4e5 093c 9b4a 223f 039a 103f 8ea1 4fbf
000001f0: f754 74c0 34ce 1c3e cf84 33be dc12 0cc0
