website/works/letterFromC/weights/CBN_B1_2_batchNormalization-moving_mean.npy (npy, 1152 bytes, 1 tensors)

array f4 [256]
-4.0720816 1.1711799 0.0763034 1.1198057 0.15916952 0.19039007 1.032162 -1.2699001
-1.1449345 -0.70758075 -0.48971105 1.1524322 0.33644596 -0.35843113 0.096154355 1.357857
-1.1217281 1.2035608 2.2853572 -2.1644297 -0.20647202 2.3414984 -3.1619616 -1.3019855
1.4702379 1.1301306 2.7680037 1.3356113 -0.59475255 0.71045667 1.5378602 0.6681569
-0.20699164 1.3655683 1.016331 -0.9092677 3.131691 -0.8889353 0.100172594 -3.8591516
1.556896 -0.6937511 -0.66168916 -1.8247346 2.5492196 0.21375608 0.6748373 -1.0076295
1.2366114 -1.4025242 0.7307128 0.09297499 1.9341387 0.7018539 -1.6490136 0.56543964
0.12945208 0.2707961 -1.8980746 0.7844814 -1.6485845 -0.63367295 -1.4261917 2.7573526
-0.8587893 0.82961273 3.524523 2.634604 -0.5223862 2.4169056 -2.4387481 0.98252594
-0.25829563 0.57662934 -0.20708488 -1.6723756 0.9290766 1.1317462 -1.2796693 0.8892464
1.6866254 -0.06973752 -0.5659978 1.1162833 0.726892 0.75908226 0.7571963 -0.7595383
-0.64523906 -1.1200795 0.18191853 0.64009005 1.0874156 -0.3850328 -0.92829216 2.907755
-0.94725484 2.7315552 -2.210905 -1.219796 0.019597022 1.6429225 1.808113 -1.5883317
0.31869757 0.008944973 -0.4987484 1.7383174 -0.038955733 0.32360992 3.5177922 -2.141214
-0.8182462 -0.504831 -1.1405945 -0.06619853 4.03552 0.37188336 0.28960365 -0.62154716
-0.4163101 -0.826044 -0.15950845 -2.1336942 -0.21686365 -0.42038247 -3.4317946 -2.5798383
-2.1034527 -0.28716597 0.7693484 -1.6423308 -0.009476505 -0.73383224 -0.17001823 0.17665459
0.819365 0.6952043 0.48201388 0.9167264 0.12623587 -0.80251694 1.3701836 0.93787247
-0.64931804 -1.1390593 0.317252 1.0346812 -2.0585196 1.1252916 -0.3061696 -0.6402199
0.52249783 -0.08003341 -2.5682209 -0.9711203 0.546805 -0.6878835 -3.2809577 1.2501156
0.30109945 0.09876368 -0.64639264 -0.99044925 -1.5055428 -0.41885868 2.8266442 0.02669179
1.2948164 -1.395864 0.80516756 1.419555 1.0365729 -1.4465444 0.8287692 2.0649824
-4.7338877 -0.029640796 -0.8742391 -2.1363938 0.42748693 -0.36094004 0.9794364 -0.5116115
1.6029029 0.6676507 0.13545492 0.019518709 -1.1163989 0.20148422 0.7723712 -0.2049601
-0.11776328 2.7771504 -0.7825652 2.7686238 0.41640702 -0.4550124 -0.3381696 1.7505448
0.31043747 1.3321084 0.63450634 0.47909796 -1.4741495 3.0659287 -1.6974981 1.9954343
1.4678501 1.7831181 0.62689406 -1.7341202 1.4458458 0.6982041 1.2186009 -0.14721996
0.19155122 -2.0565012 1.3457693 0.54316837 -0.091799706 0.6780624 -1.3388265 2.5387132
-1.7929442 0.8196638 -0.063425876 -0.69435626 0.15582518 1.7929454 0.5547648 -1.3540778
-2.3900611 -1.0738274 -0.23486476 -0.6082136 3.2398694 0.79015696 1.3188175 -3.178712
0.19783318 -1.2107633 -3.8697424 0.4167025 -1.2709029 0.27674612 -2.2161286 -1.291128
1.9458356 0.20939702 -0.24793445 0.6696041 -1.2704772 0.394861 1.0496587 -0.09425286
00000000: 7e4e 82c0 39e9 953f f544 9c3d cb55 8f3f
00000010: 56fd 223e 9df5 423e e21d 843f 168c a2bf
00000020: 378d 92bf 0324 35bf 68bb fabe e682 933f
00000030: a542 ac3e 4984 b7be 93ec c43d 42ce ad3f
00000040: c994 8fbf 480e 9a3f 4b43 1240 0486 0ac0
00000050: 676d 53be 1cdb 1540 945d 4ac0 76a7 a6bf
00000060: c130 bc3f 1fa8 903f f926 3140 50f5 aa3f
00000070: b441 18bf 7de0 353f 9ad8 c43f 550c 2b3f
00000080: 9ef5 53be f1ca ae3f 2217 823f c5c5 68bf
00000090: a06d 4840 4491 63bf 4a27 cd3d 57fc 76c0
000000a0: 5e48 c73f ac99 31bf 7664 29bf e790 e9bf
000000b0: 6a26 2340 e0e2 5a3e 23c2 2c3f 01fa 80bf
000000c0: 4849 9e3f ea85 b3bf fe0f 3b3f ac69 be3d
000000d0: db91 f73f b2ac 333f e112 d3bf a7c0 103f
000000e0: 168f 043e c9a5 8a3e 1cf4 f2bf c6d3 483f
000000f0: d104 d3bf 6438 22bf 738d b6bf 7778 3040
00000100: 9ed9 5bbf 8061 543f c991 6140 5a9d 2840
00000110: 1abb 05bf 95ae 1a40 7314 1cc0 d286 7b3f
00000120: 533f 84be fb9d 133f 0f0e 54be 6710 d6bf
00000130: f7d7 6d3f 0fdd 903f 34cc a3bf a7a5 633f
00000140: 57e3 d73f 8bd2 8ebd 3be5 10bf 5fe2 8e3f
00000150: 9815 3a3f 3753 423f 9ed7 413f 1a71 42bf
00000160: 632e 25bf c45e 8fbf da48 3a3e f1dc 233f
00000170: 6f30 8b3f 0523 c5be 8ea4 6dbf a818 3a40
00000180: 4b7f 72bf cdd1 2e40 787f 0dc0 4622 9cbf
00000190: ef89 a03c 494b d23f 3f70 e73f 744e cbbf
000001a0: 542c a33e f08d 123c f35b ffbe 2f81 de3f
000001b0: 0c90 1fbd 33b0 a53e 8223 6140 a609 09c0
000001c0: 9578 51bf 9b3c 01bf 00ff 91bf 1893 87bd
000001d0: fb22 8140 7f67 be3e ee46 943e b71d 1fbf
000001e0: 9926 d5be 9f77 53bf 2f56 23be 728e 08c0
000001f0: 8111 5ebe 5f3c d7be 86a2 5bc0 121c 25c0
00000200: f89e 06c0 6b07 93be 04f4 443f e537 d2bf
00000210: 5843 1bbc 6edc 3bbf 4219 2ebe f1e4 343e
00000220: e8c1 513f e9f8 313f 86ca f63e 95ae 6a3f
00000230: fa43 013e c071 4dbf 2d62 af3f 6918 703f
00000240: b539 26bf b2cc 91bf db6e a23e 6f70 843f
00000250: c9be 03c0 8e09 903f 43c2 9cbe 74e5 23bf
00000260: 6bc2 053f 8ee8 a3bd bb5d 24c0 579b 78bf
00000270: 6afb 0b3f 2219 30bf 36fb 51c0 ca03 a03f
00000280: b529 9a3e 9d44 ca3d fd79 25bf 158e 7dbf
00000290: a0b5 c0bf a574 d6be bde7 3440 bea8 da3c
000002a0: 8bbc a53f acab b2bf 761f 4e3f fab3 b53f
000002b0: 6cae 843f 5e28 b9bf 382a 543f ac28 0440
000002c0: 027c 97c0 41d1 f2bc 22ce 5fbf adba 08c0
000002d0: 91df da3e 22cd b8be 58bc 7a3f f9f8 02bf
000002e0: ec2b cd3f 28eb 2a3f b2b4 0a3e b3e5 9f3c
000002f0: 29e6 8ebf e151 4e3e 1eba 453f 0fe1 51be
00000300: e02d f1bd d5bc 3140 3156 48bf 2231 3140
00000310: 4d33 d53e 63f7 e8be 9124 adbe da11 e03f
00000320: a9f1 9e3e 8782 aa3f 026f 223f 544c f53e
00000330: eeb0 bcbf 2d38 4440 9e47 d9bf 646a ff3f
00000340: 83e2 bb3f 373d e43f 217c 203f a7f7 ddbf
00000350: 7a11 b93f 81bd 323f 1dfb 9b3f d4c0 16be
00000360: 0126 443e b79d 03c0 2b42 ac3f 150d 0b3f
00000370: 7c01 bcbd 7f95 2d3f ab5e abbf 477a 2240
00000380: 327f e5bf 7dd5 513f 6de5 81bd 55c1 31bf
00000390: a390 1f3e 3c7f e53f 1105 0e3f 6c52 adbf
000003a0: c3f6 18c0 2d73 89bf 6380 70be e3b3 1bbf
000003b0: 055a 4f40 ba47 4a3f 03cf a83f 0470 4bc0
000003c0: c894 4a3e 4bfa 9abf dca9 77c0 085a d53e
000003d0: f2ac a2bf abb1 8d3e 0dd5 0dc0 af43 a5bf
000003e0: 2411 f93f 2c6c 563e 87e2 7dbe 2d6b 2b3f
000003f0: ff9e a2bf 392b ca3e 375b 863f a507 c1bd
